#loc = loc("/tmp/torchinductor_yxiao986/2t/c2tqi64jqmovdb4f7257yumzxfzyqrsnepcdnj3g6s4tgvonx4vl.py":18:0)
#loc1 = loc(unknown)
#loc26 = loc("/tmp/torchinductor_yxiao986/2t/c2tqi64jqmovdb4f7257yumzxfzyqrsnepcdnj3g6s4tgvonx4vl.py":47:59)
#loc43 = loc(callsite(#loc1 at #loc26))
module {
  tt.func public @triton_per_fused__to_copy_add_embedding_mean_mul_pow_rsqrt_0(%arg0: !tt.ptr<i32> {tt.divisibility = 16 : i32} loc("/tmp/torchinductor_yxiao986/2t/c2tqi64jqmovdb4f7257yumzxfzyqrsnepcdnj3g6s4tgvonx4vl.py":18:0), %arg1: !tt.ptr<f16> {tt.divisibility = 16 : i32} loc("/tmp/torchinductor_yxiao986/2t/c2tqi64jqmovdb4f7257yumzxfzyqrsnepcdnj3g6s4tgvonx4vl.py":18:0), %arg2: !tt.ptr<f16> {tt.divisibility = 16 : i32} loc("/tmp/torchinductor_yxiao986/2t/c2tqi64jqmovdb4f7257yumzxfzyqrsnepcdnj3g6s4tgvonx4vl.py":18:0), %arg3: !tt.ptr<f16> {tt.divisibility = 16 : i32} loc("/tmp/torchinductor_yxiao986/2t/c2tqi64jqmovdb4f7257yumzxfzyqrsnepcdnj3g6s4tgvonx4vl.py":18:0), %arg4: !tt.ptr<f16> {tt.divisibility = 16 : i32} loc("/tmp/torchinductor_yxiao986/2t/c2tqi64jqmovdb4f7257yumzxfzyqrsnepcdnj3g6s4tgvonx4vl.py":18:0), %arg5: i32 loc("/tmp/torchinductor_yxiao986/2t/c2tqi64jqmovdb4f7257yumzxfzyqrsnepcdnj3g6s4tgvonx4vl.py":18:0), %arg6: i32 {tt.divisibility = 16 : i32} loc("/tmp/torchinductor_yxiao986/2t/c2tqi64jqmovdb4f7257yumzxfzyqrsnepcdnj3g6s4tgvonx4vl.py":18:0)) attributes {noinline = false} {
    %c576_i32 = arith.constant 576 : i32 loc(#loc1)
    %cst = arith.constant 9.99999974E-6 : f32 loc(#loc1)
    %cst_0 = arith.constant 5.760000e+02 : f32 loc(#loc1)
    %cst_1 = arith.constant 0.000000e+00 : f32 loc(#loc1)
    %cst_2 = arith.constant dense<576> : tensor<1xi64> loc(#loc1)
    %cst_3 = arith.constant dense<49152> : tensor<1xi64> loc(#loc1)
    %cst_4 = arith.constant dense<0> : tensor<1xi64> loc(#loc1)
    %cst_5 = arith.constant dense<0.000000e+00> : tensor<1024xf16> loc(#loc1)
    %cst_6 = arith.constant dense<0.000000e+00> : tensor<1024xf32> loc(#loc1)
    %cst_7 = arith.constant dense<576> : tensor<1024xi32> loc(#loc1)
    %0 = tt.get_program_id x : i32 loc(#loc2)
    %1 = tt.make_range {end = 1024 : i32, start = 0 : i32} : tensor<1024xi32> loc(#loc3)
    %2 = arith.cmpi slt, %1, %cst_7 : tensor<1024xi32> loc(#loc4)
    %3 = tt.addptr %arg0, %0 : !tt.ptr<i32>, i32 loc(#loc5)
    %4 = tt.splat %3 : !tt.ptr<i32> -> tensor<1x!tt.ptr<i32>> loc(#loc5)
    %5 = tt.load %4 evictionPolicy = evict_last : tensor<1x!tt.ptr<i32>> loc(#loc6)
    %6 = tt.splat %arg2 : !tt.ptr<f16> -> tensor<1024x!tt.ptr<f16>> loc(#loc7)
    %7 = tt.addptr %6, %1 : tensor<1024x!tt.ptr<f16>>, tensor<1024xi32> loc(#loc7)
    %8 = tt.load %7, %2, %cst_5 evictionPolicy = evict_last : tensor<1024x!tt.ptr<f16>> loc(#loc8)
    %9 = arith.extf %8 : tensor<1024xf16> to tensor<1024xf32> loc(#loc9)
    %10 = arith.extsi %5 : tensor<1xi32> to tensor<1xi64> loc(#loc10)
    %11 = arith.addi %10, %cst_3 : tensor<1xi64> loc(#loc11)
    %12 = arith.cmpi slt, %10, %cst_4 : tensor<1xi64> loc(#loc12)
    %13 = arith.select %12, %11, %10 : tensor<1xi1>, tensor<1xi64> loc(#loc13)
    %14 = arith.cmpi sge, %13, %cst_4 : tensor<1xi64> loc(#loc14)
    %15 = arith.cmpi slt, %13, %cst_3 : tensor<1xi64> loc(#loc15)
    %16 = arith.andi %14, %15 : tensor<1xi1> loc(#loc16)
    %17 = tt.broadcast %16 : tensor<1xi1> -> tensor<1024xi1> loc(#loc16)
    tt.assert %17, "index out of bounds: 0 <= tmp5 < 49152" : tensor<1024xi1> loc(#loc17)
    %18 = arith.muli %13, %cst_2 : tensor<1xi64> loc(#loc18)
    %19 = tt.broadcast %18 : tensor<1xi64> -> tensor<1024xi64> loc(#loc18)
    %20 = arith.extsi %1 : tensor<1024xi32> to tensor<1024xi64> loc(#loc19)
    %21 = arith.addi %20, %19 : tensor<1024xi64> loc(#loc19)
    %22 = tt.splat %arg1 : !tt.ptr<f16> -> tensor<1024x!tt.ptr<f16>> loc(#loc20)
    %23 = tt.addptr %22, %21 : tensor<1024x!tt.ptr<f16>>, tensor<1024xi64> loc(#loc20)
    %24 = tt.load %23, %2, %cst_5 : tensor<1024x!tt.ptr<f16>> loc(#loc21)
    %25 = arith.extf %24 : tensor<1024xf16> to tensor<1024xf32> loc(#loc22)
    %26 = arith.mulf %25, %25 : tensor<1024xf32> loc(#loc23)
    %27 = arith.select %2, %26, %cst_6 : tensor<1024xi1>, tensor<1024xf32> loc(#loc24)
    %28 = "tt.reduce"(%27) <{axis = 0 : i32}> ({
    ^bb0(%arg7: f32 loc(callsite(#loc1 at #loc26)), %arg8: f32 loc(callsite(#loc1 at #loc26))):
      %44 = arith.addf %arg7, %arg8 : f32 loc(#loc47)
      tt.reduce.return %44 : f32 loc(#loc42)
    }) : (tensor<1024xf32>) -> f32 loc(#loc42)
    %29 = arith.addf %28, %cst_1 : f32 loc(#loc44)
    %30 = arith.divf %29, %cst_0 : f32 loc(#loc30)
    %31 = arith.addf %30, %cst : f32 loc(#loc31)
    %32 = tt.extern_elementwise %31 {libname = "", libpath = "", pure = true, symbol = "__nv_rsqrtf"} : (f32) -> f32 loc(#loc32)
    %33 = tt.splat %32 : f32 -> tensor<1024xf32> loc(#loc45)
    %34 = arith.mulf %25, %33 : tensor<1024xf32> loc(#loc33)
    %35 = arith.mulf %34, %9 : tensor<1024xf32> loc(#loc34)
    %36 = arith.muli %0, %c576_i32 : i32 loc(#loc35)
    %37 = tt.splat %36 : i32 -> tensor<1024xi32> loc(#loc46)
    %38 = arith.addi %1, %37 : tensor<1024xi32> loc(#loc36)
    %39 = tt.splat %arg3 : !tt.ptr<f16> -> tensor<1024x!tt.ptr<f16>> loc(#loc37)
    %40 = tt.addptr %39, %38 : tensor<1024x!tt.ptr<f16>>, tensor<1024xi32> loc(#loc37)
    tt.store %40, %24, %2 : tensor<1024x!tt.ptr<f16>> loc(#loc38)
    %41 = tt.splat %arg4 : !tt.ptr<f16> -> tensor<1024x!tt.ptr<f16>> loc(#loc39)
    %42 = tt.addptr %41, %38 : tensor<1024x!tt.ptr<f16>>, tensor<1024xi32> loc(#loc39)
    %43 = arith.truncf %35 : tensor<1024xf32> to tensor<1024xf16> loc(#loc40)
    tt.store %42, %43, %2 : tensor<1024x!tt.ptr<f16>> loc(#loc40)
    tt.return loc(#loc41)
  } loc(#loc)
} loc(#loc)
#loc2 = loc("/tmp/torchinductor_yxiao986/2t/c2tqi64jqmovdb4f7257yumzxfzyqrsnepcdnj3g6s4tgvonx4vl.py":24:28)
#loc3 = loc("/tmp/torchinductor_yxiao986/2t/c2tqi64jqmovdb4f7257yumzxfzyqrsnepcdnj3g6s4tgvonx4vl.py":27:28)
#loc4 = loc("/tmp/torchinductor_yxiao986/2t/c2tqi64jqmovdb4f7257yumzxfzyqrsnepcdnj3g6s4tgvonx4vl.py":29:25)
#loc5 = loc("/tmp/torchinductor_yxiao986/2t/c2tqi64jqmovdb4f7257yumzxfzyqrsnepcdnj3g6s4tgvonx4vl.py":34:30)
#loc6 = loc("/tmp/torchinductor_yxiao986/2t/c2tqi64jqmovdb4f7257yumzxfzyqrsnepcdnj3g6s4tgvonx4vl.py":34:35)
#loc7 = loc("/tmp/torchinductor_yxiao986/2t/c2tqi64jqmovdb4f7257yumzxfzyqrsnepcdnj3g6s4tgvonx4vl.py":35:31)
#loc8 = loc("/tmp/torchinductor_yxiao986/2t/c2tqi64jqmovdb4f7257yumzxfzyqrsnepcdnj3g6s4tgvonx4vl.py":35:38)
#loc9 = loc("/tmp/torchinductor_yxiao986/2t/c2tqi64jqmovdb4f7257yumzxfzyqrsnepcdnj3g6s4tgvonx4vl.py":35:91)
#loc10 = loc("/tmp/torchinductor_yxiao986/2t/c2tqi64jqmovdb4f7257yumzxfzyqrsnepcdnj3g6s4tgvonx4vl.py":36:19)
#loc11 = loc("/tmp/torchinductor_yxiao986/2t/c2tqi64jqmovdb4f7257yumzxfzyqrsnepcdnj3g6s4tgvonx4vl.py":38:18)
#loc12 = loc("/tmp/torchinductor_yxiao986/2t/c2tqi64jqmovdb4f7257yumzxfzyqrsnepcdnj3g6s4tgvonx4vl.py":39:18)
#loc13 = loc("/tmp/torchinductor_yxiao986/2t/c2tqi64jqmovdb4f7257yumzxfzyqrsnepcdnj3g6s4tgvonx4vl.py":40:32)
#loc14 = loc("/tmp/torchinductor_yxiao986/2t/c2tqi64jqmovdb4f7257yumzxfzyqrsnepcdnj3g6s4tgvonx4vl.py":41:27)
#loc15 = loc("/tmp/torchinductor_yxiao986/2t/c2tqi64jqmovdb4f7257yumzxfzyqrsnepcdnj3g6s4tgvonx4vl.py":41:43)
#loc16 = loc("/tmp/torchinductor_yxiao986/2t/c2tqi64jqmovdb4f7257yumzxfzyqrsnepcdnj3g6s4tgvonx4vl.py":41:36)
#loc17 = loc("/tmp/torchinductor_yxiao986/2t/c2tqi64jqmovdb4f7257yumzxfzyqrsnepcdnj3g6s4tgvonx4vl.py":41:51)
#loc18 = loc("/tmp/torchinductor_yxiao986/2t/c2tqi64jqmovdb4f7257yumzxfzyqrsnepcdnj3g6s4tgvonx4vl.py":42:41)
#loc19 = loc("/tmp/torchinductor_yxiao986/2t/c2tqi64jqmovdb4f7257yumzxfzyqrsnepcdnj3g6s4tgvonx4vl.py":42:37)
#loc20 = loc("/tmp/torchinductor_yxiao986/2t/c2tqi64jqmovdb4f7257yumzxfzyqrsnepcdnj3g6s4tgvonx4vl.py":42:30)
#loc21 = loc("/tmp/torchinductor_yxiao986/2t/c2tqi64jqmovdb4f7257yumzxfzyqrsnepcdnj3g6s4tgvonx4vl.py":42:48)
#loc22 = loc("/tmp/torchinductor_yxiao986/2t/c2tqi64jqmovdb4f7257yumzxfzyqrsnepcdnj3g6s4tgvonx4vl.py":42:71)
#loc23 = loc("/tmp/torchinductor_yxiao986/2t/c2tqi64jqmovdb4f7257yumzxfzyqrsnepcdnj3g6s4tgvonx4vl.py":44:18)
#loc24 = loc("/tmp/torchinductor_yxiao986/2t/c2tqi64jqmovdb4f7257yumzxfzyqrsnepcdnj3g6s4tgvonx4vl.py":46:37)
#loc25 = loc("/store/comp4901b/yxiao986/miniconda3/envs/comp4901b-hw2/lib/python3.10/site-packages/triton/language/standard.py":290:36)
#loc27 = loc("/store/comp4901b/yxiao986/miniconda3/envs/comp4901b-hw2/lib/python3.10/site-packages/triton/language/standard.py":260:15)
#loc28 = loc("/store/comp4901b/yxiao986/miniconda3/envs/comp4901b-hw2/lib/python3.10/site-packages/torch/_inductor/runtime/triton_helpers.py":66:15)
#loc29 = loc("/tmp/torchinductor_yxiao986/2t/c2tqi64jqmovdb4f7257yumzxfzyqrsnepcdnj3g6s4tgvonx4vl.py":47:45)
#loc30 = loc("/tmp/torchinductor_yxiao986/2t/c2tqi64jqmovdb4f7257yumzxfzyqrsnepcdnj3g6s4tgvonx4vl.py":49:21)
#loc31 = loc("/tmp/torchinductor_yxiao986/2t/c2tqi64jqmovdb4f7257yumzxfzyqrsnepcdnj3g6s4tgvonx4vl.py":51:20)
#loc32 = loc("/tmp/torchinductor_yxiao986/2t/c2tqi64jqmovdb4f7257yumzxfzyqrsnepcdnj3g6s4tgvonx4vl.py":52:28)
#loc33 = loc("/tmp/torchinductor_yxiao986/2t/c2tqi64jqmovdb4f7257yumzxfzyqrsnepcdnj3g6s4tgvonx4vl.py":53:19)
#loc34 = loc("/tmp/torchinductor_yxiao986/2t/c2tqi64jqmovdb4f7257yumzxfzyqrsnepcdnj3g6s4tgvonx4vl.py":55:20)
#loc35 = loc("/tmp/torchinductor_yxiao986/2t/c2tqi64jqmovdb4f7257yumzxfzyqrsnepcdnj3g6s4tgvonx4vl.py":56:36)
#loc36 = loc("/tmp/torchinductor_yxiao986/2t/c2tqi64jqmovdb4f7257yumzxfzyqrsnepcdnj3g6s4tgvonx4vl.py":56:32)
#loc37 = loc("/tmp/torchinductor_yxiao986/2t/c2tqi64jqmovdb4f7257yumzxfzyqrsnepcdnj3g6s4tgvonx4vl.py":56:25)
#loc38 = loc("/tmp/torchinductor_yxiao986/2t/c2tqi64jqmovdb4f7257yumzxfzyqrsnepcdnj3g6s4tgvonx4vl.py":56:47)
#loc39 = loc("/tmp/torchinductor_yxiao986/2t/c2tqi64jqmovdb4f7257yumzxfzyqrsnepcdnj3g6s4tgvonx4vl.py":57:25)
#loc40 = loc("/tmp/torchinductor_yxiao986/2t/c2tqi64jqmovdb4f7257yumzxfzyqrsnepcdnj3g6s4tgvonx4vl.py":57:48)
#loc41 = loc("/tmp/torchinductor_yxiao986/2t/c2tqi64jqmovdb4f7257yumzxfzyqrsnepcdnj3g6s4tgvonx4vl.py":57:4)
#loc42 = loc(callsite(#loc25 at #loc26))
#loc44 = loc(callsite(#loc28 at #loc29))
#loc45 = loc(fused[#loc33, #loc32])
#loc46 = loc(fused[#loc36, #loc35])
#loc47 = loc(callsite(#loc27 at #loc42))
