#loc = loc("/tmp/torchinductor_yxiao986/62/c62mf55x64z3ssx6th5abyhuxsj3lppn3w6iybmasfn7nprrdxpd.py":18:0)
module {
  tt.func public @triton_poi_fused_cat_3(%arg0: !tt.ptr<f16> {tt.divisibility = 16 : i32} loc("/tmp/torchinductor_yxiao986/62/c62mf55x64z3ssx6th5abyhuxsj3lppn3w6iybmasfn7nprrdxpd.py":18:0), %arg1: !tt.ptr<i64> {tt.divisibility = 16 : i32} loc("/tmp/torchinductor_yxiao986/62/c62mf55x64z3ssx6th5abyhuxsj3lppn3w6iybmasfn7nprrdxpd.py":18:0), %arg2: !tt.ptr<f16> {tt.divisibility = 16 : i32} loc("/tmp/torchinductor_yxiao986/62/c62mf55x64z3ssx6th5abyhuxsj3lppn3w6iybmasfn7nprrdxpd.py":18:0), %arg3: !tt.ptr<f16> {tt.divisibility = 16 : i32} loc("/tmp/torchinductor_yxiao986/62/c62mf55x64z3ssx6th5abyhuxsj3lppn3w6iybmasfn7nprrdxpd.py":18:0), %arg4: i32 {tt.divisibility = 16 : i32} loc("/tmp/torchinductor_yxiao986/62/c62mf55x64z3ssx6th5abyhuxsj3lppn3w6iybmasfn7nprrdxpd.py":18:0)) attributes {noinline = false} {
    %cst = arith.constant dense<8192> : tensor<1024xi64> loc(#loc1)
    %cst_0 = arith.constant dense<0> : tensor<1024xi64> loc(#loc1)
    %cst_1 = arith.constant dense<0.000000e+00> : tensor<1024xf16> loc(#loc1)
    %cst_2 = arith.constant dense<-32> : tensor<1024xi32> loc(#loc1)
    %cst_3 = arith.constant dense<32> : tensor<1024xi32> loc(#loc1)
    %cst_4 = arith.constant dense<64> : tensor<1024xi64> loc(#loc1)
    %cst_5 = arith.constant dense<true> : tensor<1024xi1> loc(#loc1)
    %cst_6 = arith.constant dense<0.000000e+00> : tensor<1024xf32> loc(#loc1)
    %cst_7 = arith.constant dense<960> : tensor<1024xi32> loc(#loc1)
    %cst_8 = arith.constant dense<32> : tensor<1024xi64> loc(#loc1)
    %cst_9 = arith.constant dense<576> : tensor<1024xi32> loc(#loc1)
    %cst_10 = arith.constant dense<9> : tensor<1024xi32> loc(#loc1)
    %cst_11 = arith.constant dense<64> : tensor<1024xi32> loc(#loc1)
    %c1024_i32 = arith.constant 1024 : i32 loc(#loc1)
    %0 = tt.get_program_id x : i32 loc(#loc2)
    %1 = arith.muli %0, %c1024_i32 : i32 loc(#loc3)
    %2 = tt.make_range {end = 1024 : i32, start = 0 : i32} : tensor<1024xi32> loc(#loc4)
    %3 = tt.splat %1 : i32 -> tensor<1024xi32> loc(#loc5)
    %4 = arith.addi %3, %2 : tensor<1024xi32> loc(#loc5)
    %5 = tt.splat %arg4 : i32 -> tensor<1024xi32> loc(#loc6)
    %6 = arith.cmpi slt, %4, %5 : tensor<1024xi32> loc(#loc6)
    %7 = arith.remsi %4, %cst_11 : tensor<1024xi32> loc(#loc7)
    %8 = arith.divsi %4, %cst_11 : tensor<1024xi32> loc(#loc8)
    %9 = arith.remsi %8, %cst_10 : tensor<1024xi32> loc(#loc9)
    %10 = arith.divsi %4, %cst_9 : tensor<1024xi32> loc(#loc10)
    %11 = arith.extsi %7 : tensor<1024xi32> to tensor<1024xi64> loc(#loc11)
    %12 = arith.cmpi slt, %11, %cst_8 : tensor<1024xi64> loc(#loc11)
    %13 = arith.muli %9, %cst_11 : tensor<1024xi32> loc(#loc12)
    %14 = arith.muli %10, %cst_7 : tensor<1024xi32> loc(#loc13)
    %15 = arith.addi %13, %14 : tensor<1024xi32> loc(#loc14)
    %16 = arith.addi %15, %7 : tensor<1024xi32> loc(#loc15)
    %17 = tt.splat %arg0 : !tt.ptr<f16> -> tensor<1024x!tt.ptr<f16>> loc(#loc16)
    %18 = tt.addptr %17, %16 : tensor<1024x!tt.ptr<f16>>, tensor<1024xi32> loc(#loc16)
    %19 = arith.andi %12, %6 : tensor<1024xi1> loc(#loc17)
    %20 = tt.load %18, %19, %cst_1 evictionPolicy = evict_last : tensor<1024x!tt.ptr<f16>> loc(#loc18)
    %21 = arith.extf %20 : tensor<1024xf16> to tensor<1024xf32> loc(#loc19)
    %22 = tt.splat %arg1 : !tt.ptr<i64> -> tensor<1024x!tt.ptr<i64>> loc(#loc20)
    %23 = tt.addptr %22, %10 : tensor<1024x!tt.ptr<i64>>, tensor<1024xi32> loc(#loc20)
    %24 = tt.load %23, %19, %cst_0 evictionPolicy = evict_last : tensor<1024x!tt.ptr<i64>> loc(#loc21)
    %25 = arith.addi %24, %cst : tensor<1024xi64> loc(#loc22)
    %26 = arith.cmpi slt, %24, %cst_0 : tensor<1024xi64> loc(#loc23)
    %27 = arith.select %26, %25, %24 : tensor<1024xi1>, tensor<1024xi64> loc(#loc24)
    %28 = arith.cmpi sge, %27, %cst_0 : tensor<1024xi64> loc(#loc25)
    %29 = arith.cmpi slt, %27, %cst : tensor<1024xi64> loc(#loc26)
    %30 = arith.andi %28, %29 : tensor<1024xi1> loc(#loc27)
    %31 = arith.xori %19, %cst_5 : tensor<1024xi1> loc(#loc28)
    %32 = arith.ori %30, %31 : tensor<1024xi1> loc(#loc29)
    tt.assert %32, "index out of bounds: 0 <= tl.broadcast_to(tmp10, [XBLOCK]) < 8192" : tensor<1024xi1> loc(#loc30)
    %33 = arith.muli %27, %cst_4 : tensor<1024xi64> loc(#loc31)
    %34 = arith.addi %33, %11 : tensor<1024xi64> loc(#loc32)
    %35 = tt.splat %arg2 : !tt.ptr<f16> -> tensor<1024x!tt.ptr<f16>> loc(#loc33)
    %36 = tt.addptr %35, %34 : tensor<1024x!tt.ptr<f16>>, tensor<1024xi64> loc(#loc33)
    %37 = tt.load %36, %19, %cst_1 evictionPolicy = evict_last : tensor<1024x!tt.ptr<f16>> loc(#loc34)
    %38 = arith.extf %37 : tensor<1024xf16> to tensor<1024xf32> loc(#loc35)
    %39 = arith.mulf %21, %38 : tensor<1024xf32> loc(#loc36)
    %40 = arith.addi %13, %cst_3 : tensor<1024xi32> loc(#loc37)
    %41 = arith.addi %40, %14 : tensor<1024xi32> loc(#loc38)
    %42 = arith.addi %41, %7 : tensor<1024xi32> loc(#loc39)
    %43 = tt.addptr %17, %42 : tensor<1024x!tt.ptr<f16>>, tensor<1024xi32> loc(#loc40)
    %44 = tt.load %43, %19, %cst_1 evictionPolicy = evict_last : tensor<1024x!tt.ptr<f16>> loc(#loc41)
    %45 = arith.extf %44 : tensor<1024xf16> to tensor<1024xf32> loc(#loc42)
    %46 = arith.addi %33, %cst_8 : tensor<1024xi64> loc(#loc43)
    %47 = arith.addi %46, %11 : tensor<1024xi64> loc(#loc44)
    %48 = tt.addptr %35, %47 : tensor<1024x!tt.ptr<f16>>, tensor<1024xi64> loc(#loc45)
    %49 = tt.load %48, %19, %cst_1 evictionPolicy = evict_last : tensor<1024x!tt.ptr<f16>> loc(#loc46)
    %50 = arith.extf %49 : tensor<1024xf16> to tensor<1024xf32> loc(#loc47)
    %51 = arith.mulf %45, %50 : tensor<1024xf32> loc(#loc48)
    %52 = arith.subf %39, %51 : tensor<1024xf32> loc(#loc49)
    %53 = arith.cmpi sge, %11, %cst_8 : tensor<1024xi64> loc(#loc50)
    %54 = arith.addi %7, %cst_2 : tensor<1024xi32> loc(#loc51)
    %55 = arith.addi %41, %54 : tensor<1024xi32> loc(#loc52)
    %56 = tt.addptr %17, %55 : tensor<1024x!tt.ptr<f16>>, tensor<1024xi32> loc(#loc53)
    %57 = arith.andi %53, %6 : tensor<1024xi1> loc(#loc54)
    %58 = tt.load %56, %57, %cst_1 evictionPolicy = evict_last : tensor<1024x!tt.ptr<f16>> loc(#loc55)
    %59 = arith.extf %58 : tensor<1024xf16> to tensor<1024xf32> loc(#loc56)
    %60 = tt.load %23, %57, %cst_0 evictionPolicy = evict_last : tensor<1024x!tt.ptr<i64>> loc(#loc57)
    %61 = arith.addi %60, %cst : tensor<1024xi64> loc(#loc58)
    %62 = arith.cmpi slt, %60, %cst_0 : tensor<1024xi64> loc(#loc59)
    %63 = arith.select %62, %61, %60 : tensor<1024xi1>, tensor<1024xi64> loc(#loc60)
    %64 = arith.cmpi sge, %63, %cst_0 : tensor<1024xi64> loc(#loc61)
    %65 = arith.cmpi slt, %63, %cst : tensor<1024xi64> loc(#loc62)
    %66 = arith.andi %64, %65 : tensor<1024xi1> loc(#loc63)
    %67 = arith.xori %57, %cst_5 : tensor<1024xi1> loc(#loc64)
    %68 = arith.ori %66, %67 : tensor<1024xi1> loc(#loc65)
    tt.assert %68, "index out of bounds: 0 <= tl.broadcast_to(tmp28, [XBLOCK]) < 8192" : tensor<1024xi1> loc(#loc66)
    %69 = arith.muli %63, %cst_4 : tensor<1024xi64> loc(#loc67)
    %70 = arith.extsi %54 : tensor<1024xi32> to tensor<1024xi64> loc(#loc68)
    %71 = arith.addi %69, %70 : tensor<1024xi64> loc(#loc68)
    %72 = tt.addptr %35, %71 : tensor<1024x!tt.ptr<f16>>, tensor<1024xi64> loc(#loc69)
    %73 = tt.load %72, %57, %cst_1 evictionPolicy = evict_last : tensor<1024x!tt.ptr<f16>> loc(#loc70)
    %74 = arith.extf %73 : tensor<1024xf16> to tensor<1024xf32> loc(#loc71)
    %75 = arith.mulf %59, %74 : tensor<1024xf32> loc(#loc72)
    %76 = arith.addi %15, %54 : tensor<1024xi32> loc(#loc73)
    %77 = tt.addptr %17, %76 : tensor<1024x!tt.ptr<f16>>, tensor<1024xi32> loc(#loc74)
    %78 = tt.load %77, %57, %cst_1 evictionPolicy = evict_last : tensor<1024x!tt.ptr<f16>> loc(#loc75)
    %79 = arith.extf %78 : tensor<1024xf16> to tensor<1024xf32> loc(#loc76)
    %80 = arith.addi %69, %cst_8 : tensor<1024xi64> loc(#loc77)
    %81 = arith.addi %80, %70 : tensor<1024xi64> loc(#loc78)
    %82 = tt.addptr %35, %81 : tensor<1024x!tt.ptr<f16>>, tensor<1024xi64> loc(#loc79)
    %83 = tt.load %82, %57, %cst_1 evictionPolicy = evict_last : tensor<1024x!tt.ptr<f16>> loc(#loc80)
    %84 = arith.extf %83 : tensor<1024xf16> to tensor<1024xf32> loc(#loc81)
    %85 = arith.mulf %79, %84 : tensor<1024xf32> loc(#loc82)
    %86 = arith.addf %75, %85 : tensor<1024xf32> loc(#loc83)
    %87 = arith.select %53, %86, %cst_6 : tensor<1024xi1>, tensor<1024xf32> loc(#loc84)
    %88 = arith.select %12, %52, %87 : tensor<1024xi1>, tensor<1024xf32> loc(#loc90)
    %89 = tt.splat %arg3 : !tt.ptr<f16> -> tensor<1024x!tt.ptr<f16>> loc(#loc87)
    %90 = tt.addptr %89, %4 : tensor<1024x!tt.ptr<f16>>, tensor<1024xi32> loc(#loc87)
    %91 = arith.truncf %88 : tensor<1024xf32> to tensor<1024xf16> loc(#loc88)
    tt.store %90, %91, %6 : tensor<1024x!tt.ptr<f16>> loc(#loc88)
    tt.return loc(#loc89)
  } loc(#loc)
} loc(#loc)
#loc1 = loc(unknown)
#loc2 = loc("/tmp/torchinductor_yxiao986/62/c62mf55x64z3ssx6th5abyhuxsj3lppn3w6iybmasfn7nprrdxpd.py":19:28)
#loc3 = loc("/tmp/torchinductor_yxiao986/62/c62mf55x64z3ssx6th5abyhuxsj3lppn3w6iybmasfn7nprrdxpd.py":19:33)
#loc4 = loc("/tmp/torchinductor_yxiao986/62/c62mf55x64z3ssx6th5abyhuxsj3lppn3w6iybmasfn7nprrdxpd.py":20:36)
#loc5 = loc("/tmp/torchinductor_yxiao986/62/c62mf55x64z3ssx6th5abyhuxsj3lppn3w6iybmasfn7nprrdxpd.py":20:23)
#loc6 = loc("/tmp/torchinductor_yxiao986/62/c62mf55x64z3ssx6th5abyhuxsj3lppn3w6iybmasfn7nprrdxpd.py":21:21)
#loc7 = loc("/tmp/torchinductor_yxiao986/62/c62mf55x64z3ssx6th5abyhuxsj3lppn3w6iybmasfn7nprrdxpd.py":22:19)
#loc8 = loc("/tmp/torchinductor_yxiao986/62/c62mf55x64z3ssx6th5abyhuxsj3lppn3w6iybmasfn7nprrdxpd.py":23:21)
#loc9 = loc("/tmp/torchinductor_yxiao986/62/c62mf55x64z3ssx6th5abyhuxsj3lppn3w6iybmasfn7nprrdxpd.py":23:27)
#loc10 = loc("/tmp/torchinductor_yxiao986/62/c62mf55x64z3ssx6th5abyhuxsj3lppn3w6iybmasfn7nprrdxpd.py":24:19)
#loc11 = loc("/tmp/torchinductor_yxiao986/62/c62mf55x64z3ssx6th5abyhuxsj3lppn3w6iybmasfn7nprrdxpd.py":30:18)
#loc12 = loc("/tmp/torchinductor_yxiao986/62/c62mf55x64z3ssx6th5abyhuxsj3lppn3w6iybmasfn7nprrdxpd.py":31:33)
#loc13 = loc("/tmp/torchinductor_yxiao986/62/c62mf55x64z3ssx6th5abyhuxsj3lppn3w6iybmasfn7nprrdxpd.py":31:42)
#loc14 = loc("/tmp/torchinductor_yxiao986/62/c62mf55x64z3ssx6th5abyhuxsj3lppn3w6iybmasfn7nprrdxpd.py":31:38)
#loc15 = loc("/tmp/torchinductor_yxiao986/62/c62mf55x64z3ssx6th5abyhuxsj3lppn3w6iybmasfn7nprrdxpd.py":31:48)
#loc16 = loc("/tmp/torchinductor_yxiao986/62/c62mf55x64z3ssx6th5abyhuxsj3lppn3w6iybmasfn7nprrdxpd.py":31:30)
#loc17 = loc("/tmp/torchinductor_yxiao986/62/c62mf55x64z3ssx6th5abyhuxsj3lppn3w6iybmasfn7nprrdxpd.py":31:61)
#loc18 = loc("/tmp/torchinductor_yxiao986/62/c62mf55x64z3ssx6th5abyhuxsj3lppn3w6iybmasfn7nprrdxpd.py":31:54)
#loc19 = loc("/tmp/torchinductor_yxiao986/62/c62mf55x64z3ssx6th5abyhuxsj3lppn3w6iybmasfn7nprrdxpd.py":31:112)
#loc20 = loc("/tmp/torchinductor_yxiao986/62/c62mf55x64z3ssx6th5abyhuxsj3lppn3w6iybmasfn7nprrdxpd.py":32:30)
#loc21 = loc("/tmp/torchinductor_yxiao986/62/c62mf55x64z3ssx6th5abyhuxsj3lppn3w6iybmasfn7nprrdxpd.py":32:35)
#loc22 = loc("/tmp/torchinductor_yxiao986/62/c62mf55x64z3ssx6th5abyhuxsj3lppn3w6iybmasfn7nprrdxpd.py":34:18)
#loc23 = loc("/tmp/torchinductor_yxiao986/62/c62mf55x64z3ssx6th5abyhuxsj3lppn3w6iybmasfn7nprrdxpd.py":35:18)
#loc24 = loc("/tmp/torchinductor_yxiao986/62/c62mf55x64z3ssx6th5abyhuxsj3lppn3w6iybmasfn7nprrdxpd.py":36:33)
#loc25 = loc("/tmp/torchinductor_yxiao986/62/c62mf55x64z3ssx6th5abyhuxsj3lppn3w6iybmasfn7nprrdxpd.py":37:28)
#loc26 = loc("/tmp/torchinductor_yxiao986/62/c62mf55x64z3ssx6th5abyhuxsj3lppn3w6iybmasfn7nprrdxpd.py":37:100)
#loc27 = loc("/tmp/torchinductor_yxiao986/62/c62mf55x64z3ssx6th5abyhuxsj3lppn3w6iybmasfn7nprrdxpd.py":37:65)
#loc28 = loc("/tmp/torchinductor_yxiao986/62/c62mf55x64z3ssx6th5abyhuxsj3lppn3w6iybmasfn7nprrdxpd.py":37:111)
#loc29 = loc("/tmp/torchinductor_yxiao986/62/c62mf55x64z3ssx6th5abyhuxsj3lppn3w6iybmasfn7nprrdxpd.py":37:109)
#loc30 = loc("/tmp/torchinductor_yxiao986/62/c62mf55x64z3ssx6th5abyhuxsj3lppn3w6iybmasfn7nprrdxpd.py":37:126)
#loc31 = loc("/tmp/torchinductor_yxiao986/62/c62mf55x64z3ssx6th5abyhuxsj3lppn3w6iybmasfn7nprrdxpd.py":38:34)
#loc32 = loc("/tmp/torchinductor_yxiao986/62/c62mf55x64z3ssx6th5abyhuxsj3lppn3w6iybmasfn7nprrdxpd.py":38:43)
#loc33 = loc("/tmp/torchinductor_yxiao986/62/c62mf55x64z3ssx6th5abyhuxsj3lppn3w6iybmasfn7nprrdxpd.py":38:31)
#loc34 = loc("/tmp/torchinductor_yxiao986/62/c62mf55x64z3ssx6th5abyhuxsj3lppn3w6iybmasfn7nprrdxpd.py":38:49)
#loc35 = loc("/tmp/torchinductor_yxiao986/62/c62mf55x64z3ssx6th5abyhuxsj3lppn3w6iybmasfn7nprrdxpd.py":38:107)
#loc36 = loc("/tmp/torchinductor_yxiao986/62/c62mf55x64z3ssx6th5abyhuxsj3lppn3w6iybmasfn7nprrdxpd.py":39:19)
#loc37 = loc("/tmp/torchinductor_yxiao986/62/c62mf55x64z3ssx6th5abyhuxsj3lppn3w6iybmasfn7nprrdxpd.py":40:36)
#loc38 = loc("/tmp/torchinductor_yxiao986/62/c62mf55x64z3ssx6th5abyhuxsj3lppn3w6iybmasfn7nprrdxpd.py":40:44)
#loc39 = loc("/tmp/torchinductor_yxiao986/62/c62mf55x64z3ssx6th5abyhuxsj3lppn3w6iybmasfn7nprrdxpd.py":40:54)
#loc40 = loc("/tmp/torchinductor_yxiao986/62/c62mf55x64z3ssx6th5abyhuxsj3lppn3w6iybmasfn7nprrdxpd.py":40:31)
#loc41 = loc("/tmp/torchinductor_yxiao986/62/c62mf55x64z3ssx6th5abyhuxsj3lppn3w6iybmasfn7nprrdxpd.py":40:60)
#loc42 = loc("/tmp/torchinductor_yxiao986/62/c62mf55x64z3ssx6th5abyhuxsj3lppn3w6iybmasfn7nprrdxpd.py":40:118)
#loc43 = loc("/tmp/torchinductor_yxiao986/62/c62mf55x64z3ssx6th5abyhuxsj3lppn3w6iybmasfn7nprrdxpd.py":41:36)
#loc44 = loc("/tmp/torchinductor_yxiao986/62/c62mf55x64z3ssx6th5abyhuxsj3lppn3w6iybmasfn7nprrdxpd.py":41:48)
#loc45 = loc("/tmp/torchinductor_yxiao986/62/c62mf55x64z3ssx6th5abyhuxsj3lppn3w6iybmasfn7nprrdxpd.py":41:31)
#loc46 = loc("/tmp/torchinductor_yxiao986/62/c62mf55x64z3ssx6th5abyhuxsj3lppn3w6iybmasfn7nprrdxpd.py":41:54)
#loc47 = loc("/tmp/torchinductor_yxiao986/62/c62mf55x64z3ssx6th5abyhuxsj3lppn3w6iybmasfn7nprrdxpd.py":41:112)
#loc48 = loc("/tmp/torchinductor_yxiao986/62/c62mf55x64z3ssx6th5abyhuxsj3lppn3w6iybmasfn7nprrdxpd.py":42:20)
#loc49 = loc("/tmp/torchinductor_yxiao986/62/c62mf55x64z3ssx6th5abyhuxsj3lppn3w6iybmasfn7nprrdxpd.py":43:20)
#loc50 = loc("/tmp/torchinductor_yxiao986/62/c62mf55x64z3ssx6th5abyhuxsj3lppn3w6iybmasfn7nprrdxpd.py":46:20)
#loc51 = loc("/tmp/torchinductor_yxiao986/62/c62mf55x64z3ssx6th5abyhuxsj3lppn3w6iybmasfn7nprrdxpd.py":49:62)
#loc52 = loc("/tmp/torchinductor_yxiao986/62/c62mf55x64z3ssx6th5abyhuxsj3lppn3w6iybmasfn7nprrdxpd.py":49:54)
#loc53 = loc("/tmp/torchinductor_yxiao986/62/c62mf55x64z3ssx6th5abyhuxsj3lppn3w6iybmasfn7nprrdxpd.py":49:31)
#loc54 = loc("/tmp/torchinductor_yxiao986/62/c62mf55x64z3ssx6th5abyhuxsj3lppn3w6iybmasfn7nprrdxpd.py":49:76)
#loc55 = loc("/tmp/torchinductor_yxiao986/62/c62mf55x64z3ssx6th5abyhuxsj3lppn3w6iybmasfn7nprrdxpd.py":49:68)
#loc56 = loc("/tmp/torchinductor_yxiao986/62/c62mf55x64z3ssx6th5abyhuxsj3lppn3w6iybmasfn7nprrdxpd.py":49:127)
#loc57 = loc("/tmp/torchinductor_yxiao986/62/c62mf55x64z3ssx6th5abyhuxsj3lppn3w6iybmasfn7nprrdxpd.py":50:36)
#loc58 = loc("/tmp/torchinductor_yxiao986/62/c62mf55x64z3ssx6th5abyhuxsj3lppn3w6iybmasfn7nprrdxpd.py":52:20)
#loc59 = loc("/tmp/torchinductor_yxiao986/62/c62mf55x64z3ssx6th5abyhuxsj3lppn3w6iybmasfn7nprrdxpd.py":53:20)
#loc60 = loc("/tmp/torchinductor_yxiao986/62/c62mf55x64z3ssx6th5abyhuxsj3lppn3w6iybmasfn7nprrdxpd.py":54:35)
#loc61 = loc("/tmp/torchinductor_yxiao986/62/c62mf55x64z3ssx6th5abyhuxsj3lppn3w6iybmasfn7nprrdxpd.py":55:28)
#loc62 = loc("/tmp/torchinductor_yxiao986/62/c62mf55x64z3ssx6th5abyhuxsj3lppn3w6iybmasfn7nprrdxpd.py":55:100)
#loc63 = loc("/tmp/torchinductor_yxiao986/62/c62mf55x64z3ssx6th5abyhuxsj3lppn3w6iybmasfn7nprrdxpd.py":55:65)
#loc64 = loc("/tmp/torchinductor_yxiao986/62/c62mf55x64z3ssx6th5abyhuxsj3lppn3w6iybmasfn7nprrdxpd.py":55:111)
#loc65 = loc("/tmp/torchinductor_yxiao986/62/c62mf55x64z3ssx6th5abyhuxsj3lppn3w6iybmasfn7nprrdxpd.py":55:109)
#loc66 = loc("/tmp/torchinductor_yxiao986/62/c62mf55x64z3ssx6th5abyhuxsj3lppn3w6iybmasfn7nprrdxpd.py":55:127)
#loc67 = loc("/tmp/torchinductor_yxiao986/62/c62mf55x64z3ssx6th5abyhuxsj3lppn3w6iybmasfn7nprrdxpd.py":56:34)
#loc68 = loc("/tmp/torchinductor_yxiao986/62/c62mf55x64z3ssx6th5abyhuxsj3lppn3w6iybmasfn7nprrdxpd.py":56:43)
#loc69 = loc("/tmp/torchinductor_yxiao986/62/c62mf55x64z3ssx6th5abyhuxsj3lppn3w6iybmasfn7nprrdxpd.py":56:31)
#loc70 = loc("/tmp/torchinductor_yxiao986/62/c62mf55x64z3ssx6th5abyhuxsj3lppn3w6iybmasfn7nprrdxpd.py":56:57)
#loc71 = loc("/tmp/torchinductor_yxiao986/62/c62mf55x64z3ssx6th5abyhuxsj3lppn3w6iybmasfn7nprrdxpd.py":56:116)
#loc72 = loc("/tmp/torchinductor_yxiao986/62/c62mf55x64z3ssx6th5abyhuxsj3lppn3w6iybmasfn7nprrdxpd.py":57:20)
#loc73 = loc("/tmp/torchinductor_yxiao986/62/c62mf55x64z3ssx6th5abyhuxsj3lppn3w6iybmasfn7nprrdxpd.py":58:49)
#loc74 = loc("/tmp/torchinductor_yxiao986/62/c62mf55x64z3ssx6th5abyhuxsj3lppn3w6iybmasfn7nprrdxpd.py":58:31)
#loc75 = loc("/tmp/torchinductor_yxiao986/62/c62mf55x64z3ssx6th5abyhuxsj3lppn3w6iybmasfn7nprrdxpd.py":58:63)
#loc76 = loc("/tmp/torchinductor_yxiao986/62/c62mf55x64z3ssx6th5abyhuxsj3lppn3w6iybmasfn7nprrdxpd.py":58:122)
#loc77 = loc("/tmp/torchinductor_yxiao986/62/c62mf55x64z3ssx6th5abyhuxsj3lppn3w6iybmasfn7nprrdxpd.py":59:36)
#loc78 = loc("/tmp/torchinductor_yxiao986/62/c62mf55x64z3ssx6th5abyhuxsj3lppn3w6iybmasfn7nprrdxpd.py":59:48)
#loc79 = loc("/tmp/torchinductor_yxiao986/62/c62mf55x64z3ssx6th5abyhuxsj3lppn3w6iybmasfn7nprrdxpd.py":59:31)
#loc80 = loc("/tmp/torchinductor_yxiao986/62/c62mf55x64z3ssx6th5abyhuxsj3lppn3w6iybmasfn7nprrdxpd.py":59:62)
#loc81 = loc("/tmp/torchinductor_yxiao986/62/c62mf55x64z3ssx6th5abyhuxsj3lppn3w6iybmasfn7nprrdxpd.py":59:121)
#loc82 = loc("/tmp/torchinductor_yxiao986/62/c62mf55x64z3ssx6th5abyhuxsj3lppn3w6iybmasfn7nprrdxpd.py":60:20)
#loc83 = loc("/tmp/torchinductor_yxiao986/62/c62mf55x64z3ssx6th5abyhuxsj3lppn3w6iybmasfn7nprrdxpd.py":61:20)
#loc84 = loc("/tmp/torchinductor_yxiao986/62/c62mf55x64z3ssx6th5abyhuxsj3lppn3w6iybmasfn7nprrdxpd.py":63:35)
#loc85 = loc("/tmp/torchinductor_yxiao986/62/c62mf55x64z3ssx6th5abyhuxsj3lppn3w6iybmasfn7nprrdxpd.py":64:34)
#loc86 = loc("/tmp/torchinductor_yxiao986/62/c62mf55x64z3ssx6th5abyhuxsj3lppn3w6iybmasfn7nprrdxpd.py":45:34)
#loc87 = loc("/tmp/torchinductor_yxiao986/62/c62mf55x64z3ssx6th5abyhuxsj3lppn3w6iybmasfn7nprrdxpd.py":65:25)
#loc88 = loc("/tmp/torchinductor_yxiao986/62/c62mf55x64z3ssx6th5abyhuxsj3lppn3w6iybmasfn7nprrdxpd.py":65:37)
#loc89 = loc("/tmp/torchinductor_yxiao986/62/c62mf55x64z3ssx6th5abyhuxsj3lppn3w6iybmasfn7nprrdxpd.py":65:4)
#loc90 = loc(fused[#loc85, #loc86])
