#loc = loc("/tmp/torchinductor_yxiao986/62/c62mf55x64z3ssx6th5abyhuxsj3lppn3w6iybmasfn7nprrdxpd.py":18:0)
module {
  tt.func public @triton_poi_fused_cat_3(%arg0: !tt.ptr<f16> {tt.divisibility = 16 : i32} loc("/tmp/torchinductor_yxiao986/62/c62mf55x64z3ssx6th5abyhuxsj3lppn3w6iybmasfn7nprrdxpd.py":18:0), %arg1: !tt.ptr<i64> {tt.divisibility = 16 : i32} loc("/tmp/torchinductor_yxiao986/62/c62mf55x64z3ssx6th5abyhuxsj3lppn3w6iybmasfn7nprrdxpd.py":18:0), %arg2: !tt.ptr<f16> {tt.divisibility = 16 : i32} loc("/tmp/torchinductor_yxiao986/62/c62mf55x64z3ssx6th5abyhuxsj3lppn3w6iybmasfn7nprrdxpd.py":18:0), %arg3: !tt.ptr<f16> {tt.divisibility = 16 : i32} loc("/tmp/torchinductor_yxiao986/62/c62mf55x64z3ssx6th5abyhuxsj3lppn3w6iybmasfn7nprrdxpd.py":18:0), %arg4: i32 {tt.divisibility = 16 : i32} loc("/tmp/torchinductor_yxiao986/62/c62mf55x64z3ssx6th5abyhuxsj3lppn3w6iybmasfn7nprrdxpd.py":18:0)) attributes {noinline = false} {
    %0 = tt.get_program_id x : i32 loc(#loc1)
    %c1024_i32 = arith.constant 1024 : i32 loc(#loc2)
    %c1024_i32_0 = arith.constant 1024 : i32 loc(#loc2)
    %1 = arith.muli %0, %c1024_i32_0 : i32 loc(#loc2)
    %2 = tt.make_range {end = 1024 : i32, start = 0 : i32} : tensor<1024xi32> loc(#loc3)
    %3 = tt.splat %1 : i32 -> tensor<1024xi32> loc(#loc4)
    %4 = arith.addi %3, %2 : tensor<1024xi32> loc(#loc4)
    %5 = tt.splat %arg4 : i32 -> tensor<1024xi32> loc(#loc5)
    %6 = arith.cmpi slt, %4, %5 : tensor<1024xi32> loc(#loc5)
    %c64_i32 = arith.constant 64 : i32 loc(#loc6)
    %c64_i32_1 = arith.constant 64 : i32 loc(#loc6)
    %cst = arith.constant dense<64> : tensor<1024xi32> loc(#loc6)
    %7 = arith.remsi %4, %cst : tensor<1024xi32> loc(#loc6)
    %c64_i32_2 = arith.constant 64 : i32 loc(#loc7)
    %c64_i32_3 = arith.constant 64 : i32 loc(#loc7)
    %cst_4 = arith.constant dense<64> : tensor<1024xi32> loc(#loc7)
    %8 = arith.divsi %4, %cst_4 : tensor<1024xi32> loc(#loc7)
    %c9_i32 = arith.constant 9 : i32 loc(#loc8)
    %c9_i32_5 = arith.constant 9 : i32 loc(#loc8)
    %cst_6 = arith.constant dense<9> : tensor<1024xi32> loc(#loc8)
    %9 = arith.remsi %8, %cst_6 : tensor<1024xi32> loc(#loc8)
    %c576_i32 = arith.constant 576 : i32 loc(#loc9)
    %c576_i32_7 = arith.constant 576 : i32 loc(#loc9)
    %cst_8 = arith.constant dense<576> : tensor<1024xi32> loc(#loc9)
    %10 = arith.divsi %4, %cst_8 : tensor<1024xi32> loc(#loc9)
    %c0_i64 = arith.constant 0 : i64 loc(#loc10)
    %cst_9 = arith.constant dense<0> : tensor<1xi64> loc(#loc10)
    %11 = arith.extsi %7 : tensor<1024xi32> to tensor<1024xi64> loc(#loc11)
    %cst_10 = arith.constant dense<0> : tensor<1024xi64> loc(#loc11)
    %12 = arith.cmpi sge, %11, %cst_10 : tensor<1024xi64> loc(#loc11)
    %c32_i64 = arith.constant 32 : i64 loc(#loc12)
    %cst_11 = arith.constant dense<32> : tensor<1xi64> loc(#loc12)
    %13 = arith.extsi %7 : tensor<1024xi32> to tensor<1024xi64> loc(#loc13)
    %cst_12 = arith.constant dense<32> : tensor<1024xi64> loc(#loc13)
    %14 = arith.cmpi slt, %13, %cst_12 : tensor<1024xi64> loc(#loc13)
    %c64_i32_13 = arith.constant 64 : i32 loc(#loc14)
    %c64_i32_14 = arith.constant 64 : i32 loc(#loc14)
    %cst_15 = arith.constant dense<64> : tensor<1024xi32> loc(#loc14)
    %15 = arith.muli %cst_15, %9 : tensor<1024xi32> loc(#loc14)
    %c960_i32 = arith.constant 960 : i32 loc(#loc15)
    %c960_i32_16 = arith.constant 960 : i32 loc(#loc15)
    %cst_17 = arith.constant dense<960> : tensor<1024xi32> loc(#loc15)
    %16 = arith.muli %cst_17, %10 : tensor<1024xi32> loc(#loc15)
    %17 = arith.addi %15, %16 : tensor<1024xi32> loc(#loc16)
    %18 = arith.addi %17, %7 : tensor<1024xi32> loc(#loc17)
    %19 = tt.splat %arg0 : !tt.ptr<f16> -> tensor<1024x!tt.ptr<f16>> loc(#loc18)
    %20 = tt.addptr %19, %18 : tensor<1024x!tt.ptr<f16>>, tensor<1024xi32> loc(#loc18)
    %21 = arith.andi %14, %6 : tensor<1024xi1> loc(#loc19)
    %cst_18 = arith.constant 0.000000e+00 : f32 loc(#loc20)
    %cst_19 = arith.constant dense<0.000000e+00> : tensor<1024xf32> loc(#loc20)
    %22 = arith.truncf %cst_19 : tensor<1024xf32> to tensor<1024xf16> loc(#loc20)
    %23 = tt.load %20, %21, %22 evictionPolicy = evict_last : tensor<1024x!tt.ptr<f16>> loc(#loc20)
    %24 = arith.extf %23 : tensor<1024xf16> to tensor<1024xf32> loc(#loc21)
    %25 = tt.splat %arg1 : !tt.ptr<i64> -> tensor<1024x!tt.ptr<i64>> loc(#loc22)
    %26 = tt.addptr %25, %10 : tensor<1024x!tt.ptr<i64>>, tensor<1024xi32> loc(#loc22)
    %27 = arith.andi %14, %6 : tensor<1024xi1> loc(#loc23)
    %cst_20 = arith.constant 0.000000e+00 : f32 loc(#loc24)
    %cst_21 = arith.constant dense<0.000000e+00> : tensor<1024xf32> loc(#loc24)
    %28 = arith.fptosi %cst_21 : tensor<1024xf32> to tensor<1024xi64> loc(#loc24)
    %29 = tt.load %26, %27, %28 evictionPolicy = evict_last : tensor<1024x!tt.ptr<i64>> loc(#loc24)
    %c8192_i32 = arith.constant 8192 : i32 loc(#loc25)
    %cst_22 = arith.constant dense<8192> : tensor<1024xi32> loc(#loc25)
    %30 = arith.extsi %cst_22 : tensor<1024xi32> to tensor<1024xi64> loc(#loc26)
    %31 = arith.addi %29, %30 : tensor<1024xi64> loc(#loc26)
    %c0_i32 = arith.constant 0 : i32 loc(#loc27)
    %32 = arith.extsi %c0_i32 : i32 to i64 loc(#loc27)
    %33 = tt.splat %32 : i64 -> tensor<1024xi64> loc(#loc27)
    %34 = arith.cmpi slt, %29, %33 : tensor<1024xi64> loc(#loc27)
    %35 = arith.select %34, %31, %29 : tensor<1024xi1>, tensor<1024xi64> loc(#loc28)
    %c0_i32_23 = arith.constant 0 : i32 loc(#loc29)
    %36 = arith.extsi %c0_i32_23 : i32 to i64 loc(#loc29)
    %37 = tt.splat %36 : i64 -> tensor<1024xi64> loc(#loc29)
    %38 = arith.cmpi sle, %37, %35 : tensor<1024xi64> loc(#loc29)
    %c8192_i32_24 = arith.constant 8192 : i32 loc(#loc30)
    %39 = arith.extsi %c8192_i32_24 : i32 to i64 loc(#loc30)
    %40 = tt.splat %39 : i64 -> tensor<1024xi64> loc(#loc30)
    %41 = arith.cmpi slt, %35, %40 : tensor<1024xi64> loc(#loc30)
    %42 = arith.andi %38, %41 : tensor<1024xi1> loc(#loc31)
    %43 = arith.andi %14, %6 : tensor<1024xi1> loc(#loc32)
    %true = arith.constant true loc(#loc33)
    %cst_25 = arith.constant dense<true> : tensor<1024xi1> loc(#loc33)
    %44 = arith.xori %43, %cst_25 : tensor<1024xi1> loc(#loc33)
    %45 = arith.ori %42, %44 : tensor<1024xi1> loc(#loc34)
    tt.assert %45, "index out of bounds: 0 <= tl.broadcast_to(tmp10, [XBLOCK]) < 8192" : tensor<1024xi1> loc(#loc35)
    %c64_i32_26 = arith.constant 64 : i32 loc(#loc36)
    %c64_i64 = arith.constant 64 : i64 loc(#loc36)
    %cst_27 = arith.constant dense<64> : tensor<1024xi64> loc(#loc36)
    %46 = arith.muli %cst_27, %35 : tensor<1024xi64> loc(#loc36)
    %47 = arith.extsi %7 : tensor<1024xi32> to tensor<1024xi64> loc(#loc37)
    %48 = arith.addi %46, %47 : tensor<1024xi64> loc(#loc37)
    %49 = tt.splat %arg2 : !tt.ptr<f16> -> tensor<1024x!tt.ptr<f16>> loc(#loc38)
    %50 = tt.addptr %49, %48 : tensor<1024x!tt.ptr<f16>>, tensor<1024xi64> loc(#loc38)
    %51 = arith.andi %14, %6 : tensor<1024xi1> loc(#loc39)
    %cst_28 = arith.constant 0.000000e+00 : f32 loc(#loc40)
    %cst_29 = arith.constant dense<0.000000e+00> : tensor<1024xf32> loc(#loc40)
    %52 = arith.truncf %cst_29 : tensor<1024xf32> to tensor<1024xf16> loc(#loc40)
    %53 = tt.load %50, %51, %52 evictionPolicy = evict_last : tensor<1024x!tt.ptr<f16>> loc(#loc40)
    %54 = arith.extf %53 : tensor<1024xf16> to tensor<1024xf32> loc(#loc41)
    %55 = arith.mulf %24, %54 : tensor<1024xf32> loc(#loc42)
    %c64_i32_30 = arith.constant 64 : i32 loc(#loc43)
    %c64_i32_31 = arith.constant 64 : i32 loc(#loc43)
    %cst_32 = arith.constant dense<64> : tensor<1024xi32> loc(#loc43)
    %56 = arith.muli %cst_32, %9 : tensor<1024xi32> loc(#loc43)
    %c32_i32 = arith.constant 32 : i32 loc(#loc44)
    %c32_i32_33 = arith.constant 32 : i32 loc(#loc44)
    %cst_34 = arith.constant dense<32> : tensor<1024xi32> loc(#loc44)
    %57 = arith.addi %cst_34, %56 : tensor<1024xi32> loc(#loc44)
    %c960_i32_35 = arith.constant 960 : i32 loc(#loc45)
    %c960_i32_36 = arith.constant 960 : i32 loc(#loc45)
    %cst_37 = arith.constant dense<960> : tensor<1024xi32> loc(#loc45)
    %58 = arith.muli %cst_37, %10 : tensor<1024xi32> loc(#loc45)
    %59 = arith.addi %57, %58 : tensor<1024xi32> loc(#loc46)
    %60 = arith.addi %59, %7 : tensor<1024xi32> loc(#loc47)
    %61 = tt.splat %arg0 : !tt.ptr<f16> -> tensor<1024x!tt.ptr<f16>> loc(#loc48)
    %62 = tt.addptr %61, %60 : tensor<1024x!tt.ptr<f16>>, tensor<1024xi32> loc(#loc48)
    %63 = arith.andi %14, %6 : tensor<1024xi1> loc(#loc49)
    %cst_38 = arith.constant 0.000000e+00 : f32 loc(#loc50)
    %cst_39 = arith.constant dense<0.000000e+00> : tensor<1024xf32> loc(#loc50)
    %64 = arith.truncf %cst_39 : tensor<1024xf32> to tensor<1024xf16> loc(#loc50)
    %65 = tt.load %62, %63, %64 evictionPolicy = evict_last : tensor<1024x!tt.ptr<f16>> loc(#loc50)
    %66 = arith.extf %65 : tensor<1024xf16> to tensor<1024xf32> loc(#loc51)
    %c64_i32_40 = arith.constant 64 : i32 loc(#loc52)
    %c64_i64_41 = arith.constant 64 : i64 loc(#loc52)
    %cst_42 = arith.constant dense<64> : tensor<1024xi64> loc(#loc52)
    %67 = arith.muli %cst_42, %35 : tensor<1024xi64> loc(#loc52)
    %c32_i32_43 = arith.constant 32 : i32 loc(#loc53)
    %c32_i64_44 = arith.constant 32 : i64 loc(#loc53)
    %cst_45 = arith.constant dense<32> : tensor<1024xi64> loc(#loc53)
    %68 = arith.addi %cst_45, %67 : tensor<1024xi64> loc(#loc53)
    %69 = arith.extsi %7 : tensor<1024xi32> to tensor<1024xi64> loc(#loc54)
    %70 = arith.addi %68, %69 : tensor<1024xi64> loc(#loc54)
    %71 = tt.splat %arg2 : !tt.ptr<f16> -> tensor<1024x!tt.ptr<f16>> loc(#loc55)
    %72 = tt.addptr %71, %70 : tensor<1024x!tt.ptr<f16>>, tensor<1024xi64> loc(#loc55)
    %73 = arith.andi %14, %6 : tensor<1024xi1> loc(#loc56)
    %cst_46 = arith.constant 0.000000e+00 : f32 loc(#loc57)
    %cst_47 = arith.constant dense<0.000000e+00> : tensor<1024xf32> loc(#loc57)
    %74 = arith.truncf %cst_47 : tensor<1024xf32> to tensor<1024xf16> loc(#loc57)
    %75 = tt.load %72, %73, %74 evictionPolicy = evict_last : tensor<1024x!tt.ptr<f16>> loc(#loc57)
    %76 = arith.extf %75 : tensor<1024xf16> to tensor<1024xf32> loc(#loc58)
    %77 = arith.mulf %66, %76 : tensor<1024xf32> loc(#loc59)
    %78 = arith.subf %55, %77 : tensor<1024xf32> loc(#loc60)
    %cst_48 = arith.constant 0.000000e+00 : f32 loc(#loc61)
    %cst_49 = arith.constant dense<0.000000e+00> : tensor<1024xf32> loc(#loc61)
    %79 = arith.select %14, %78, %cst_49 : tensor<1024xi1>, tensor<1024xf32> loc(#loc62)
    %80 = arith.extsi %7 : tensor<1024xi32> to tensor<1024xi64> loc(#loc63)
    %cst_50 = arith.constant dense<32> : tensor<1024xi64> loc(#loc63)
    %81 = arith.cmpi sge, %80, %cst_50 : tensor<1024xi64> loc(#loc63)
    %c64_i64_51 = arith.constant 64 : i64 loc(#loc64)
    %cst_52 = arith.constant dense<64> : tensor<1xi64> loc(#loc64)
    %82 = arith.extsi %7 : tensor<1024xi32> to tensor<1024xi64> loc(#loc65)
    %cst_53 = arith.constant dense<64> : tensor<1024xi64> loc(#loc65)
    %83 = arith.cmpi slt, %82, %cst_53 : tensor<1024xi64> loc(#loc65)
    %c64_i32_54 = arith.constant 64 : i32 loc(#loc66)
    %c64_i32_55 = arith.constant 64 : i32 loc(#loc66)
    %cst_56 = arith.constant dense<64> : tensor<1024xi32> loc(#loc66)
    %84 = arith.muli %cst_56, %9 : tensor<1024xi32> loc(#loc66)
    %c32_i32_57 = arith.constant 32 : i32 loc(#loc67)
    %c32_i32_58 = arith.constant 32 : i32 loc(#loc67)
    %cst_59 = arith.constant dense<32> : tensor<1024xi32> loc(#loc67)
    %85 = arith.addi %cst_59, %84 : tensor<1024xi32> loc(#loc67)
    %c960_i32_60 = arith.constant 960 : i32 loc(#loc68)
    %c960_i32_61 = arith.constant 960 : i32 loc(#loc68)
    %cst_62 = arith.constant dense<960> : tensor<1024xi32> loc(#loc68)
    %86 = arith.muli %cst_62, %10 : tensor<1024xi32> loc(#loc68)
    %87 = arith.addi %85, %86 : tensor<1024xi32> loc(#loc69)
    %c-32_i32 = arith.constant -32 : i32 loc(#loc70)
    %c-32_i32_63 = arith.constant -32 : i32 loc(#loc70)
    %cst_64 = arith.constant dense<-32> : tensor<1024xi32> loc(#loc70)
    %88 = arith.addi %cst_64, %7 : tensor<1024xi32> loc(#loc70)
    %89 = arith.addi %87, %88 : tensor<1024xi32> loc(#loc71)
    %90 = tt.splat %arg0 : !tt.ptr<f16> -> tensor<1024x!tt.ptr<f16>> loc(#loc72)
    %91 = tt.addptr %90, %89 : tensor<1024x!tt.ptr<f16>>, tensor<1024xi32> loc(#loc72)
    %92 = arith.andi %81, %6 : tensor<1024xi1> loc(#loc73)
    %cst_65 = arith.constant 0.000000e+00 : f32 loc(#loc74)
    %cst_66 = arith.constant dense<0.000000e+00> : tensor<1024xf32> loc(#loc74)
    %93 = arith.truncf %cst_66 : tensor<1024xf32> to tensor<1024xf16> loc(#loc74)
    %94 = tt.load %91, %92, %93 evictionPolicy = evict_last : tensor<1024x!tt.ptr<f16>> loc(#loc74)
    %95 = arith.extf %94 : tensor<1024xf16> to tensor<1024xf32> loc(#loc75)
    %96 = tt.splat %arg1 : !tt.ptr<i64> -> tensor<1024x!tt.ptr<i64>> loc(#loc76)
    %97 = tt.addptr %96, %10 : tensor<1024x!tt.ptr<i64>>, tensor<1024xi32> loc(#loc76)
    %98 = arith.andi %81, %6 : tensor<1024xi1> loc(#loc77)
    %cst_67 = arith.constant 0.000000e+00 : f32 loc(#loc78)
    %cst_68 = arith.constant dense<0.000000e+00> : tensor<1024xf32> loc(#loc78)
    %99 = arith.fptosi %cst_68 : tensor<1024xf32> to tensor<1024xi64> loc(#loc78)
    %100 = tt.load %97, %98, %99 evictionPolicy = evict_last : tensor<1024x!tt.ptr<i64>> loc(#loc78)
    %c8192_i32_69 = arith.constant 8192 : i32 loc(#loc79)
    %cst_70 = arith.constant dense<8192> : tensor<1024xi32> loc(#loc79)
    %101 = arith.extsi %cst_70 : tensor<1024xi32> to tensor<1024xi64> loc(#loc80)
    %102 = arith.addi %100, %101 : tensor<1024xi64> loc(#loc80)
    %c0_i32_71 = arith.constant 0 : i32 loc(#loc81)
    %103 = arith.extsi %c0_i32_71 : i32 to i64 loc(#loc81)
    %104 = tt.splat %103 : i64 -> tensor<1024xi64> loc(#loc81)
    %105 = arith.cmpi slt, %100, %104 : tensor<1024xi64> loc(#loc81)
    %106 = arith.select %105, %102, %100 : tensor<1024xi1>, tensor<1024xi64> loc(#loc82)
    %c0_i32_72 = arith.constant 0 : i32 loc(#loc83)
    %107 = arith.extsi %c0_i32_72 : i32 to i64 loc(#loc83)
    %108 = tt.splat %107 : i64 -> tensor<1024xi64> loc(#loc83)
    %109 = arith.cmpi sle, %108, %106 : tensor<1024xi64> loc(#loc83)
    %c8192_i32_73 = arith.constant 8192 : i32 loc(#loc84)
    %110 = arith.extsi %c8192_i32_73 : i32 to i64 loc(#loc84)
    %111 = tt.splat %110 : i64 -> tensor<1024xi64> loc(#loc84)
    %112 = arith.cmpi slt, %106, %111 : tensor<1024xi64> loc(#loc84)
    %113 = arith.andi %109, %112 : tensor<1024xi1> loc(#loc85)
    %114 = arith.andi %81, %6 : tensor<1024xi1> loc(#loc86)
    %true_74 = arith.constant true loc(#loc87)
    %cst_75 = arith.constant dense<true> : tensor<1024xi1> loc(#loc87)
    %115 = arith.xori %114, %cst_75 : tensor<1024xi1> loc(#loc87)
    %116 = arith.ori %113, %115 : tensor<1024xi1> loc(#loc88)
    tt.assert %116, "index out of bounds: 0 <= tl.broadcast_to(tmp28, [XBLOCK]) < 8192" : tensor<1024xi1> loc(#loc89)
    %c64_i32_76 = arith.constant 64 : i32 loc(#loc90)
    %c64_i64_77 = arith.constant 64 : i64 loc(#loc90)
    %cst_78 = arith.constant dense<64> : tensor<1024xi64> loc(#loc90)
    %117 = arith.muli %cst_78, %106 : tensor<1024xi64> loc(#loc90)
    %c-32_i32_79 = arith.constant -32 : i32 loc(#loc91)
    %c-32_i32_80 = arith.constant -32 : i32 loc(#loc91)
    %cst_81 = arith.constant dense<-32> : tensor<1024xi32> loc(#loc91)
    %118 = arith.addi %cst_81, %7 : tensor<1024xi32> loc(#loc91)
    %119 = arith.extsi %118 : tensor<1024xi32> to tensor<1024xi64> loc(#loc92)
    %120 = arith.addi %117, %119 : tensor<1024xi64> loc(#loc92)
    %121 = tt.splat %arg2 : !tt.ptr<f16> -> tensor<1024x!tt.ptr<f16>> loc(#loc93)
    %122 = tt.addptr %121, %120 : tensor<1024x!tt.ptr<f16>>, tensor<1024xi64> loc(#loc93)
    %123 = arith.andi %81, %6 : tensor<1024xi1> loc(#loc94)
    %cst_82 = arith.constant 0.000000e+00 : f32 loc(#loc95)
    %cst_83 = arith.constant dense<0.000000e+00> : tensor<1024xf32> loc(#loc95)
    %124 = arith.truncf %cst_83 : tensor<1024xf32> to tensor<1024xf16> loc(#loc95)
    %125 = tt.load %122, %123, %124 evictionPolicy = evict_last : tensor<1024x!tt.ptr<f16>> loc(#loc95)
    %126 = arith.extf %125 : tensor<1024xf16> to tensor<1024xf32> loc(#loc96)
    %127 = arith.mulf %95, %126 : tensor<1024xf32> loc(#loc97)
    %c64_i32_84 = arith.constant 64 : i32 loc(#loc98)
    %c64_i32_85 = arith.constant 64 : i32 loc(#loc98)
    %cst_86 = arith.constant dense<64> : tensor<1024xi32> loc(#loc98)
    %128 = arith.muli %cst_86, %9 : tensor<1024xi32> loc(#loc98)
    %c960_i32_87 = arith.constant 960 : i32 loc(#loc99)
    %c960_i32_88 = arith.constant 960 : i32 loc(#loc99)
    %cst_89 = arith.constant dense<960> : tensor<1024xi32> loc(#loc99)
    %129 = arith.muli %cst_89, %10 : tensor<1024xi32> loc(#loc99)
    %130 = arith.addi %128, %129 : tensor<1024xi32> loc(#loc100)
    %c-32_i32_90 = arith.constant -32 : i32 loc(#loc101)
    %c-32_i32_91 = arith.constant -32 : i32 loc(#loc101)
    %cst_92 = arith.constant dense<-32> : tensor<1024xi32> loc(#loc101)
    %131 = arith.addi %cst_92, %7 : tensor<1024xi32> loc(#loc101)
    %132 = arith.addi %130, %131 : tensor<1024xi32> loc(#loc102)
    %133 = tt.splat %arg0 : !tt.ptr<f16> -> tensor<1024x!tt.ptr<f16>> loc(#loc103)
    %134 = tt.addptr %133, %132 : tensor<1024x!tt.ptr<f16>>, tensor<1024xi32> loc(#loc103)
    %135 = arith.andi %81, %6 : tensor<1024xi1> loc(#loc104)
    %cst_93 = arith.constant 0.000000e+00 : f32 loc(#loc105)
    %cst_94 = arith.constant dense<0.000000e+00> : tensor<1024xf32> loc(#loc105)
    %136 = arith.truncf %cst_94 : tensor<1024xf32> to tensor<1024xf16> loc(#loc105)
    %137 = tt.load %134, %135, %136 evictionPolicy = evict_last : tensor<1024x!tt.ptr<f16>> loc(#loc105)
    %138 = arith.extf %137 : tensor<1024xf16> to tensor<1024xf32> loc(#loc106)
    %c64_i32_95 = arith.constant 64 : i32 loc(#loc107)
    %c64_i64_96 = arith.constant 64 : i64 loc(#loc107)
    %cst_97 = arith.constant dense<64> : tensor<1024xi64> loc(#loc107)
    %139 = arith.muli %cst_97, %106 : tensor<1024xi64> loc(#loc107)
    %c32_i32_98 = arith.constant 32 : i32 loc(#loc108)
    %c32_i64_99 = arith.constant 32 : i64 loc(#loc108)
    %cst_100 = arith.constant dense<32> : tensor<1024xi64> loc(#loc108)
    %140 = arith.addi %cst_100, %139 : tensor<1024xi64> loc(#loc108)
    %c-32_i32_101 = arith.constant -32 : i32 loc(#loc109)
    %c-32_i32_102 = arith.constant -32 : i32 loc(#loc109)
    %cst_103 = arith.constant dense<-32> : tensor<1024xi32> loc(#loc109)
    %141 = arith.addi %cst_103, %7 : tensor<1024xi32> loc(#loc109)
    %142 = arith.extsi %141 : tensor<1024xi32> to tensor<1024xi64> loc(#loc110)
    %143 = arith.addi %140, %142 : tensor<1024xi64> loc(#loc110)
    %144 = tt.splat %arg2 : !tt.ptr<f16> -> tensor<1024x!tt.ptr<f16>> loc(#loc111)
    %145 = tt.addptr %144, %143 : tensor<1024x!tt.ptr<f16>>, tensor<1024xi64> loc(#loc111)
    %146 = arith.andi %81, %6 : tensor<1024xi1> loc(#loc112)
    %cst_104 = arith.constant 0.000000e+00 : f32 loc(#loc113)
    %cst_105 = arith.constant dense<0.000000e+00> : tensor<1024xf32> loc(#loc113)
    %147 = arith.truncf %cst_105 : tensor<1024xf32> to tensor<1024xf16> loc(#loc113)
    %148 = tt.load %145, %146, %147 evictionPolicy = evict_last : tensor<1024x!tt.ptr<f16>> loc(#loc113)
    %149 = arith.extf %148 : tensor<1024xf16> to tensor<1024xf32> loc(#loc114)
    %150 = arith.mulf %138, %149 : tensor<1024xf32> loc(#loc115)
    %151 = arith.addf %127, %150 : tensor<1024xf32> loc(#loc116)
    %cst_106 = arith.constant 0.000000e+00 : f32 loc(#loc117)
    %cst_107 = arith.constant dense<0.000000e+00> : tensor<1024xf32> loc(#loc117)
    %152 = arith.select %81, %151, %cst_107 : tensor<1024xi1>, tensor<1024xf32> loc(#loc118)
    %153 = arith.select %14, %79, %152 : tensor<1024xi1>, tensor<1024xf32> loc(#loc119)
    %154 = tt.splat %arg3 : !tt.ptr<f16> -> tensor<1024x!tt.ptr<f16>> loc(#loc120)
    %155 = tt.addptr %154, %4 : tensor<1024x!tt.ptr<f16>>, tensor<1024xi32> loc(#loc120)
    %156 = arith.truncf %153 : tensor<1024xf32> to tensor<1024xf16> loc(#loc121)
    tt.store %155, %156, %6 : tensor<1024x!tt.ptr<f16>> loc(#loc121)
    tt.return loc(#loc122)
  } loc(#loc)
} loc(#loc)
#loc1 = loc("/tmp/torchinductor_yxiao986/62/c62mf55x64z3ssx6th5abyhuxsj3lppn3w6iybmasfn7nprrdxpd.py":19:28)
#loc2 = loc("/tmp/torchinductor_yxiao986/62/c62mf55x64z3ssx6th5abyhuxsj3lppn3w6iybmasfn7nprrdxpd.py":19:33)
#loc3 = loc("/tmp/torchinductor_yxiao986/62/c62mf55x64z3ssx6th5abyhuxsj3lppn3w6iybmasfn7nprrdxpd.py":20:36)
#loc4 = loc("/tmp/torchinductor_yxiao986/62/c62mf55x64z3ssx6th5abyhuxsj3lppn3w6iybmasfn7nprrdxpd.py":20:23)
#loc5 = loc("/tmp/torchinductor_yxiao986/62/c62mf55x64z3ssx6th5abyhuxsj3lppn3w6iybmasfn7nprrdxpd.py":21:21)
#loc6 = loc("/tmp/torchinductor_yxiao986/62/c62mf55x64z3ssx6th5abyhuxsj3lppn3w6iybmasfn7nprrdxpd.py":22:19)
#loc7 = loc("/tmp/torchinductor_yxiao986/62/c62mf55x64z3ssx6th5abyhuxsj3lppn3w6iybmasfn7nprrdxpd.py":23:21)
#loc8 = loc("/tmp/torchinductor_yxiao986/62/c62mf55x64z3ssx6th5abyhuxsj3lppn3w6iybmasfn7nprrdxpd.py":23:27)
#loc9 = loc("/tmp/torchinductor_yxiao986/62/c62mf55x64z3ssx6th5abyhuxsj3lppn3w6iybmasfn7nprrdxpd.py":24:19)
#loc10 = loc("/tmp/torchinductor_yxiao986/62/c62mf55x64z3ssx6th5abyhuxsj3lppn3w6iybmasfn7nprrdxpd.py":27:27)
#loc11 = loc("/tmp/torchinductor_yxiao986/62/c62mf55x64z3ssx6th5abyhuxsj3lppn3w6iybmasfn7nprrdxpd.py":28:19)
#loc12 = loc("/tmp/torchinductor_yxiao986/62/c62mf55x64z3ssx6th5abyhuxsj3lppn3w6iybmasfn7nprrdxpd.py":29:28)
#loc13 = loc("/tmp/torchinductor_yxiao986/62/c62mf55x64z3ssx6th5abyhuxsj3lppn3w6iybmasfn7nprrdxpd.py":30:18)
#loc14 = loc("/tmp/torchinductor_yxiao986/62/c62mf55x64z3ssx6th5abyhuxsj3lppn3w6iybmasfn7nprrdxpd.py":31:33)
#loc15 = loc("/tmp/torchinductor_yxiao986/62/c62mf55x64z3ssx6th5abyhuxsj3lppn3w6iybmasfn7nprrdxpd.py":31:42)
#loc16 = loc("/tmp/torchinductor_yxiao986/62/c62mf55x64z3ssx6th5abyhuxsj3lppn3w6iybmasfn7nprrdxpd.py":31:38)
#loc17 = loc("/tmp/torchinductor_yxiao986/62/c62mf55x64z3ssx6th5abyhuxsj3lppn3w6iybmasfn7nprrdxpd.py":31:48)
#loc18 = loc("/tmp/torchinductor_yxiao986/62/c62mf55x64z3ssx6th5abyhuxsj3lppn3w6iybmasfn7nprrdxpd.py":31:30)
#loc19 = loc("/tmp/torchinductor_yxiao986/62/c62mf55x64z3ssx6th5abyhuxsj3lppn3w6iybmasfn7nprrdxpd.py":31:61)
#loc20 = loc("/tmp/torchinductor_yxiao986/62/c62mf55x64z3ssx6th5abyhuxsj3lppn3w6iybmasfn7nprrdxpd.py":31:54)
#loc21 = loc("/tmp/torchinductor_yxiao986/62/c62mf55x64z3ssx6th5abyhuxsj3lppn3w6iybmasfn7nprrdxpd.py":31:112)
#loc22 = loc("/tmp/torchinductor_yxiao986/62/c62mf55x64z3ssx6th5abyhuxsj3lppn3w6iybmasfn7nprrdxpd.py":32:30)
#loc23 = loc("/tmp/torchinductor_yxiao986/62/c62mf55x64z3ssx6th5abyhuxsj3lppn3w6iybmasfn7nprrdxpd.py":32:42)
#loc24 = loc("/tmp/torchinductor_yxiao986/62/c62mf55x64z3ssx6th5abyhuxsj3lppn3w6iybmasfn7nprrdxpd.py":32:35)
#loc25 = loc("/tmp/torchinductor_yxiao986/62/c62mf55x64z3ssx6th5abyhuxsj3lppn3w6iybmasfn7nprrdxpd.py":33:35)
#loc26 = loc("/tmp/torchinductor_yxiao986/62/c62mf55x64z3ssx6th5abyhuxsj3lppn3w6iybmasfn7nprrdxpd.py":34:18)
#loc27 = loc("/tmp/torchinductor_yxiao986/62/c62mf55x64z3ssx6th5abyhuxsj3lppn3w6iybmasfn7nprrdxpd.py":35:18)
#loc28 = loc("/tmp/torchinductor_yxiao986/62/c62mf55x64z3ssx6th5abyhuxsj3lppn3w6iybmasfn7nprrdxpd.py":36:33)
#loc29 = loc("/tmp/torchinductor_yxiao986/62/c62mf55x64z3ssx6th5abyhuxsj3lppn3w6iybmasfn7nprrdxpd.py":37:28)
#loc30 = loc("/tmp/torchinductor_yxiao986/62/c62mf55x64z3ssx6th5abyhuxsj3lppn3w6iybmasfn7nprrdxpd.py":37:100)
#loc31 = loc("/tmp/torchinductor_yxiao986/62/c62mf55x64z3ssx6th5abyhuxsj3lppn3w6iybmasfn7nprrdxpd.py":37:65)
#loc32 = loc("/tmp/torchinductor_yxiao986/62/c62mf55x64z3ssx6th5abyhuxsj3lppn3w6iybmasfn7nprrdxpd.py":37:118)
#loc33 = loc("/tmp/torchinductor_yxiao986/62/c62mf55x64z3ssx6th5abyhuxsj3lppn3w6iybmasfn7nprrdxpd.py":37:111)
#loc34 = loc("/tmp/torchinductor_yxiao986/62/c62mf55x64z3ssx6th5abyhuxsj3lppn3w6iybmasfn7nprrdxpd.py":37:109)
#loc35 = loc("/tmp/torchinductor_yxiao986/62/c62mf55x64z3ssx6th5abyhuxsj3lppn3w6iybmasfn7nprrdxpd.py":37:126)
#loc36 = loc("/tmp/torchinductor_yxiao986/62/c62mf55x64z3ssx6th5abyhuxsj3lppn3w6iybmasfn7nprrdxpd.py":38:34)
#loc37 = loc("/tmp/torchinductor_yxiao986/62/c62mf55x64z3ssx6th5abyhuxsj3lppn3w6iybmasfn7nprrdxpd.py":38:43)
#loc38 = loc("/tmp/torchinductor_yxiao986/62/c62mf55x64z3ssx6th5abyhuxsj3lppn3w6iybmasfn7nprrdxpd.py":38:31)
#loc39 = loc("/tmp/torchinductor_yxiao986/62/c62mf55x64z3ssx6th5abyhuxsj3lppn3w6iybmasfn7nprrdxpd.py":38:56)
#loc40 = loc("/tmp/torchinductor_yxiao986/62/c62mf55x64z3ssx6th5abyhuxsj3lppn3w6iybmasfn7nprrdxpd.py":38:49)
#loc41 = loc("/tmp/torchinductor_yxiao986/62/c62mf55x64z3ssx6th5abyhuxsj3lppn3w6iybmasfn7nprrdxpd.py":38:107)
#loc42 = loc("/tmp/torchinductor_yxiao986/62/c62mf55x64z3ssx6th5abyhuxsj3lppn3w6iybmasfn7nprrdxpd.py":39:19)
#loc43 = loc("/tmp/torchinductor_yxiao986/62/c62mf55x64z3ssx6th5abyhuxsj3lppn3w6iybmasfn7nprrdxpd.py":40:39)
#loc44 = loc("/tmp/torchinductor_yxiao986/62/c62mf55x64z3ssx6th5abyhuxsj3lppn3w6iybmasfn7nprrdxpd.py":40:36)
#loc45 = loc("/tmp/torchinductor_yxiao986/62/c62mf55x64z3ssx6th5abyhuxsj3lppn3w6iybmasfn7nprrdxpd.py":40:48)
#loc46 = loc("/tmp/torchinductor_yxiao986/62/c62mf55x64z3ssx6th5abyhuxsj3lppn3w6iybmasfn7nprrdxpd.py":40:44)
#loc47 = loc("/tmp/torchinductor_yxiao986/62/c62mf55x64z3ssx6th5abyhuxsj3lppn3w6iybmasfn7nprrdxpd.py":40:54)
#loc48 = loc("/tmp/torchinductor_yxiao986/62/c62mf55x64z3ssx6th5abyhuxsj3lppn3w6iybmasfn7nprrdxpd.py":40:31)
#loc49 = loc("/tmp/torchinductor_yxiao986/62/c62mf55x64z3ssx6th5abyhuxsj3lppn3w6iybmasfn7nprrdxpd.py":40:67)
#loc50 = loc("/tmp/torchinductor_yxiao986/62/c62mf55x64z3ssx6th5abyhuxsj3lppn3w6iybmasfn7nprrdxpd.py":40:60)
#loc51 = loc("/tmp/torchinductor_yxiao986/62/c62mf55x64z3ssx6th5abyhuxsj3lppn3w6iybmasfn7nprrdxpd.py":40:118)
#loc52 = loc("/tmp/torchinductor_yxiao986/62/c62mf55x64z3ssx6th5abyhuxsj3lppn3w6iybmasfn7nprrdxpd.py":41:39)
#loc53 = loc("/tmp/torchinductor_yxiao986/62/c62mf55x64z3ssx6th5abyhuxsj3lppn3w6iybmasfn7nprrdxpd.py":41:36)
#loc54 = loc("/tmp/torchinductor_yxiao986/62/c62mf55x64z3ssx6th5abyhuxsj3lppn3w6iybmasfn7nprrdxpd.py":41:48)
#loc55 = loc("/tmp/torchinductor_yxiao986/62/c62mf55x64z3ssx6th5abyhuxsj3lppn3w6iybmasfn7nprrdxpd.py":41:31)
#loc56 = loc("/tmp/torchinductor_yxiao986/62/c62mf55x64z3ssx6th5abyhuxsj3lppn3w6iybmasfn7nprrdxpd.py":41:61)
#loc57 = loc("/tmp/torchinductor_yxiao986/62/c62mf55x64z3ssx6th5abyhuxsj3lppn3w6iybmasfn7nprrdxpd.py":41:54)
#loc58 = loc("/tmp/torchinductor_yxiao986/62/c62mf55x64z3ssx6th5abyhuxsj3lppn3w6iybmasfn7nprrdxpd.py":41:112)
#loc59 = loc("/tmp/torchinductor_yxiao986/62/c62mf55x64z3ssx6th5abyhuxsj3lppn3w6iybmasfn7nprrdxpd.py":42:20)
#loc60 = loc("/tmp/torchinductor_yxiao986/62/c62mf55x64z3ssx6th5abyhuxsj3lppn3w6iybmasfn7nprrdxpd.py":43:20)
#loc61 = loc("/tmp/torchinductor_yxiao986/62/c62mf55x64z3ssx6th5abyhuxsj3lppn3w6iybmasfn7nprrdxpd.py":44:38)
#loc62 = loc("/tmp/torchinductor_yxiao986/62/c62mf55x64z3ssx6th5abyhuxsj3lppn3w6iybmasfn7nprrdxpd.py":45:34)
#loc63 = loc("/tmp/torchinductor_yxiao986/62/c62mf55x64z3ssx6th5abyhuxsj3lppn3w6iybmasfn7nprrdxpd.py":46:20)
#loc64 = loc("/tmp/torchinductor_yxiao986/62/c62mf55x64z3ssx6th5abyhuxsj3lppn3w6iybmasfn7nprrdxpd.py":47:29)
#loc65 = loc("/tmp/torchinductor_yxiao986/62/c62mf55x64z3ssx6th5abyhuxsj3lppn3w6iybmasfn7nprrdxpd.py":48:19)
#loc66 = loc("/tmp/torchinductor_yxiao986/62/c62mf55x64z3ssx6th5abyhuxsj3lppn3w6iybmasfn7nprrdxpd.py":49:39)
#loc67 = loc("/tmp/torchinductor_yxiao986/62/c62mf55x64z3ssx6th5abyhuxsj3lppn3w6iybmasfn7nprrdxpd.py":49:36)
#loc68 = loc("/tmp/torchinductor_yxiao986/62/c62mf55x64z3ssx6th5abyhuxsj3lppn3w6iybmasfn7nprrdxpd.py":49:48)
#loc69 = loc("/tmp/torchinductor_yxiao986/62/c62mf55x64z3ssx6th5abyhuxsj3lppn3w6iybmasfn7nprrdxpd.py":49:44)
#loc70 = loc("/tmp/torchinductor_yxiao986/62/c62mf55x64z3ssx6th5abyhuxsj3lppn3w6iybmasfn7nprrdxpd.py":49:62)
#loc71 = loc("/tmp/torchinductor_yxiao986/62/c62mf55x64z3ssx6th5abyhuxsj3lppn3w6iybmasfn7nprrdxpd.py":49:54)
#loc72 = loc("/tmp/torchinductor_yxiao986/62/c62mf55x64z3ssx6th5abyhuxsj3lppn3w6iybmasfn7nprrdxpd.py":49:31)
#loc73 = loc("/tmp/torchinductor_yxiao986/62/c62mf55x64z3ssx6th5abyhuxsj3lppn3w6iybmasfn7nprrdxpd.py":49:76)
#loc74 = loc("/tmp/torchinductor_yxiao986/62/c62mf55x64z3ssx6th5abyhuxsj3lppn3w6iybmasfn7nprrdxpd.py":49:68)
#loc75 = loc("/tmp/torchinductor_yxiao986/62/c62mf55x64z3ssx6th5abyhuxsj3lppn3w6iybmasfn7nprrdxpd.py":49:127)
#loc76 = loc("/tmp/torchinductor_yxiao986/62/c62mf55x64z3ssx6th5abyhuxsj3lppn3w6iybmasfn7nprrdxpd.py":50:31)
#loc77 = loc("/tmp/torchinductor_yxiao986/62/c62mf55x64z3ssx6th5abyhuxsj3lppn3w6iybmasfn7nprrdxpd.py":50:44)
#loc78 = loc("/tmp/torchinductor_yxiao986/62/c62mf55x64z3ssx6th5abyhuxsj3lppn3w6iybmasfn7nprrdxpd.py":50:36)
#loc79 = loc("/tmp/torchinductor_yxiao986/62/c62mf55x64z3ssx6th5abyhuxsj3lppn3w6iybmasfn7nprrdxpd.py":51:36)
#loc80 = loc("/tmp/torchinductor_yxiao986/62/c62mf55x64z3ssx6th5abyhuxsj3lppn3w6iybmasfn7nprrdxpd.py":52:20)
#loc81 = loc("/tmp/torchinductor_yxiao986/62/c62mf55x64z3ssx6th5abyhuxsj3lppn3w6iybmasfn7nprrdxpd.py":53:20)
#loc82 = loc("/tmp/torchinductor_yxiao986/62/c62mf55x64z3ssx6th5abyhuxsj3lppn3w6iybmasfn7nprrdxpd.py":54:35)
#loc83 = loc("/tmp/torchinductor_yxiao986/62/c62mf55x64z3ssx6th5abyhuxsj3lppn3w6iybmasfn7nprrdxpd.py":55:28)
#loc84 = loc("/tmp/torchinductor_yxiao986/62/c62mf55x64z3ssx6th5abyhuxsj3lppn3w6iybmasfn7nprrdxpd.py":55:100)
#loc85 = loc("/tmp/torchinductor_yxiao986/62/c62mf55x64z3ssx6th5abyhuxsj3lppn3w6iybmasfn7nprrdxpd.py":55:65)
#loc86 = loc("/tmp/torchinductor_yxiao986/62/c62mf55x64z3ssx6th5abyhuxsj3lppn3w6iybmasfn7nprrdxpd.py":55:119)
#loc87 = loc("/tmp/torchinductor_yxiao986/62/c62mf55x64z3ssx6th5abyhuxsj3lppn3w6iybmasfn7nprrdxpd.py":55:111)
#loc88 = loc("/tmp/torchinductor_yxiao986/62/c62mf55x64z3ssx6th5abyhuxsj3lppn3w6iybmasfn7nprrdxpd.py":55:109)
#loc89 = loc("/tmp/torchinductor_yxiao986/62/c62mf55x64z3ssx6th5abyhuxsj3lppn3w6iybmasfn7nprrdxpd.py":55:127)
#loc90 = loc("/tmp/torchinductor_yxiao986/62/c62mf55x64z3ssx6th5abyhuxsj3lppn3w6iybmasfn7nprrdxpd.py":56:34)
#loc91 = loc("/tmp/torchinductor_yxiao986/62/c62mf55x64z3ssx6th5abyhuxsj3lppn3w6iybmasfn7nprrdxpd.py":56:51)
#loc92 = loc("/tmp/torchinductor_yxiao986/62/c62mf55x64z3ssx6th5abyhuxsj3lppn3w6iybmasfn7nprrdxpd.py":56:43)
#loc93 = loc("/tmp/torchinductor_yxiao986/62/c62mf55x64z3ssx6th5abyhuxsj3lppn3w6iybmasfn7nprrdxpd.py":56:31)
#loc94 = loc("/tmp/torchinductor_yxiao986/62/c62mf55x64z3ssx6th5abyhuxsj3lppn3w6iybmasfn7nprrdxpd.py":56:65)
#loc95 = loc("/tmp/torchinductor_yxiao986/62/c62mf55x64z3ssx6th5abyhuxsj3lppn3w6iybmasfn7nprrdxpd.py":56:57)
#loc96 = loc("/tmp/torchinductor_yxiao986/62/c62mf55x64z3ssx6th5abyhuxsj3lppn3w6iybmasfn7nprrdxpd.py":56:116)
#loc97 = loc("/tmp/torchinductor_yxiao986/62/c62mf55x64z3ssx6th5abyhuxsj3lppn3w6iybmasfn7nprrdxpd.py":57:20)
#loc98 = loc("/tmp/torchinductor_yxiao986/62/c62mf55x64z3ssx6th5abyhuxsj3lppn3w6iybmasfn7nprrdxpd.py":58:34)
#loc99 = loc("/tmp/torchinductor_yxiao986/62/c62mf55x64z3ssx6th5abyhuxsj3lppn3w6iybmasfn7nprrdxpd.py":58:43)
#loc100 = loc("/tmp/torchinductor_yxiao986/62/c62mf55x64z3ssx6th5abyhuxsj3lppn3w6iybmasfn7nprrdxpd.py":58:39)
#loc101 = loc("/tmp/torchinductor_yxiao986/62/c62mf55x64z3ssx6th5abyhuxsj3lppn3w6iybmasfn7nprrdxpd.py":58:57)
#loc102 = loc("/tmp/torchinductor_yxiao986/62/c62mf55x64z3ssx6th5abyhuxsj3lppn3w6iybmasfn7nprrdxpd.py":58:49)
#loc103 = loc("/tmp/torchinductor_yxiao986/62/c62mf55x64z3ssx6th5abyhuxsj3lppn3w6iybmasfn7nprrdxpd.py":58:31)
#loc104 = loc("/tmp/torchinductor_yxiao986/62/c62mf55x64z3ssx6th5abyhuxsj3lppn3w6iybmasfn7nprrdxpd.py":58:71)
#loc105 = loc("/tmp/torchinductor_yxiao986/62/c62mf55x64z3ssx6th5abyhuxsj3lppn3w6iybmasfn7nprrdxpd.py":58:63)
#loc106 = loc("/tmp/torchinductor_yxiao986/62/c62mf55x64z3ssx6th5abyhuxsj3lppn3w6iybmasfn7nprrdxpd.py":58:122)
#loc107 = loc("/tmp/torchinductor_yxiao986/62/c62mf55x64z3ssx6th5abyhuxsj3lppn3w6iybmasfn7nprrdxpd.py":59:39)
#loc108 = loc("/tmp/torchinductor_yxiao986/62/c62mf55x64z3ssx6th5abyhuxsj3lppn3w6iybmasfn7nprrdxpd.py":59:36)
#loc109 = loc("/tmp/torchinductor_yxiao986/62/c62mf55x64z3ssx6th5abyhuxsj3lppn3w6iybmasfn7nprrdxpd.py":59:56)
#loc110 = loc("/tmp/torchinductor_yxiao986/62/c62mf55x64z3ssx6th5abyhuxsj3lppn3w6iybmasfn7nprrdxpd.py":59:48)
#loc111 = loc("/tmp/torchinductor_yxiao986/62/c62mf55x64z3ssx6th5abyhuxsj3lppn3w6iybmasfn7nprrdxpd.py":59:31)
#loc112 = loc("/tmp/torchinductor_yxiao986/62/c62mf55x64z3ssx6th5abyhuxsj3lppn3w6iybmasfn7nprrdxpd.py":59:70)
#loc113 = loc("/tmp/torchinductor_yxiao986/62/c62mf55x64z3ssx6th5abyhuxsj3lppn3w6iybmasfn7nprrdxpd.py":59:62)
#loc114 = loc("/tmp/torchinductor_yxiao986/62/c62mf55x64z3ssx6th5abyhuxsj3lppn3w6iybmasfn7nprrdxpd.py":59:121)
#loc115 = loc("/tmp/torchinductor_yxiao986/62/c62mf55x64z3ssx6th5abyhuxsj3lppn3w6iybmasfn7nprrdxpd.py":60:20)
#loc116 = loc("/tmp/torchinductor_yxiao986/62/c62mf55x64z3ssx6th5abyhuxsj3lppn3w6iybmasfn7nprrdxpd.py":61:20)
#loc117 = loc("/tmp/torchinductor_yxiao986/62/c62mf55x64z3ssx6th5abyhuxsj3lppn3w6iybmasfn7nprrdxpd.py":62:38)
#loc118 = loc("/tmp/torchinductor_yxiao986/62/c62mf55x64z3ssx6th5abyhuxsj3lppn3w6iybmasfn7nprrdxpd.py":63:35)
#loc119 = loc("/tmp/torchinductor_yxiao986/62/c62mf55x64z3ssx6th5abyhuxsj3lppn3w6iybmasfn7nprrdxpd.py":64:34)
#loc120 = loc("/tmp/torchinductor_yxiao986/62/c62mf55x64z3ssx6th5abyhuxsj3lppn3w6iybmasfn7nprrdxpd.py":65:25)
#loc121 = loc("/tmp/torchinductor_yxiao986/62/c62mf55x64z3ssx6th5abyhuxsj3lppn3w6iybmasfn7nprrdxpd.py":65:37)
#loc122 = loc("/tmp/torchinductor_yxiao986/62/c62mf55x64z3ssx6th5abyhuxsj3lppn3w6iybmasfn7nprrdxpd.py":65:4)
