#loc = loc("/tmp/torchinductor_yxiao986/2t/c2tqi64jqmovdb4f7257yumzxfzyqrsnepcdnj3g6s4tgvonx4vl.py":18:0)
#loc48 = loc("/store/comp4901b/yxiao986/miniconda3/envs/comp4901b-hw2/lib/python3.10/site-packages/triton/language/standard.py":284:0)
#loc50 = loc(unknown)
#loc53 = loc("/store/comp4901b/yxiao986/miniconda3/envs/comp4901b-hw2/lib/python3.10/site-packages/triton/language/standard.py":259:0)
#loc57 = loc("/store/comp4901b/yxiao986/miniconda3/envs/comp4901b-hw2/lib/python3.10/site-packages/torch/_inductor/runtime/triton_helpers.py":64:0)
module {
  tt.func public @triton_per_fused__to_copy_add_embedding_mean_mul_pow_rsqrt_0(%arg0: !tt.ptr<i32> {tt.divisibility = 16 : i32} loc("/tmp/torchinductor_yxiao986/2t/c2tqi64jqmovdb4f7257yumzxfzyqrsnepcdnj3g6s4tgvonx4vl.py":18:0), %arg1: !tt.ptr<f16> {tt.divisibility = 16 : i32} loc("/tmp/torchinductor_yxiao986/2t/c2tqi64jqmovdb4f7257yumzxfzyqrsnepcdnj3g6s4tgvonx4vl.py":18:0), %arg2: !tt.ptr<f16> {tt.divisibility = 16 : i32} loc("/tmp/torchinductor_yxiao986/2t/c2tqi64jqmovdb4f7257yumzxfzyqrsnepcdnj3g6s4tgvonx4vl.py":18:0), %arg3: !tt.ptr<f16> {tt.divisibility = 16 : i32} loc("/tmp/torchinductor_yxiao986/2t/c2tqi64jqmovdb4f7257yumzxfzyqrsnepcdnj3g6s4tgvonx4vl.py":18:0), %arg4: !tt.ptr<f16> {tt.divisibility = 16 : i32} loc("/tmp/torchinductor_yxiao986/2t/c2tqi64jqmovdb4f7257yumzxfzyqrsnepcdnj3g6s4tgvonx4vl.py":18:0), %arg5: i32 loc("/tmp/torchinductor_yxiao986/2t/c2tqi64jqmovdb4f7257yumzxfzyqrsnepcdnj3g6s4tgvonx4vl.py":18:0), %arg6: i32 {tt.divisibility = 16 : i32} loc("/tmp/torchinductor_yxiao986/2t/c2tqi64jqmovdb4f7257yumzxfzyqrsnepcdnj3g6s4tgvonx4vl.py":18:0)) attributes {noinline = false} {
    %c576_i32 = arith.constant 576 : i32 loc(#loc1)
    %0 = tt.get_program_id x : i32 loc(#loc2)
    %c1_i32 = arith.constant 1 : i32 loc(#loc3)
    %c1_i32_0 = arith.constant 1 : i32 loc(#loc3)
    %1 = arith.muli %0, %c1_i32_0 : i32 loc(#loc3)
    %2 = tt.splat %1 : i32 -> tensor<1xi32> loc(#loc4)
    %true = arith.constant true loc(#loc5)
    %cst = arith.constant dense<true> : tensor<1024xi1> loc(#loc5)
    %3 = tt.make_range {end = 1024 : i32, start = 0 : i32} : tensor<1024xi32> loc(#loc6)
    %c0_i32 = arith.constant 0 : i32 loc(#loc7)
    %cst_1 = arith.constant dense<576> : tensor<1024xi32> loc(#loc8)
    %4 = arith.cmpi slt, %3, %cst_1 : tensor<1024xi32> loc(#loc8)
    %5 = tt.splat %arg0 : !tt.ptr<i32> -> tensor<1x!tt.ptr<i32>> loc(#loc9)
    %6 = tt.addptr %5, %2 : tensor<1x!tt.ptr<i32>>, tensor<1xi32> loc(#loc9)
    %7 = tt.load %6 evictionPolicy = evict_last : tensor<1x!tt.ptr<i32>> loc(#loc10)
    %8 = tt.splat %arg2 : !tt.ptr<f16> -> tensor<1024x!tt.ptr<f16>> loc(#loc11)
    %9 = tt.addptr %8, %3 : tensor<1024x!tt.ptr<f16>>, tensor<1024xi32> loc(#loc11)
    %cst_2 = arith.constant 0.000000e+00 : f32 loc(#loc12)
    %cst_3 = arith.constant dense<0.000000e+00> : tensor<1024xf32> loc(#loc12)
    %10 = arith.truncf %cst_3 : tensor<1024xf32> to tensor<1024xf16> loc(#loc12)
    %11 = tt.load %9, %4, %10 evictionPolicy = evict_last : tensor<1024x!tt.ptr<f16>> loc(#loc12)
    %12 = arith.extf %11 : tensor<1024xf16> to tensor<1024xf32> loc(#loc13)
    %13 = arith.extsi %7 : tensor<1xi32> to tensor<1xi64> loc(#loc14)
    %c49152_i32 = arith.constant 49152 : i32 loc(#loc15)
    %cst_4 = arith.constant dense<49152> : tensor<1024xi32> loc(#loc15)
    %14 = arith.extsi %cst_4 : tensor<1024xi32> to tensor<1024xi64> loc(#loc16)
    %15 = tt.broadcast %13 : tensor<1xi64> -> tensor<1024xi64> loc(#loc16)
    %16 = arith.addi %15, %14 : tensor<1024xi64> loc(#loc16)
    %c0_i32_5 = arith.constant 0 : i32 loc(#loc17)
    %17 = arith.extsi %c0_i32_5 : i32 to i64 loc(#loc17)
    %18 = tt.splat %17 : i64 -> tensor<1xi64> loc(#loc17)
    %19 = arith.cmpi slt, %13, %18 : tensor<1xi64> loc(#loc17)
    %20 = tt.broadcast %13 : tensor<1xi64> -> tensor<1024xi64> loc(#loc18)
    %21 = tt.broadcast %19 : tensor<1xi1> -> tensor<1024xi1> loc(#loc18)
    %22 = arith.select %21, %16, %20 : tensor<1024xi1>, tensor<1024xi64> loc(#loc18)
    %c0_i32_6 = arith.constant 0 : i32 loc(#loc19)
    %23 = arith.extsi %c0_i32_6 : i32 to i64 loc(#loc19)
    %24 = tt.splat %23 : i64 -> tensor<1024xi64> loc(#loc19)
    %25 = arith.cmpi sle, %24, %22 : tensor<1024xi64> loc(#loc19)
    %c49152_i32_7 = arith.constant 49152 : i32 loc(#loc20)
    %26 = arith.extsi %c49152_i32_7 : i32 to i64 loc(#loc20)
    %27 = tt.splat %26 : i64 -> tensor<1024xi64> loc(#loc20)
    %28 = arith.cmpi slt, %22, %27 : tensor<1024xi64> loc(#loc20)
    %29 = arith.andi %25, %28 : tensor<1024xi1> loc(#loc21)
    tt.assert %29, "index out of bounds: 0 <= tmp5 < 49152" : tensor<1024xi1> loc(#loc22)
    %c576_i32_8 = arith.constant 576 : i32 loc(#loc23)
    %c576_i64 = arith.constant 576 : i64 loc(#loc23)
    %cst_9 = arith.constant dense<576> : tensor<1024xi64> loc(#loc23)
    %30 = arith.muli %cst_9, %22 : tensor<1024xi64> loc(#loc23)
    %31 = arith.extsi %3 : tensor<1024xi32> to tensor<1024xi64> loc(#loc24)
    %32 = arith.addi %31, %30 : tensor<1024xi64> loc(#loc24)
    %33 = tt.splat %arg1 : !tt.ptr<f16> -> tensor<1024x!tt.ptr<f16>> loc(#loc25)
    %34 = tt.addptr %33, %32 : tensor<1024x!tt.ptr<f16>>, tensor<1024xi64> loc(#loc25)
    %cst_10 = arith.constant 0.000000e+00 : f32 loc(#loc26)
    %cst_11 = arith.constant dense<0.000000e+00> : tensor<1024xf32> loc(#loc26)
    %35 = arith.truncf %cst_11 : tensor<1024xf32> to tensor<1024xf16> loc(#loc26)
    %36 = tt.load %34, %4, %35 : tensor<1024x!tt.ptr<f16>> loc(#loc26)
    %37 = arith.extf %36 : tensor<1024xf16> to tensor<1024xf32> loc(#loc27)
    %38 = arith.mulf %37, %37 : tensor<1024xf32> loc(#loc28)
    %c0_i32_12 = arith.constant 0 : i32 loc(#loc29)
    %cst_13 = arith.constant 0.000000e+00 : f32 loc(#loc29)
    %cst_14 = arith.constant dense<0.000000e+00> : tensor<1024xf32> loc(#loc29)
    %39 = arith.select %4, %38, %cst_14 : tensor<1024xi1>, tensor<1024xf32> loc(#loc29)
    %40 = tt.call @"triton.language.standard.sum__fp32S1024S__(1,)cconstexpr_0__(2,)cconstexpr_False__(3,)cNone"(%39) : (tensor<1024xf32>) -> f32 loc(#loc30)
    %41 = tt.call @torch._inductor.runtime.triton_helpers.promote_to_tensor__fp32__(%40) : (f32) -> tensor<1xf32> loc(#loc31)
    %cst_15 = arith.constant 5.760000e+02 : f32 loc(#loc32)
    %cst_16 = arith.constant dense<5.760000e+02> : tensor<1xf32> loc(#loc33)
    %42 = arith.divf %41, %cst_16 : tensor<1xf32> loc(#loc33)
    %cst_17 = arith.constant 9.99999974E-6 : f32 loc(#loc34)
    %cst_18 = arith.constant dense<9.99999974E-6> : tensor<1xf32> loc(#loc35)
    %43 = arith.addf %42, %cst_18 : tensor<1xf32> loc(#loc35)
    %44 = tt.extern_elementwise %43 {libname = "", libpath = "", pure = true, symbol = "__nv_rsqrtf"} : (tensor<1xf32>) -> tensor<1xf32> loc(#loc36)
    %45 = tt.broadcast %44 : tensor<1xf32> -> tensor<1024xf32> loc(#loc37)
    %46 = arith.mulf %37, %45 : tensor<1024xf32> loc(#loc37)
    %47 = arith.mulf %46, %12 : tensor<1024xf32> loc(#loc38)
    %c576_i32_19 = arith.constant 576 : i32 loc(#loc39)
    %c576_i32_20 = arith.constant 576 : i32 loc(#loc39)
    %cst_21 = arith.constant dense<576> : tensor<1xi32> loc(#loc39)
    %48 = arith.muli %cst_21, %2 : tensor<1xi32> loc(#loc39)
    %49 = tt.broadcast %48 : tensor<1xi32> -> tensor<1024xi32> loc(#loc40)
    %50 = arith.addi %3, %49 : tensor<1024xi32> loc(#loc40)
    %51 = tt.splat %arg3 : !tt.ptr<f16> -> tensor<1024x!tt.ptr<f16>> loc(#loc41)
    %52 = tt.addptr %51, %50 : tensor<1024x!tt.ptr<f16>>, tensor<1024xi32> loc(#loc41)
    %53 = arith.truncf %37 : tensor<1024xf32> to tensor<1024xf16> loc(#loc42)
    tt.store %52, %53, %4 : tensor<1024x!tt.ptr<f16>> loc(#loc42)
    %c576_i32_22 = arith.constant 576 : i32 loc(#loc43)
    %c576_i32_23 = arith.constant 576 : i32 loc(#loc43)
    %cst_24 = arith.constant dense<576> : tensor<1xi32> loc(#loc43)
    %54 = arith.muli %cst_24, %2 : tensor<1xi32> loc(#loc43)
    %55 = tt.broadcast %54 : tensor<1xi32> -> tensor<1024xi32> loc(#loc44)
    %56 = arith.addi %3, %55 : tensor<1024xi32> loc(#loc44)
    %57 = tt.splat %arg4 : !tt.ptr<f16> -> tensor<1024x!tt.ptr<f16>> loc(#loc45)
    %58 = tt.addptr %57, %56 : tensor<1024x!tt.ptr<f16>>, tensor<1024xi32> loc(#loc45)
    %59 = arith.truncf %47 : tensor<1024xf32> to tensor<1024xf16> loc(#loc46)
    tt.store %58, %59, %4 : tensor<1024x!tt.ptr<f16>> loc(#loc46)
    tt.return loc(#loc47)
  } loc(#loc)
  tt.func private @"triton.language.standard.sum__fp32S1024S__(1,)cconstexpr_0__(2,)cconstexpr_False__(3,)cNone"(%arg0: tensor<1024xf32> loc("/store/comp4901b/yxiao986/miniconda3/envs/comp4901b-hw2/lib/python3.10/site-packages/triton/language/standard.py":284:0)) -> f32 attributes {noinline = false} {
    %0 = "tt.reduce"(%arg0) <{axis = 0 : i32}> ({
    ^bb0(%arg1: f32 loc(unknown), %arg2: f32 loc(unknown)):
      %2 = tt.call @triton.language.standard._sum_combine__fp32_fp32__(%arg1, %arg2) : (f32, f32) -> f32 loc(#loc49)
      tt.reduce.return %2 : f32 loc(#loc49)
    }) : (tensor<1024xf32>) -> f32 loc(#loc49)
    tt.return %0 : f32 loc(#loc51)
  ^bb1:  // no predecessors
    %1 = ub.poison : f32 loc(#loc52)
    tt.return %1 : f32 loc(#loc52)
  } loc(#loc48)
  tt.func private @triton.language.standard._sum_combine__fp32_fp32__(%arg0: f32 loc("/store/comp4901b/yxiao986/miniconda3/envs/comp4901b-hw2/lib/python3.10/site-packages/triton/language/standard.py":259:0), %arg1: f32 loc("/store/comp4901b/yxiao986/miniconda3/envs/comp4901b-hw2/lib/python3.10/site-packages/triton/language/standard.py":259:0)) -> f32 attributes {noinline = false} {
    %0 = arith.addf %arg0, %arg1 : f32 loc(#loc54)
    tt.return %0 : f32 loc(#loc55)
  ^bb1:  // no predecessors
    %1 = ub.poison : f32 loc(#loc56)
    tt.return %1 : f32 loc(#loc56)
  } loc(#loc53)
  tt.func private @torch._inductor.runtime.triton_helpers.promote_to_tensor__fp32__(%arg0: f32 loc("/store/comp4901b/yxiao986/miniconda3/envs/comp4901b-hw2/lib/python3.10/site-packages/torch/_inductor/runtime/triton_helpers.py":64:0)) -> tensor<1xf32> attributes {noinline = false} {
    %0 = tt.call @"triton.language.standard.zeros____(0, 0)cconstexpr_1__(1,)cconstexpr_int1_"() : () -> tensor<1xi1> loc(#loc58)
    %1 = arith.uitofp %0 : tensor<1xi1> to tensor<1xf32> loc(#loc59)
    %2 = tt.splat %arg0 : f32 -> tensor<1xf32> loc(#loc59)
    %3 = arith.addf %2, %1 : tensor<1xf32> loc(#loc59)
    tt.return %3 : tensor<1xf32> loc(#loc60)
  ^bb1:  // no predecessors
    %4 = ub.poison : tensor<1xf32> loc(#loc61)
    tt.return %4 : tensor<1xf32> loc(#loc61)
  } loc(#loc57)
  tt.func private @"triton.language.standard.zeros____(0, 0)cconstexpr_1__(1,)cconstexpr_int1_"() -> tensor<1xi1> attributes {noinline = false} {
    %false = arith.constant false loc(#loc63)
    %cst = arith.constant dense<false> : tensor<1xi1> loc(#loc63)
    tt.return %cst : tensor<1xi1> loc(#loc64)
  ^bb1:  // no predecessors
    %0 = ub.poison : tensor<1xi1> loc(#loc65)
    tt.return %0 : tensor<1xi1> loc(#loc65)
  } loc(#loc62)
} loc(#loc)
#loc1 = loc("/tmp/torchinductor_yxiao986/2t/c2tqi64jqmovdb4f7257yumzxfzyqrsnepcdnj3g6s4tgvonx4vl.py":20:15)
#loc2 = loc("/tmp/torchinductor_yxiao986/2t/c2tqi64jqmovdb4f7257yumzxfzyqrsnepcdnj3g6s4tgvonx4vl.py":24:28)
#loc3 = loc("/tmp/torchinductor_yxiao986/2t/c2tqi64jqmovdb4f7257yumzxfzyqrsnepcdnj3g6s4tgvonx4vl.py":24:33)
#loc4 = loc("/tmp/torchinductor_yxiao986/2t/c2tqi64jqmovdb4f7257yumzxfzyqrsnepcdnj3g6s4tgvonx4vl.py":25:35)
#loc5 = loc("/tmp/torchinductor_yxiao986/2t/c2tqi64jqmovdb4f7257yumzxfzyqrsnepcdnj3g6s4tgvonx4vl.py":26:38)
#loc6 = loc("/tmp/torchinductor_yxiao986/2t/c2tqi64jqmovdb4f7257yumzxfzyqrsnepcdnj3g6s4tgvonx4vl.py":27:28)
#loc7 = loc("/tmp/torchinductor_yxiao986/2t/c2tqi64jqmovdb4f7257yumzxfzyqrsnepcdnj3g6s4tgvonx4vl.py":28:16)
#loc8 = loc("/tmp/torchinductor_yxiao986/2t/c2tqi64jqmovdb4f7257yumzxfzyqrsnepcdnj3g6s4tgvonx4vl.py":29:25)
#loc9 = loc("/tmp/torchinductor_yxiao986/2t/c2tqi64jqmovdb4f7257yumzxfzyqrsnepcdnj3g6s4tgvonx4vl.py":34:30)
#loc10 = loc("/tmp/torchinductor_yxiao986/2t/c2tqi64jqmovdb4f7257yumzxfzyqrsnepcdnj3g6s4tgvonx4vl.py":34:35)
#loc11 = loc("/tmp/torchinductor_yxiao986/2t/c2tqi64jqmovdb4f7257yumzxfzyqrsnepcdnj3g6s4tgvonx4vl.py":35:31)
#loc12 = loc("/tmp/torchinductor_yxiao986/2t/c2tqi64jqmovdb4f7257yumzxfzyqrsnepcdnj3g6s4tgvonx4vl.py":35:38)
#loc13 = loc("/tmp/torchinductor_yxiao986/2t/c2tqi64jqmovdb4f7257yumzxfzyqrsnepcdnj3g6s4tgvonx4vl.py":35:91)
#loc14 = loc("/tmp/torchinductor_yxiao986/2t/c2tqi64jqmovdb4f7257yumzxfzyqrsnepcdnj3g6s4tgvonx4vl.py":36:19)
#loc15 = loc("/tmp/torchinductor_yxiao986/2t/c2tqi64jqmovdb4f7257yumzxfzyqrsnepcdnj3g6s4tgvonx4vl.py":37:38)
#loc16 = loc("/tmp/torchinductor_yxiao986/2t/c2tqi64jqmovdb4f7257yumzxfzyqrsnepcdnj3g6s4tgvonx4vl.py":38:18)
#loc17 = loc("/tmp/torchinductor_yxiao986/2t/c2tqi64jqmovdb4f7257yumzxfzyqrsnepcdnj3g6s4tgvonx4vl.py":39:18)
#loc18 = loc("/tmp/torchinductor_yxiao986/2t/c2tqi64jqmovdb4f7257yumzxfzyqrsnepcdnj3g6s4tgvonx4vl.py":40:32)
#loc19 = loc("/tmp/torchinductor_yxiao986/2t/c2tqi64jqmovdb4f7257yumzxfzyqrsnepcdnj3g6s4tgvonx4vl.py":41:27)
#loc20 = loc("/tmp/torchinductor_yxiao986/2t/c2tqi64jqmovdb4f7257yumzxfzyqrsnepcdnj3g6s4tgvonx4vl.py":41:43)
#loc21 = loc("/tmp/torchinductor_yxiao986/2t/c2tqi64jqmovdb4f7257yumzxfzyqrsnepcdnj3g6s4tgvonx4vl.py":41:36)
#loc22 = loc("/tmp/torchinductor_yxiao986/2t/c2tqi64jqmovdb4f7257yumzxfzyqrsnepcdnj3g6s4tgvonx4vl.py":41:51)
#loc23 = loc("/tmp/torchinductor_yxiao986/2t/c2tqi64jqmovdb4f7257yumzxfzyqrsnepcdnj3g6s4tgvonx4vl.py":42:41)
#loc24 = loc("/tmp/torchinductor_yxiao986/2t/c2tqi64jqmovdb4f7257yumzxfzyqrsnepcdnj3g6s4tgvonx4vl.py":42:37)
#loc25 = loc("/tmp/torchinductor_yxiao986/2t/c2tqi64jqmovdb4f7257yumzxfzyqrsnepcdnj3g6s4tgvonx4vl.py":42:30)
#loc26 = loc("/tmp/torchinductor_yxiao986/2t/c2tqi64jqmovdb4f7257yumzxfzyqrsnepcdnj3g6s4tgvonx4vl.py":42:48)
#loc27 = loc("/tmp/torchinductor_yxiao986/2t/c2tqi64jqmovdb4f7257yumzxfzyqrsnepcdnj3g6s4tgvonx4vl.py":42:71)
#loc28 = loc("/tmp/torchinductor_yxiao986/2t/c2tqi64jqmovdb4f7257yumzxfzyqrsnepcdnj3g6s4tgvonx4vl.py":44:18)
#loc29 = loc("/tmp/torchinductor_yxiao986/2t/c2tqi64jqmovdb4f7257yumzxfzyqrsnepcdnj3g6s4tgvonx4vl.py":46:37)
#loc30 = loc("/tmp/torchinductor_yxiao986/2t/c2tqi64jqmovdb4f7257yumzxfzyqrsnepcdnj3g6s4tgvonx4vl.py":47:59)
#loc31 = loc("/tmp/torchinductor_yxiao986/2t/c2tqi64jqmovdb4f7257yumzxfzyqrsnepcdnj3g6s4tgvonx4vl.py":47:45)
#loc32 = loc("/tmp/torchinductor_yxiao986/2t/c2tqi64jqmovdb4f7257yumzxfzyqrsnepcdnj3g6s4tgvonx4vl.py":48:12)
#loc33 = loc("/tmp/torchinductor_yxiao986/2t/c2tqi64jqmovdb4f7257yumzxfzyqrsnepcdnj3g6s4tgvonx4vl.py":49:21)
#loc34 = loc("/tmp/torchinductor_yxiao986/2t/c2tqi64jqmovdb4f7257yumzxfzyqrsnepcdnj3g6s4tgvonx4vl.py":50:12)
#loc35 = loc("/tmp/torchinductor_yxiao986/2t/c2tqi64jqmovdb4f7257yumzxfzyqrsnepcdnj3g6s4tgvonx4vl.py":51:20)
#loc36 = loc("/tmp/torchinductor_yxiao986/2t/c2tqi64jqmovdb4f7257yumzxfzyqrsnepcdnj3g6s4tgvonx4vl.py":52:28)
#loc37 = loc("/tmp/torchinductor_yxiao986/2t/c2tqi64jqmovdb4f7257yumzxfzyqrsnepcdnj3g6s4tgvonx4vl.py":53:19)
#loc38 = loc("/tmp/torchinductor_yxiao986/2t/c2tqi64jqmovdb4f7257yumzxfzyqrsnepcdnj3g6s4tgvonx4vl.py":55:20)
#loc39 = loc("/tmp/torchinductor_yxiao986/2t/c2tqi64jqmovdb4f7257yumzxfzyqrsnepcdnj3g6s4tgvonx4vl.py":56:36)
#loc40 = loc("/tmp/torchinductor_yxiao986/2t/c2tqi64jqmovdb4f7257yumzxfzyqrsnepcdnj3g6s4tgvonx4vl.py":56:32)
#loc41 = loc("/tmp/torchinductor_yxiao986/2t/c2tqi64jqmovdb4f7257yumzxfzyqrsnepcdnj3g6s4tgvonx4vl.py":56:25)
#loc42 = loc("/tmp/torchinductor_yxiao986/2t/c2tqi64jqmovdb4f7257yumzxfzyqrsnepcdnj3g6s4tgvonx4vl.py":56:47)
#loc43 = loc("/tmp/torchinductor_yxiao986/2t/c2tqi64jqmovdb4f7257yumzxfzyqrsnepcdnj3g6s4tgvonx4vl.py":57:36)
#loc44 = loc("/tmp/torchinductor_yxiao986/2t/c2tqi64jqmovdb4f7257yumzxfzyqrsnepcdnj3g6s4tgvonx4vl.py":57:32)
#loc45 = loc("/tmp/torchinductor_yxiao986/2t/c2tqi64jqmovdb4f7257yumzxfzyqrsnepcdnj3g6s4tgvonx4vl.py":57:25)
#loc46 = loc("/tmp/torchinductor_yxiao986/2t/c2tqi64jqmovdb4f7257yumzxfzyqrsnepcdnj3g6s4tgvonx4vl.py":57:48)
#loc47 = loc("/tmp/torchinductor_yxiao986/2t/c2tqi64jqmovdb4f7257yumzxfzyqrsnepcdnj3g6s4tgvonx4vl.py":57:4)
#loc49 = loc("/store/comp4901b/yxiao986/miniconda3/envs/comp4901b-hw2/lib/python3.10/site-packages/triton/language/standard.py":290:36)
#loc51 = loc("/store/comp4901b/yxiao986/miniconda3/envs/comp4901b-hw2/lib/python3.10/site-packages/triton/language/standard.py":290:11)
#loc52 = loc("/store/comp4901b/yxiao986/miniconda3/envs/comp4901b-hw2/lib/python3.10/site-packages/triton/language/standard.py":290:4)
#loc54 = loc("/store/comp4901b/yxiao986/miniconda3/envs/comp4901b-hw2/lib/python3.10/site-packages/triton/language/standard.py":260:15)
#loc55 = loc("/store/comp4901b/yxiao986/miniconda3/envs/comp4901b-hw2/lib/python3.10/site-packages/triton/language/standard.py":260:11)
#loc56 = loc("/store/comp4901b/yxiao986/miniconda3/envs/comp4901b-hw2/lib/python3.10/site-packages/triton/language/standard.py":260:4)
#loc58 = loc("/store/comp4901b/yxiao986/miniconda3/envs/comp4901b-hw2/lib/python3.10/site-packages/torch/_inductor/runtime/triton_helpers.py":66:30)
#loc59 = loc("/store/comp4901b/yxiao986/miniconda3/envs/comp4901b-hw2/lib/python3.10/site-packages/torch/_inductor/runtime/triton_helpers.py":66:15)
#loc60 = loc("/store/comp4901b/yxiao986/miniconda3/envs/comp4901b-hw2/lib/python3.10/site-packages/torch/_inductor/runtime/triton_helpers.py":66:11)
#loc61 = loc("/store/comp4901b/yxiao986/miniconda3/envs/comp4901b-hw2/lib/python3.10/site-packages/torch/_inductor/runtime/triton_helpers.py":66:4)
#loc62 = loc("/store/comp4901b/yxiao986/miniconda3/envs/comp4901b-hw2/lib/python3.10/site-packages/triton/language/standard.py":117:0)
#loc63 = loc("/store/comp4901b/yxiao986/miniconda3/envs/comp4901b-hw2/lib/python3.10/site-packages/triton/language/standard.py":126:31)
#loc64 = loc("/store/comp4901b/yxiao986/miniconda3/envs/comp4901b-hw2/lib/python3.10/site-packages/triton/language/standard.py":126:11)
#loc65 = loc("/store/comp4901b/yxiao986/miniconda3/envs/comp4901b-hw2/lib/python3.10/site-packages/triton/language/standard.py":126:4)
