#loc = loc("/tmp/torchinductor_yxiao986/fd/cfdtt3rpkuhwvgzsjvt5ow4jvfnmpfihoewdycistxwccuhar23c.py":18:0)
#loc39 = loc("/store/comp4901b/yxiao986/miniconda3/envs/comp4901b-hw2/lib/python3.10/site-packages/triton/language/standard.py":284:0)
#loc41 = loc(unknown)
#loc44 = loc("/store/comp4901b/yxiao986/miniconda3/envs/comp4901b-hw2/lib/python3.10/site-packages/triton/language/standard.py":259:0)
#loc48 = loc("/store/comp4901b/yxiao986/miniconda3/envs/comp4901b-hw2/lib/python3.10/site-packages/torch/_inductor/runtime/triton_helpers.py":64:0)
module {
  tt.func public @triton_per_fused__to_copy_add_mean_mul_pow_rsqrt_0(%arg0: !tt.ptr<f16> {tt.divisibility = 16 : i32} loc("/tmp/torchinductor_yxiao986/fd/cfdtt3rpkuhwvgzsjvt5ow4jvfnmpfihoewdycistxwccuhar23c.py":18:0), %arg1: !tt.ptr<f16> {tt.divisibility = 16 : i32} loc("/tmp/torchinductor_yxiao986/fd/cfdtt3rpkuhwvgzsjvt5ow4jvfnmpfihoewdycistxwccuhar23c.py":18:0), %arg2: !tt.ptr<f16> {tt.divisibility = 16 : i32} loc("/tmp/torchinductor_yxiao986/fd/cfdtt3rpkuhwvgzsjvt5ow4jvfnmpfihoewdycistxwccuhar23c.py":18:0), %arg3: !tt.ptr<f16> {tt.divisibility = 16 : i32} loc("/tmp/torchinductor_yxiao986/fd/cfdtt3rpkuhwvgzsjvt5ow4jvfnmpfihoewdycistxwccuhar23c.py":18:0), %arg4: i32 loc("/tmp/torchinductor_yxiao986/fd/cfdtt3rpkuhwvgzsjvt5ow4jvfnmpfihoewdycistxwccuhar23c.py":18:0), %arg5: i32 {tt.divisibility = 16 : i32} loc("/tmp/torchinductor_yxiao986/fd/cfdtt3rpkuhwvgzsjvt5ow4jvfnmpfihoewdycistxwccuhar23c.py":18:0)) attributes {noinline = false} {
    %c576_i32 = arith.constant 576 : i32 loc(#loc1)
    %0 = tt.get_program_id x : i32 loc(#loc2)
    %c1_i32 = arith.constant 1 : i32 loc(#loc3)
    %c1_i32_0 = arith.constant 1 : i32 loc(#loc3)
    %1 = arith.muli %0, %c1_i32_0 : i32 loc(#loc3)
    %2 = tt.splat %1 : i32 -> tensor<1xi32> loc(#loc4)
    %true = arith.constant true loc(#loc5)
    %cst = arith.constant dense<true> : tensor<1024xi1> loc(#loc5)
    %3 = tt.make_range {end = 1024 : i32, start = 0 : i32} : tensor<1024xi32> loc(#loc6)
    %c0_i32 = arith.constant 0 : i32 loc(#loc7)
    %cst_1 = arith.constant dense<576> : tensor<1024xi32> loc(#loc8)
    %4 = arith.cmpi slt, %3, %cst_1 : tensor<1024xi32> loc(#loc8)
    %c576_i32_2 = arith.constant 576 : i32 loc(#loc9)
    %c576_i32_3 = arith.constant 576 : i32 loc(#loc9)
    %cst_4 = arith.constant dense<576> : tensor<1xi32> loc(#loc9)
    %5 = arith.muli %cst_4, %2 : tensor<1xi32> loc(#loc9)
    %6 = tt.broadcast %5 : tensor<1xi32> -> tensor<1024xi32> loc(#loc10)
    %7 = arith.addi %3, %6 : tensor<1024xi32> loc(#loc10)
    %8 = tt.splat %arg0 : !tt.ptr<f16> -> tensor<1024x!tt.ptr<f16>> loc(#loc11)
    %9 = tt.addptr %8, %7 : tensor<1024x!tt.ptr<f16>>, tensor<1024xi32> loc(#loc11)
    %cst_5 = arith.constant 0.000000e+00 : f32 loc(#loc12)
    %cst_6 = arith.constant dense<0.000000e+00> : tensor<1024xf32> loc(#loc12)
    %10 = arith.truncf %cst_6 : tensor<1024xf32> to tensor<1024xf16> loc(#loc12)
    %11 = tt.load %9, %4, %10 : tensor<1024x!tt.ptr<f16>> loc(#loc12)
    %12 = arith.extf %11 : tensor<1024xf16> to tensor<1024xf32> loc(#loc13)
    %c576_i32_7 = arith.constant 576 : i32 loc(#loc14)
    %c576_i32_8 = arith.constant 576 : i32 loc(#loc14)
    %cst_9 = arith.constant dense<576> : tensor<1xi32> loc(#loc14)
    %13 = arith.muli %cst_9, %2 : tensor<1xi32> loc(#loc14)
    %14 = tt.broadcast %13 : tensor<1xi32> -> tensor<1024xi32> loc(#loc15)
    %15 = arith.addi %3, %14 : tensor<1024xi32> loc(#loc15)
    %16 = tt.splat %arg1 : !tt.ptr<f16> -> tensor<1024x!tt.ptr<f16>> loc(#loc16)
    %17 = tt.addptr %16, %15 : tensor<1024x!tt.ptr<f16>>, tensor<1024xi32> loc(#loc16)
    %cst_10 = arith.constant 0.000000e+00 : f32 loc(#loc17)
    %cst_11 = arith.constant dense<0.000000e+00> : tensor<1024xf32> loc(#loc17)
    %18 = arith.truncf %cst_11 : tensor<1024xf32> to tensor<1024xf16> loc(#loc17)
    %19 = tt.load %17, %4, %18 : tensor<1024x!tt.ptr<f16>> loc(#loc17)
    %20 = arith.extf %19 : tensor<1024xf16> to tensor<1024xf32> loc(#loc18)
    %21 = tt.splat %arg2 : !tt.ptr<f16> -> tensor<1024x!tt.ptr<f16>> loc(#loc19)
    %22 = tt.addptr %21, %3 : tensor<1024x!tt.ptr<f16>>, tensor<1024xi32> loc(#loc19)
    %cst_12 = arith.constant 0.000000e+00 : f32 loc(#loc20)
    %cst_13 = arith.constant dense<0.000000e+00> : tensor<1024xf32> loc(#loc20)
    %23 = arith.truncf %cst_13 : tensor<1024xf32> to tensor<1024xf16> loc(#loc20)
    %24 = tt.load %22, %4, %23 evictionPolicy = evict_last : tensor<1024x!tt.ptr<f16>> loc(#loc20)
    %25 = arith.extf %24 : tensor<1024xf16> to tensor<1024xf32> loc(#loc21)
    %26 = arith.addf %12, %20 : tensor<1024xf32> loc(#loc22)
    %27 = arith.mulf %26, %26 : tensor<1024xf32> loc(#loc23)
    %c0_i32_14 = arith.constant 0 : i32 loc(#loc24)
    %cst_15 = arith.constant 0.000000e+00 : f32 loc(#loc24)
    %cst_16 = arith.constant dense<0.000000e+00> : tensor<1024xf32> loc(#loc24)
    %28 = arith.select %4, %27, %cst_16 : tensor<1024xi1>, tensor<1024xf32> loc(#loc24)
    %29 = tt.call @"triton.language.standard.sum__fp32S1024S__(1,)cconstexpr_0__(2,)cconstexpr_False__(3,)cNone"(%28) : (tensor<1024xf32>) -> f32 loc(#loc25)
    %30 = tt.call @torch._inductor.runtime.triton_helpers.promote_to_tensor__fp32__(%29) : (f32) -> tensor<1xf32> loc(#loc26)
    %cst_17 = arith.constant 5.760000e+02 : f32 loc(#loc27)
    %cst_18 = arith.constant dense<5.760000e+02> : tensor<1xf32> loc(#loc28)
    %31 = arith.divf %30, %cst_18 : tensor<1xf32> loc(#loc28)
    %cst_19 = arith.constant 9.99999974E-6 : f32 loc(#loc29)
    %cst_20 = arith.constant dense<9.99999974E-6> : tensor<1xf32> loc(#loc30)
    %32 = arith.addf %31, %cst_20 : tensor<1xf32> loc(#loc30)
    %33 = tt.extern_elementwise %32 {libname = "", libpath = "", pure = true, symbol = "__nv_rsqrtf"} : (tensor<1xf32>) -> tensor<1xf32> loc(#loc31)
    %34 = tt.broadcast %33 : tensor<1xf32> -> tensor<1024xf32> loc(#loc32)
    %35 = arith.mulf %26, %34 : tensor<1024xf32> loc(#loc32)
    %36 = arith.mulf %35, %25 : tensor<1024xf32> loc(#loc33)
    %c576_i32_21 = arith.constant 576 : i32 loc(#loc34)
    %c576_i32_22 = arith.constant 576 : i32 loc(#loc34)
    %cst_23 = arith.constant dense<576> : tensor<1xi32> loc(#loc34)
    %37 = arith.muli %cst_23, %2 : tensor<1xi32> loc(#loc34)
    %38 = tt.broadcast %37 : tensor<1xi32> -> tensor<1024xi32> loc(#loc35)
    %39 = arith.addi %3, %38 : tensor<1024xi32> loc(#loc35)
    %40 = tt.splat %arg3 : !tt.ptr<f16> -> tensor<1024x!tt.ptr<f16>> loc(#loc36)
    %41 = tt.addptr %40, %39 : tensor<1024x!tt.ptr<f16>>, tensor<1024xi32> loc(#loc36)
    %42 = arith.truncf %36 : tensor<1024xf32> to tensor<1024xf16> loc(#loc37)
    tt.store %41, %42, %4 : tensor<1024x!tt.ptr<f16>> loc(#loc37)
    tt.return loc(#loc38)
  } loc(#loc)
  tt.func private @"triton.language.standard.sum__fp32S1024S__(1,)cconstexpr_0__(2,)cconstexpr_False__(3,)cNone"(%arg0: tensor<1024xf32> loc("/store/comp4901b/yxiao986/miniconda3/envs/comp4901b-hw2/lib/python3.10/site-packages/triton/language/standard.py":284:0)) -> f32 attributes {noinline = false} {
    %0 = "tt.reduce"(%arg0) <{axis = 0 : i32}> ({
    ^bb0(%arg1: f32 loc(unknown), %arg2: f32 loc(unknown)):
      %2 = tt.call @triton.language.standard._sum_combine__fp32_fp32__(%arg1, %arg2) : (f32, f32) -> f32 loc(#loc40)
      tt.reduce.return %2 : f32 loc(#loc40)
    }) : (tensor<1024xf32>) -> f32 loc(#loc40)
    tt.return %0 : f32 loc(#loc42)
  ^bb1:  // no predecessors
    %1 = ub.poison : f32 loc(#loc43)
    tt.return %1 : f32 loc(#loc43)
  } loc(#loc39)
  tt.func private @triton.language.standard._sum_combine__fp32_fp32__(%arg0: f32 loc("/store/comp4901b/yxiao986/miniconda3/envs/comp4901b-hw2/lib/python3.10/site-packages/triton/language/standard.py":259:0), %arg1: f32 loc("/store/comp4901b/yxiao986/miniconda3/envs/comp4901b-hw2/lib/python3.10/site-packages/triton/language/standard.py":259:0)) -> f32 attributes {noinline = false} {
    %0 = arith.addf %arg0, %arg1 : f32 loc(#loc45)
    tt.return %0 : f32 loc(#loc46)
  ^bb1:  // no predecessors
    %1 = ub.poison : f32 loc(#loc47)
    tt.return %1 : f32 loc(#loc47)
  } loc(#loc44)
  tt.func private @torch._inductor.runtime.triton_helpers.promote_to_tensor__fp32__(%arg0: f32 loc("/store/comp4901b/yxiao986/miniconda3/envs/comp4901b-hw2/lib/python3.10/site-packages/torch/_inductor/runtime/triton_helpers.py":64:0)) -> tensor<1xf32> attributes {noinline = false} {
    %0 = tt.call @"triton.language.standard.zeros____(0, 0)cconstexpr_1__(1,)cconstexpr_int1_"() : () -> tensor<1xi1> loc(#loc49)
    %1 = arith.uitofp %0 : tensor<1xi1> to tensor<1xf32> loc(#loc50)
    %2 = tt.splat %arg0 : f32 -> tensor<1xf32> loc(#loc50)
    %3 = arith.addf %2, %1 : tensor<1xf32> loc(#loc50)
    tt.return %3 : tensor<1xf32> loc(#loc51)
  ^bb1:  // no predecessors
    %4 = ub.poison : tensor<1xf32> loc(#loc52)
    tt.return %4 : tensor<1xf32> loc(#loc52)
  } loc(#loc48)
  tt.func private @"triton.language.standard.zeros____(0, 0)cconstexpr_1__(1,)cconstexpr_int1_"() -> tensor<1xi1> attributes {noinline = false} {
    %false = arith.constant false loc(#loc54)
    %cst = arith.constant dense<false> : tensor<1xi1> loc(#loc54)
    tt.return %cst : tensor<1xi1> loc(#loc55)
  ^bb1:  // no predecessors
    %0 = ub.poison : tensor<1xi1> loc(#loc56)
    tt.return %0 : tensor<1xi1> loc(#loc56)
  } loc(#loc53)
} loc(#loc)
#loc1 = loc("/tmp/torchinductor_yxiao986/fd/cfdtt3rpkuhwvgzsjvt5ow4jvfnmpfihoewdycistxwccuhar23c.py":20:15)
#loc2 = loc("/tmp/torchinductor_yxiao986/fd/cfdtt3rpkuhwvgzsjvt5ow4jvfnmpfihoewdycistxwccuhar23c.py":24:28)
#loc3 = loc("/tmp/torchinductor_yxiao986/fd/cfdtt3rpkuhwvgzsjvt5ow4jvfnmpfihoewdycistxwccuhar23c.py":24:33)
#loc4 = loc("/tmp/torchinductor_yxiao986/fd/cfdtt3rpkuhwvgzsjvt5ow4jvfnmpfihoewdycistxwccuhar23c.py":25:35)
#loc5 = loc("/tmp/torchinductor_yxiao986/fd/cfdtt3rpkuhwvgzsjvt5ow4jvfnmpfihoewdycistxwccuhar23c.py":26:38)
#loc6 = loc("/tmp/torchinductor_yxiao986/fd/cfdtt3rpkuhwvgzsjvt5ow4jvfnmpfihoewdycistxwccuhar23c.py":27:28)
#loc7 = loc("/tmp/torchinductor_yxiao986/fd/cfdtt3rpkuhwvgzsjvt5ow4jvfnmpfihoewdycistxwccuhar23c.py":28:16)
#loc8 = loc("/tmp/torchinductor_yxiao986/fd/cfdtt3rpkuhwvgzsjvt5ow4jvfnmpfihoewdycistxwccuhar23c.py":29:25)
#loc9 = loc("/tmp/torchinductor_yxiao986/fd/cfdtt3rpkuhwvgzsjvt5ow4jvfnmpfihoewdycistxwccuhar23c.py":34:41)
#loc10 = loc("/tmp/torchinductor_yxiao986/fd/cfdtt3rpkuhwvgzsjvt5ow4jvfnmpfihoewdycistxwccuhar23c.py":34:37)
#loc11 = loc("/tmp/torchinductor_yxiao986/fd/cfdtt3rpkuhwvgzsjvt5ow4jvfnmpfihoewdycistxwccuhar23c.py":34:30)
#loc12 = loc("/tmp/torchinductor_yxiao986/fd/cfdtt3rpkuhwvgzsjvt5ow4jvfnmpfihoewdycistxwccuhar23c.py":34:46)
#loc13 = loc("/tmp/torchinductor_yxiao986/fd/cfdtt3rpkuhwvgzsjvt5ow4jvfnmpfihoewdycistxwccuhar23c.py":34:69)
#loc14 = loc("/tmp/torchinductor_yxiao986/fd/cfdtt3rpkuhwvgzsjvt5ow4jvfnmpfihoewdycistxwccuhar23c.py":35:41)
#loc15 = loc("/tmp/torchinductor_yxiao986/fd/cfdtt3rpkuhwvgzsjvt5ow4jvfnmpfihoewdycistxwccuhar23c.py":35:37)
#loc16 = loc("/tmp/torchinductor_yxiao986/fd/cfdtt3rpkuhwvgzsjvt5ow4jvfnmpfihoewdycistxwccuhar23c.py":35:30)
#loc17 = loc("/tmp/torchinductor_yxiao986/fd/cfdtt3rpkuhwvgzsjvt5ow4jvfnmpfihoewdycistxwccuhar23c.py":35:46)
#loc18 = loc("/tmp/torchinductor_yxiao986/fd/cfdtt3rpkuhwvgzsjvt5ow4jvfnmpfihoewdycistxwccuhar23c.py":35:69)
#loc19 = loc("/tmp/torchinductor_yxiao986/fd/cfdtt3rpkuhwvgzsjvt5ow4jvfnmpfihoewdycistxwccuhar23c.py":36:31)
#loc20 = loc("/tmp/torchinductor_yxiao986/fd/cfdtt3rpkuhwvgzsjvt5ow4jvfnmpfihoewdycistxwccuhar23c.py":36:38)
#loc21 = loc("/tmp/torchinductor_yxiao986/fd/cfdtt3rpkuhwvgzsjvt5ow4jvfnmpfihoewdycistxwccuhar23c.py":36:91)
#loc22 = loc("/tmp/torchinductor_yxiao986/fd/cfdtt3rpkuhwvgzsjvt5ow4jvfnmpfihoewdycistxwccuhar23c.py":39:18)
#loc23 = loc("/tmp/torchinductor_yxiao986/fd/cfdtt3rpkuhwvgzsjvt5ow4jvfnmpfihoewdycistxwccuhar23c.py":40:18)
#loc24 = loc("/tmp/torchinductor_yxiao986/fd/cfdtt3rpkuhwvgzsjvt5ow4jvfnmpfihoewdycistxwccuhar23c.py":42:35)
#loc25 = loc("/tmp/torchinductor_yxiao986/fd/cfdtt3rpkuhwvgzsjvt5ow4jvfnmpfihoewdycistxwccuhar23c.py":43:57)
#loc26 = loc("/tmp/torchinductor_yxiao986/fd/cfdtt3rpkuhwvgzsjvt5ow4jvfnmpfihoewdycistxwccuhar23c.py":43:44)
#loc27 = loc("/tmp/torchinductor_yxiao986/fd/cfdtt3rpkuhwvgzsjvt5ow4jvfnmpfihoewdycistxwccuhar23c.py":44:12)
#loc28 = loc("/tmp/torchinductor_yxiao986/fd/cfdtt3rpkuhwvgzsjvt5ow4jvfnmpfihoewdycistxwccuhar23c.py":45:20)
#loc29 = loc("/tmp/torchinductor_yxiao986/fd/cfdtt3rpkuhwvgzsjvt5ow4jvfnmpfihoewdycistxwccuhar23c.py":46:12)
#loc30 = loc("/tmp/torchinductor_yxiao986/fd/cfdtt3rpkuhwvgzsjvt5ow4jvfnmpfihoewdycistxwccuhar23c.py":47:20)
#loc31 = loc("/tmp/torchinductor_yxiao986/fd/cfdtt3rpkuhwvgzsjvt5ow4jvfnmpfihoewdycistxwccuhar23c.py":48:28)
#loc32 = loc("/tmp/torchinductor_yxiao986/fd/cfdtt3rpkuhwvgzsjvt5ow4jvfnmpfihoewdycistxwccuhar23c.py":49:19)
#loc33 = loc("/tmp/torchinductor_yxiao986/fd/cfdtt3rpkuhwvgzsjvt5ow4jvfnmpfihoewdycistxwccuhar23c.py":51:20)
#loc34 = loc("/tmp/torchinductor_yxiao986/fd/cfdtt3rpkuhwvgzsjvt5ow4jvfnmpfihoewdycistxwccuhar23c.py":52:36)
#loc35 = loc("/tmp/torchinductor_yxiao986/fd/cfdtt3rpkuhwvgzsjvt5ow4jvfnmpfihoewdycistxwccuhar23c.py":52:32)
#loc36 = loc("/tmp/torchinductor_yxiao986/fd/cfdtt3rpkuhwvgzsjvt5ow4jvfnmpfihoewdycistxwccuhar23c.py":52:25)
#loc37 = loc("/tmp/torchinductor_yxiao986/fd/cfdtt3rpkuhwvgzsjvt5ow4jvfnmpfihoewdycistxwccuhar23c.py":52:48)
#loc38 = loc("/tmp/torchinductor_yxiao986/fd/cfdtt3rpkuhwvgzsjvt5ow4jvfnmpfihoewdycistxwccuhar23c.py":52:4)
#loc40 = loc("/store/comp4901b/yxiao986/miniconda3/envs/comp4901b-hw2/lib/python3.10/site-packages/triton/language/standard.py":290:36)
#loc42 = loc("/store/comp4901b/yxiao986/miniconda3/envs/comp4901b-hw2/lib/python3.10/site-packages/triton/language/standard.py":290:11)
#loc43 = loc("/store/comp4901b/yxiao986/miniconda3/envs/comp4901b-hw2/lib/python3.10/site-packages/triton/language/standard.py":290:4)
#loc45 = loc("/store/comp4901b/yxiao986/miniconda3/envs/comp4901b-hw2/lib/python3.10/site-packages/triton/language/standard.py":260:15)
#loc46 = loc("/store/comp4901b/yxiao986/miniconda3/envs/comp4901b-hw2/lib/python3.10/site-packages/triton/language/standard.py":260:11)
#loc47 = loc("/store/comp4901b/yxiao986/miniconda3/envs/comp4901b-hw2/lib/python3.10/site-packages/triton/language/standard.py":260:4)
#loc49 = loc("/store/comp4901b/yxiao986/miniconda3/envs/comp4901b-hw2/lib/python3.10/site-packages/torch/_inductor/runtime/triton_helpers.py":66:30)
#loc50 = loc("/store/comp4901b/yxiao986/miniconda3/envs/comp4901b-hw2/lib/python3.10/site-packages/torch/_inductor/runtime/triton_helpers.py":66:15)
#loc51 = loc("/store/comp4901b/yxiao986/miniconda3/envs/comp4901b-hw2/lib/python3.10/site-packages/torch/_inductor/runtime/triton_helpers.py":66:11)
#loc52 = loc("/store/comp4901b/yxiao986/miniconda3/envs/comp4901b-hw2/lib/python3.10/site-packages/torch/_inductor/runtime/triton_helpers.py":66:4)
#loc53 = loc("/store/comp4901b/yxiao986/miniconda3/envs/comp4901b-hw2/lib/python3.10/site-packages/triton/language/standard.py":117:0)
#loc54 = loc("/store/comp4901b/yxiao986/miniconda3/envs/comp4901b-hw2/lib/python3.10/site-packages/triton/language/standard.py":126:31)
#loc55 = loc("/store/comp4901b/yxiao986/miniconda3/envs/comp4901b-hw2/lib/python3.10/site-packages/triton/language/standard.py":126:11)
#loc56 = loc("/store/comp4901b/yxiao986/miniconda3/envs/comp4901b-hw2/lib/python3.10/site-packages/triton/language/standard.py":126:4)
