#loc = loc("/tmp/torchinductor_yxiao986/fd/cfdtt3rpkuhwvgzsjvt5ow4jvfnmpfihoewdycistxwccuhar23c.py":18:0)
#loc1 = loc(unknown)
#loc20 = loc("/tmp/torchinductor_yxiao986/fd/cfdtt3rpkuhwvgzsjvt5ow4jvfnmpfihoewdycistxwccuhar23c.py":43:57)
#loc34 = loc(callsite(#loc1 at #loc20))
module {
  tt.func public @triton_per_fused__to_copy_add_mean_mul_pow_rsqrt_0(%arg0: !tt.ptr<f16> {tt.divisibility = 16 : i32} loc("/tmp/torchinductor_yxiao986/fd/cfdtt3rpkuhwvgzsjvt5ow4jvfnmpfihoewdycistxwccuhar23c.py":18:0), %arg1: !tt.ptr<f16> {tt.divisibility = 16 : i32} loc("/tmp/torchinductor_yxiao986/fd/cfdtt3rpkuhwvgzsjvt5ow4jvfnmpfihoewdycistxwccuhar23c.py":18:0), %arg2: !tt.ptr<f16> {tt.divisibility = 16 : i32} loc("/tmp/torchinductor_yxiao986/fd/cfdtt3rpkuhwvgzsjvt5ow4jvfnmpfihoewdycistxwccuhar23c.py":18:0), %arg3: !tt.ptr<f16> {tt.divisibility = 16 : i32} loc("/tmp/torchinductor_yxiao986/fd/cfdtt3rpkuhwvgzsjvt5ow4jvfnmpfihoewdycistxwccuhar23c.py":18:0), %arg4: i32 loc("/tmp/torchinductor_yxiao986/fd/cfdtt3rpkuhwvgzsjvt5ow4jvfnmpfihoewdycistxwccuhar23c.py":18:0), %arg5: i32 {tt.divisibility = 16 : i32} loc("/tmp/torchinductor_yxiao986/fd/cfdtt3rpkuhwvgzsjvt5ow4jvfnmpfihoewdycistxwccuhar23c.py":18:0)) attributes {noinline = false} {
    %cst = arith.constant 9.99999974E-6 : f32 loc(#loc1)
    %cst_0 = arith.constant 5.760000e+02 : f32 loc(#loc1)
    %cst_1 = arith.constant 0.000000e+00 : f32 loc(#loc1)
    %c576_i32 = arith.constant 576 : i32 loc(#loc1)
    %cst_2 = arith.constant dense<0.000000e+00> : tensor<1024xf16> loc(#loc1)
    %cst_3 = arith.constant dense<0.000000e+00> : tensor<1024xf32> loc(#loc1)
    %cst_4 = arith.constant dense<576> : tensor<1024xi32> loc(#loc1)
    %0 = tt.get_program_id x : i32 loc(#loc2)
    %1 = tt.make_range {end = 1024 : i32, start = 0 : i32} : tensor<1024xi32> loc(#loc3)
    %2 = arith.cmpi slt, %1, %cst_4 : tensor<1024xi32> loc(#loc4)
    %3 = arith.muli %0, %c576_i32 : i32 loc(#loc5)
    %4 = tt.splat %3 : i32 -> tensor<1024xi32> loc(#loc32)
    %5 = arith.addi %1, %4 : tensor<1024xi32> loc(#loc6)
    %6 = tt.splat %arg0 : !tt.ptr<f16> -> tensor<1024x!tt.ptr<f16>> loc(#loc7)
    %7 = tt.addptr %6, %5 : tensor<1024x!tt.ptr<f16>>, tensor<1024xi32> loc(#loc7)
    %8 = tt.load %7, %2, %cst_2 : tensor<1024x!tt.ptr<f16>> loc(#loc8)
    %9 = arith.extf %8 : tensor<1024xf16> to tensor<1024xf32> loc(#loc9)
    %10 = tt.splat %arg1 : !tt.ptr<f16> -> tensor<1024x!tt.ptr<f16>> loc(#loc10)
    %11 = tt.addptr %10, %5 : tensor<1024x!tt.ptr<f16>>, tensor<1024xi32> loc(#loc10)
    %12 = tt.load %11, %2, %cst_2 : tensor<1024x!tt.ptr<f16>> loc(#loc11)
    %13 = arith.extf %12 : tensor<1024xf16> to tensor<1024xf32> loc(#loc12)
    %14 = tt.splat %arg2 : !tt.ptr<f16> -> tensor<1024x!tt.ptr<f16>> loc(#loc13)
    %15 = tt.addptr %14, %1 : tensor<1024x!tt.ptr<f16>>, tensor<1024xi32> loc(#loc13)
    %16 = tt.load %15, %2, %cst_2 evictionPolicy = evict_last : tensor<1024x!tt.ptr<f16>> loc(#loc14)
    %17 = arith.extf %16 : tensor<1024xf16> to tensor<1024xf32> loc(#loc15)
    %18 = arith.addf %9, %13 : tensor<1024xf32> loc(#loc16)
    %19 = arith.mulf %18, %18 : tensor<1024xf32> loc(#loc17)
    %20 = arith.select %2, %19, %cst_3 : tensor<1024xi1>, tensor<1024xf32> loc(#loc18)
    %21 = "tt.reduce"(%20) <{axis = 0 : i32}> ({
    ^bb0(%arg6: f32 loc(callsite(#loc1 at #loc20)), %arg7: f32 loc(callsite(#loc1 at #loc20))):
      %32 = arith.addf %arg6, %arg7 : f32 loc(#loc37)
      tt.reduce.return %32 : f32 loc(#loc33)
    }) : (tensor<1024xf32>) -> f32 loc(#loc33)
    %22 = arith.addf %21, %cst_1 : f32 loc(#loc35)
    %23 = arith.divf %22, %cst_0 : f32 loc(#loc24)
    %24 = arith.addf %23, %cst : f32 loc(#loc25)
    %25 = tt.extern_elementwise %24 {libname = "", libpath = "", pure = true, symbol = "__nv_rsqrtf"} : (f32) -> f32 loc(#loc26)
    %26 = tt.splat %25 : f32 -> tensor<1024xf32> loc(#loc36)
    %27 = arith.mulf %18, %26 : tensor<1024xf32> loc(#loc27)
    %28 = arith.mulf %27, %17 : tensor<1024xf32> loc(#loc28)
    %29 = tt.splat %arg3 : !tt.ptr<f16> -> tensor<1024x!tt.ptr<f16>> loc(#loc29)
    %30 = tt.addptr %29, %5 : tensor<1024x!tt.ptr<f16>>, tensor<1024xi32> loc(#loc29)
    %31 = arith.truncf %28 : tensor<1024xf32> to tensor<1024xf16> loc(#loc30)
    tt.store %30, %31, %2 : tensor<1024x!tt.ptr<f16>> loc(#loc30)
    tt.return loc(#loc31)
  } loc(#loc)
} loc(#loc)
#loc2 = loc("/tmp/torchinductor_yxiao986/fd/cfdtt3rpkuhwvgzsjvt5ow4jvfnmpfihoewdycistxwccuhar23c.py":24:28)
#loc3 = loc("/tmp/torchinductor_yxiao986/fd/cfdtt3rpkuhwvgzsjvt5ow4jvfnmpfihoewdycistxwccuhar23c.py":27:28)
#loc4 = loc("/tmp/torchinductor_yxiao986/fd/cfdtt3rpkuhwvgzsjvt5ow4jvfnmpfihoewdycistxwccuhar23c.py":29:25)
#loc5 = loc("/tmp/torchinductor_yxiao986/fd/cfdtt3rpkuhwvgzsjvt5ow4jvfnmpfihoewdycistxwccuhar23c.py":34:41)
#loc6 = loc("/tmp/torchinductor_yxiao986/fd/cfdtt3rpkuhwvgzsjvt5ow4jvfnmpfihoewdycistxwccuhar23c.py":34:37)
#loc7 = loc("/tmp/torchinductor_yxiao986/fd/cfdtt3rpkuhwvgzsjvt5ow4jvfnmpfihoewdycistxwccuhar23c.py":34:30)
#loc8 = loc("/tmp/torchinductor_yxiao986/fd/cfdtt3rpkuhwvgzsjvt5ow4jvfnmpfihoewdycistxwccuhar23c.py":34:46)
#loc9 = loc("/tmp/torchinductor_yxiao986/fd/cfdtt3rpkuhwvgzsjvt5ow4jvfnmpfihoewdycistxwccuhar23c.py":34:69)
#loc10 = loc("/tmp/torchinductor_yxiao986/fd/cfdtt3rpkuhwvgzsjvt5ow4jvfnmpfihoewdycistxwccuhar23c.py":35:30)
#loc11 = loc("/tmp/torchinductor_yxiao986/fd/cfdtt3rpkuhwvgzsjvt5ow4jvfnmpfihoewdycistxwccuhar23c.py":35:46)
#loc12 = loc("/tmp/torchinductor_yxiao986/fd/cfdtt3rpkuhwvgzsjvt5ow4jvfnmpfihoewdycistxwccuhar23c.py":35:69)
#loc13 = loc("/tmp/torchinductor_yxiao986/fd/cfdtt3rpkuhwvgzsjvt5ow4jvfnmpfihoewdycistxwccuhar23c.py":36:31)
#loc14 = loc("/tmp/torchinductor_yxiao986/fd/cfdtt3rpkuhwvgzsjvt5ow4jvfnmpfihoewdycistxwccuhar23c.py":36:38)
#loc15 = loc("/tmp/torchinductor_yxiao986/fd/cfdtt3rpkuhwvgzsjvt5ow4jvfnmpfihoewdycistxwccuhar23c.py":36:91)
#loc16 = loc("/tmp/torchinductor_yxiao986/fd/cfdtt3rpkuhwvgzsjvt5ow4jvfnmpfihoewdycistxwccuhar23c.py":39:18)
#loc17 = loc("/tmp/torchinductor_yxiao986/fd/cfdtt3rpkuhwvgzsjvt5ow4jvfnmpfihoewdycistxwccuhar23c.py":40:18)
#loc18 = loc("/tmp/torchinductor_yxiao986/fd/cfdtt3rpkuhwvgzsjvt5ow4jvfnmpfihoewdycistxwccuhar23c.py":42:35)
#loc19 = loc("/store/comp4901b/yxiao986/miniconda3/envs/comp4901b-hw2/lib/python3.10/site-packages/triton/language/standard.py":290:36)
#loc21 = loc("/store/comp4901b/yxiao986/miniconda3/envs/comp4901b-hw2/lib/python3.10/site-packages/triton/language/standard.py":260:15)
#loc22 = loc("/store/comp4901b/yxiao986/miniconda3/envs/comp4901b-hw2/lib/python3.10/site-packages/torch/_inductor/runtime/triton_helpers.py":66:15)
#loc23 = loc("/tmp/torchinductor_yxiao986/fd/cfdtt3rpkuhwvgzsjvt5ow4jvfnmpfihoewdycistxwccuhar23c.py":43:44)
#loc24 = loc("/tmp/torchinductor_yxiao986/fd/cfdtt3rpkuhwvgzsjvt5ow4jvfnmpfihoewdycistxwccuhar23c.py":45:20)
#loc25 = loc("/tmp/torchinductor_yxiao986/fd/cfdtt3rpkuhwvgzsjvt5ow4jvfnmpfihoewdycistxwccuhar23c.py":47:20)
#loc26 = loc("/tmp/torchinductor_yxiao986/fd/cfdtt3rpkuhwvgzsjvt5ow4jvfnmpfihoewdycistxwccuhar23c.py":48:28)
#loc27 = loc("/tmp/torchinductor_yxiao986/fd/cfdtt3rpkuhwvgzsjvt5ow4jvfnmpfihoewdycistxwccuhar23c.py":49:19)
#loc28 = loc("/tmp/torchinductor_yxiao986/fd/cfdtt3rpkuhwvgzsjvt5ow4jvfnmpfihoewdycistxwccuhar23c.py":51:20)
#loc29 = loc("/tmp/torchinductor_yxiao986/fd/cfdtt3rpkuhwvgzsjvt5ow4jvfnmpfihoewdycistxwccuhar23c.py":52:25)
#loc30 = loc("/tmp/torchinductor_yxiao986/fd/cfdtt3rpkuhwvgzsjvt5ow4jvfnmpfihoewdycistxwccuhar23c.py":52:48)
#loc31 = loc("/tmp/torchinductor_yxiao986/fd/cfdtt3rpkuhwvgzsjvt5ow4jvfnmpfihoewdycistxwccuhar23c.py":52:4)
#loc32 = loc(fused[#loc6, #loc5])
#loc33 = loc(callsite(#loc19 at #loc20))
#loc35 = loc(callsite(#loc22 at #loc23))
#loc36 = loc(fused[#loc27, #loc26])
#loc37 = loc(callsite(#loc21 at #loc33))
