#loc = loc("/tmp/torchinductor_yxiao986/h4/ch4gi77o5cwhnmyuwm6saxntpww7th5qnvglxnne6tz7rkyffmrh.py":18:0)
#loc1 = loc(unknown)
#loc24 = loc("/tmp/torchinductor_yxiao986/h4/ch4gi77o5cwhnmyuwm6saxntpww7th5qnvglxnne6tz7rkyffmrh.py":46:59)
#loc40 = loc(callsite(#loc1 at #loc24))
module {
  tt.func public @triton_per_fused__to_copy_add_mean_mul_pow_rsqrt_2(%arg0: !tt.ptr<f16> {tt.divisibility = 16 : i32} loc("/tmp/torchinductor_yxiao986/h4/ch4gi77o5cwhnmyuwm6saxntpww7th5qnvglxnne6tz7rkyffmrh.py":18:0), %arg1: !tt.ptr<f16> {tt.divisibility = 16 : i32} loc("/tmp/torchinductor_yxiao986/h4/ch4gi77o5cwhnmyuwm6saxntpww7th5qnvglxnne6tz7rkyffmrh.py":18:0), %arg2: !tt.ptr<f16> {tt.divisibility = 16 : i32} loc("/tmp/torchinductor_yxiao986/h4/ch4gi77o5cwhnmyuwm6saxntpww7th5qnvglxnne6tz7rkyffmrh.py":18:0), %arg3: !tt.ptr<f16> {tt.divisibility = 16 : i32} loc("/tmp/torchinductor_yxiao986/h4/ch4gi77o5cwhnmyuwm6saxntpww7th5qnvglxnne6tz7rkyffmrh.py":18:0), %arg4: !tt.ptr<f16> {tt.divisibility = 16 : i32} loc("/tmp/torchinductor_yxiao986/h4/ch4gi77o5cwhnmyuwm6saxntpww7th5qnvglxnne6tz7rkyffmrh.py":18:0), %arg5: !tt.ptr<f16> {tt.divisibility = 16 : i32} loc("/tmp/torchinductor_yxiao986/h4/ch4gi77o5cwhnmyuwm6saxntpww7th5qnvglxnne6tz7rkyffmrh.py":18:0), %arg6: i32 loc("/tmp/torchinductor_yxiao986/h4/ch4gi77o5cwhnmyuwm6saxntpww7th5qnvglxnne6tz7rkyffmrh.py":18:0), %arg7: i32 {tt.divisibility = 16 : i32} loc("/tmp/torchinductor_yxiao986/h4/ch4gi77o5cwhnmyuwm6saxntpww7th5qnvglxnne6tz7rkyffmrh.py":18:0)) attributes {noinline = false} {
    %cst = arith.constant 9.99999974E-6 : f32 loc(#loc1)
    %cst_0 = arith.constant 5.760000e+02 : f32 loc(#loc1)
    %cst_1 = arith.constant 0.000000e+00 : f32 loc(#loc1)
    %c576_i32 = arith.constant 576 : i32 loc(#loc1)
    %cst_2 = arith.constant dense<0.000000e+00> : tensor<1024xf16> loc(#loc1)
    %cst_3 = arith.constant dense<0.000000e+00> : tensor<1024xf32> loc(#loc1)
    %cst_4 = arith.constant dense<576> : tensor<1024xi32> loc(#loc1)
    %0 = tt.get_program_id x : i32 loc(#loc2)
    %1 = tt.make_range {end = 1024 : i32, start = 0 : i32} : tensor<1024xi32> loc(#loc3)
    %2 = arith.cmpi slt, %1, %cst_4 : tensor<1024xi32> loc(#loc4)
    %3 = arith.muli %0, %c576_i32 : i32 loc(#loc5)
    %4 = tt.splat %3 : i32 -> tensor<1024xi32> loc(#loc38)
    %5 = arith.addi %1, %4 : tensor<1024xi32> loc(#loc6)
    %6 = tt.splat %arg0 : !tt.ptr<f16> -> tensor<1024x!tt.ptr<f16>> loc(#loc7)
    %7 = tt.addptr %6, %5 : tensor<1024x!tt.ptr<f16>>, tensor<1024xi32> loc(#loc7)
    %8 = tt.load %7, %2, %cst_2 : tensor<1024x!tt.ptr<f16>> loc(#loc8)
    %9 = arith.extf %8 : tensor<1024xf16> to tensor<1024xf32> loc(#loc9)
    %10 = tt.splat %arg1 : !tt.ptr<f16> -> tensor<1024x!tt.ptr<f16>> loc(#loc10)
    %11 = tt.addptr %10, %5 : tensor<1024x!tt.ptr<f16>>, tensor<1024xi32> loc(#loc10)
    %12 = tt.load %11, %2, %cst_2 : tensor<1024x!tt.ptr<f16>> loc(#loc11)
    %13 = arith.extf %12 : tensor<1024xf16> to tensor<1024xf32> loc(#loc12)
    %14 = tt.splat %arg2 : !tt.ptr<f16> -> tensor<1024x!tt.ptr<f16>> loc(#loc13)
    %15 = tt.addptr %14, %5 : tensor<1024x!tt.ptr<f16>>, tensor<1024xi32> loc(#loc13)
    %16 = tt.load %15, %2, %cst_2 : tensor<1024x!tt.ptr<f16>> loc(#loc14)
    %17 = arith.extf %16 : tensor<1024xf16> to tensor<1024xf32> loc(#loc15)
    %18 = tt.splat %arg3 : !tt.ptr<f16> -> tensor<1024x!tt.ptr<f16>> loc(#loc16)
    %19 = tt.addptr %18, %1 : tensor<1024x!tt.ptr<f16>>, tensor<1024xi32> loc(#loc16)
    %20 = tt.load %19, %2, %cst_2 evictionPolicy = evict_last : tensor<1024x!tt.ptr<f16>> loc(#loc17)
    %21 = arith.extf %20 : tensor<1024xf16> to tensor<1024xf32> loc(#loc18)
    %22 = arith.addf %13, %17 : tensor<1024xf32> loc(#loc19)
    %23 = arith.addf %9, %22 : tensor<1024xf32> loc(#loc20)
    %24 = arith.mulf %23, %23 : tensor<1024xf32> loc(#loc21)
    %25 = arith.select %2, %24, %cst_3 : tensor<1024xi1>, tensor<1024xf32> loc(#loc22)
    %26 = "tt.reduce"(%25) <{axis = 0 : i32}> ({
    ^bb0(%arg8: f32 loc(callsite(#loc1 at #loc24)), %arg9: f32 loc(callsite(#loc1 at #loc24))):
      %40 = arith.addf %arg8, %arg9 : f32 loc(#loc43)
      tt.reduce.return %40 : f32 loc(#loc39)
    }) : (tensor<1024xf32>) -> f32 loc(#loc39)
    %27 = arith.addf %26, %cst_1 : f32 loc(#loc41)
    %28 = arith.divf %27, %cst_0 : f32 loc(#loc28)
    %29 = arith.addf %28, %cst : f32 loc(#loc29)
    %30 = tt.extern_elementwise %29 {libname = "", libpath = "", pure = true, symbol = "__nv_rsqrtf"} : (f32) -> f32 loc(#loc30)
    %31 = tt.splat %30 : f32 -> tensor<1024xf32> loc(#loc42)
    %32 = arith.mulf %23, %31 : tensor<1024xf32> loc(#loc31)
    %33 = arith.mulf %32, %21 : tensor<1024xf32> loc(#loc32)
    %34 = tt.splat %arg4 : !tt.ptr<f16> -> tensor<1024x!tt.ptr<f16>> loc(#loc33)
    %35 = tt.addptr %34, %5 : tensor<1024x!tt.ptr<f16>>, tensor<1024xi32> loc(#loc33)
    %36 = arith.truncf %33 : tensor<1024xf32> to tensor<1024xf16> loc(#loc34)
    tt.store %35, %36, %2 : tensor<1024x!tt.ptr<f16>> loc(#loc34)
    %37 = tt.splat %arg5 : !tt.ptr<f16> -> tensor<1024x!tt.ptr<f16>> loc(#loc35)
    %38 = tt.addptr %37, %5 : tensor<1024x!tt.ptr<f16>>, tensor<1024xi32> loc(#loc35)
    %39 = arith.truncf %23 : tensor<1024xf32> to tensor<1024xf16> loc(#loc36)
    tt.store %38, %39, %2 : tensor<1024x!tt.ptr<f16>> loc(#loc36)
    tt.return loc(#loc37)
  } loc(#loc)
} loc(#loc)
#loc2 = loc("/tmp/torchinductor_yxiao986/h4/ch4gi77o5cwhnmyuwm6saxntpww7th5qnvglxnne6tz7rkyffmrh.py":24:28)
#loc3 = loc("/tmp/torchinductor_yxiao986/h4/ch4gi77o5cwhnmyuwm6saxntpww7th5qnvglxnne6tz7rkyffmrh.py":27:28)
#loc4 = loc("/tmp/torchinductor_yxiao986/h4/ch4gi77o5cwhnmyuwm6saxntpww7th5qnvglxnne6tz7rkyffmrh.py":29:25)
#loc5 = loc("/tmp/torchinductor_yxiao986/h4/ch4gi77o5cwhnmyuwm6saxntpww7th5qnvglxnne6tz7rkyffmrh.py":34:41)
#loc6 = loc("/tmp/torchinductor_yxiao986/h4/ch4gi77o5cwhnmyuwm6saxntpww7th5qnvglxnne6tz7rkyffmrh.py":34:37)
#loc7 = loc("/tmp/torchinductor_yxiao986/h4/ch4gi77o5cwhnmyuwm6saxntpww7th5qnvglxnne6tz7rkyffmrh.py":34:30)
#loc8 = loc("/tmp/torchinductor_yxiao986/h4/ch4gi77o5cwhnmyuwm6saxntpww7th5qnvglxnne6tz7rkyffmrh.py":34:46)
#loc9 = loc("/tmp/torchinductor_yxiao986/h4/ch4gi77o5cwhnmyuwm6saxntpww7th5qnvglxnne6tz7rkyffmrh.py":34:69)
#loc10 = loc("/tmp/torchinductor_yxiao986/h4/ch4gi77o5cwhnmyuwm6saxntpww7th5qnvglxnne6tz7rkyffmrh.py":35:30)
#loc11 = loc("/tmp/torchinductor_yxiao986/h4/ch4gi77o5cwhnmyuwm6saxntpww7th5qnvglxnne6tz7rkyffmrh.py":35:46)
#loc12 = loc("/tmp/torchinductor_yxiao986/h4/ch4gi77o5cwhnmyuwm6saxntpww7th5qnvglxnne6tz7rkyffmrh.py":35:69)
#loc13 = loc("/tmp/torchinductor_yxiao986/h4/ch4gi77o5cwhnmyuwm6saxntpww7th5qnvglxnne6tz7rkyffmrh.py":36:30)
#loc14 = loc("/tmp/torchinductor_yxiao986/h4/ch4gi77o5cwhnmyuwm6saxntpww7th5qnvglxnne6tz7rkyffmrh.py":36:46)
#loc15 = loc("/tmp/torchinductor_yxiao986/h4/ch4gi77o5cwhnmyuwm6saxntpww7th5qnvglxnne6tz7rkyffmrh.py":36:69)
#loc16 = loc("/tmp/torchinductor_yxiao986/h4/ch4gi77o5cwhnmyuwm6saxntpww7th5qnvglxnne6tz7rkyffmrh.py":37:31)
#loc17 = loc("/tmp/torchinductor_yxiao986/h4/ch4gi77o5cwhnmyuwm6saxntpww7th5qnvglxnne6tz7rkyffmrh.py":37:38)
#loc18 = loc("/tmp/torchinductor_yxiao986/h4/ch4gi77o5cwhnmyuwm6saxntpww7th5qnvglxnne6tz7rkyffmrh.py":37:91)
#loc19 = loc("/tmp/torchinductor_yxiao986/h4/ch4gi77o5cwhnmyuwm6saxntpww7th5qnvglxnne6tz7rkyffmrh.py":41:18)
#loc20 = loc("/tmp/torchinductor_yxiao986/h4/ch4gi77o5cwhnmyuwm6saxntpww7th5qnvglxnne6tz7rkyffmrh.py":42:18)
#loc21 = loc("/tmp/torchinductor_yxiao986/h4/ch4gi77o5cwhnmyuwm6saxntpww7th5qnvglxnne6tz7rkyffmrh.py":43:18)
#loc22 = loc("/tmp/torchinductor_yxiao986/h4/ch4gi77o5cwhnmyuwm6saxntpww7th5qnvglxnne6tz7rkyffmrh.py":45:36)
#loc23 = loc("/store/comp4901b/yxiao986/miniconda3/envs/comp4901b-hw2/lib/python3.10/site-packages/triton/language/standard.py":290:36)
#loc25 = loc("/store/comp4901b/yxiao986/miniconda3/envs/comp4901b-hw2/lib/python3.10/site-packages/triton/language/standard.py":260:15)
#loc26 = loc("/store/comp4901b/yxiao986/miniconda3/envs/comp4901b-hw2/lib/python3.10/site-packages/torch/_inductor/runtime/triton_helpers.py":66:15)
#loc27 = loc("/tmp/torchinductor_yxiao986/h4/ch4gi77o5cwhnmyuwm6saxntpww7th5qnvglxnne6tz7rkyffmrh.py":46:45)
#loc28 = loc("/tmp/torchinductor_yxiao986/h4/ch4gi77o5cwhnmyuwm6saxntpww7th5qnvglxnne6tz7rkyffmrh.py":48:21)
#loc29 = loc("/tmp/torchinductor_yxiao986/h4/ch4gi77o5cwhnmyuwm6saxntpww7th5qnvglxnne6tz7rkyffmrh.py":50:20)
#loc30 = loc("/tmp/torchinductor_yxiao986/h4/ch4gi77o5cwhnmyuwm6saxntpww7th5qnvglxnne6tz7rkyffmrh.py":51:28)
#loc31 = loc("/tmp/torchinductor_yxiao986/h4/ch4gi77o5cwhnmyuwm6saxntpww7th5qnvglxnne6tz7rkyffmrh.py":52:19)
#loc32 = loc("/tmp/torchinductor_yxiao986/h4/ch4gi77o5cwhnmyuwm6saxntpww7th5qnvglxnne6tz7rkyffmrh.py":54:20)
#loc33 = loc("/tmp/torchinductor_yxiao986/h4/ch4gi77o5cwhnmyuwm6saxntpww7th5qnvglxnne6tz7rkyffmrh.py":56:25)
#loc34 = loc("/tmp/torchinductor_yxiao986/h4/ch4gi77o5cwhnmyuwm6saxntpww7th5qnvglxnne6tz7rkyffmrh.py":56:48)
#loc35 = loc("/tmp/torchinductor_yxiao986/h4/ch4gi77o5cwhnmyuwm6saxntpww7th5qnvglxnne6tz7rkyffmrh.py":57:25)
#loc36 = loc("/tmp/torchinductor_yxiao986/h4/ch4gi77o5cwhnmyuwm6saxntpww7th5qnvglxnne6tz7rkyffmrh.py":57:48)
#loc37 = loc("/tmp/torchinductor_yxiao986/h4/ch4gi77o5cwhnmyuwm6saxntpww7th5qnvglxnne6tz7rkyffmrh.py":57:4)
#loc38 = loc(fused[#loc6, #loc5])
#loc39 = loc(callsite(#loc23 at #loc24))
#loc41 = loc(callsite(#loc26 at #loc27))
#loc42 = loc(fused[#loc31, #loc30])
#loc43 = loc(callsite(#loc25 at #loc39))
