#loc = loc("/tmp/torchinductor_yxiao986/h4/ch4gi77o5cwhnmyuwm6saxntpww7th5qnvglxnne6tz7rkyffmrh.py":18:0)
#loc49 = loc("/store/comp4901b/yxiao986/miniconda3/envs/comp4901b-hw2/lib/python3.10/site-packages/triton/language/standard.py":284:0)
#loc51 = loc(unknown)
#loc54 = loc("/store/comp4901b/yxiao986/miniconda3/envs/comp4901b-hw2/lib/python3.10/site-packages/triton/language/standard.py":259:0)
#loc58 = loc("/store/comp4901b/yxiao986/miniconda3/envs/comp4901b-hw2/lib/python3.10/site-packages/torch/_inductor/runtime/triton_helpers.py":64:0)
module {
  tt.func public @triton_per_fused__to_copy_add_mean_mul_pow_rsqrt_2(%arg0: !tt.ptr<f16> {tt.divisibility = 16 : i32} loc("/tmp/torchinductor_yxiao986/h4/ch4gi77o5cwhnmyuwm6saxntpww7th5qnvglxnne6tz7rkyffmrh.py":18:0), %arg1: !tt.ptr<f16> {tt.divisibility = 16 : i32} loc("/tmp/torchinductor_yxiao986/h4/ch4gi77o5cwhnmyuwm6saxntpww7th5qnvglxnne6tz7rkyffmrh.py":18:0), %arg2: !tt.ptr<f16> {tt.divisibility = 16 : i32} loc("/tmp/torchinductor_yxiao986/h4/ch4gi77o5cwhnmyuwm6saxntpww7th5qnvglxnne6tz7rkyffmrh.py":18:0), %arg3: !tt.ptr<f16> {tt.divisibility = 16 : i32} loc("/tmp/torchinductor_yxiao986/h4/ch4gi77o5cwhnmyuwm6saxntpww7th5qnvglxnne6tz7rkyffmrh.py":18:0), %arg4: !tt.ptr<f16> {tt.divisibility = 16 : i32} loc("/tmp/torchinductor_yxiao986/h4/ch4gi77o5cwhnmyuwm6saxntpww7th5qnvglxnne6tz7rkyffmrh.py":18:0), %arg5: !tt.ptr<f16> {tt.divisibility = 16 : i32} loc("/tmp/torchinductor_yxiao986/h4/ch4gi77o5cwhnmyuwm6saxntpww7th5qnvglxnne6tz7rkyffmrh.py":18:0), %arg6: i32 loc("/tmp/torchinductor_yxiao986/h4/ch4gi77o5cwhnmyuwm6saxntpww7th5qnvglxnne6tz7rkyffmrh.py":18:0), %arg7: i32 {tt.divisibility = 16 : i32} loc("/tmp/torchinductor_yxiao986/h4/ch4gi77o5cwhnmyuwm6saxntpww7th5qnvglxnne6tz7rkyffmrh.py":18:0)) attributes {noinline = false} {
    %c576_i32 = arith.constant 576 : i32 loc(#loc1)
    %0 = tt.get_program_id x : i32 loc(#loc2)
    %c1_i32 = arith.constant 1 : i32 loc(#loc3)
    %c1_i32_0 = arith.constant 1 : i32 loc(#loc3)
    %1 = arith.muli %0, %c1_i32_0 : i32 loc(#loc3)
    %2 = tt.splat %1 : i32 -> tensor<1xi32> loc(#loc4)
    %true = arith.constant true loc(#loc5)
    %cst = arith.constant dense<true> : tensor<1024xi1> loc(#loc5)
    %3 = tt.make_range {end = 1024 : i32, start = 0 : i32} : tensor<1024xi32> loc(#loc6)
    %c0_i32 = arith.constant 0 : i32 loc(#loc7)
    %cst_1 = arith.constant dense<576> : tensor<1024xi32> loc(#loc8)
    %4 = arith.cmpi slt, %3, %cst_1 : tensor<1024xi32> loc(#loc8)
    %c576_i32_2 = arith.constant 576 : i32 loc(#loc9)
    %c576_i32_3 = arith.constant 576 : i32 loc(#loc9)
    %cst_4 = arith.constant dense<576> : tensor<1xi32> loc(#loc9)
    %5 = arith.muli %cst_4, %2 : tensor<1xi32> loc(#loc9)
    %6 = tt.broadcast %5 : tensor<1xi32> -> tensor<1024xi32> loc(#loc10)
    %7 = arith.addi %3, %6 : tensor<1024xi32> loc(#loc10)
    %8 = tt.splat %arg0 : !tt.ptr<f16> -> tensor<1024x!tt.ptr<f16>> loc(#loc11)
    %9 = tt.addptr %8, %7 : tensor<1024x!tt.ptr<f16>>, tensor<1024xi32> loc(#loc11)
    %cst_5 = arith.constant 0.000000e+00 : f32 loc(#loc12)
    %cst_6 = arith.constant dense<0.000000e+00> : tensor<1024xf32> loc(#loc12)
    %10 = arith.truncf %cst_6 : tensor<1024xf32> to tensor<1024xf16> loc(#loc12)
    %11 = tt.load %9, %4, %10 : tensor<1024x!tt.ptr<f16>> loc(#loc12)
    %12 = arith.extf %11 : tensor<1024xf16> to tensor<1024xf32> loc(#loc13)
    %c576_i32_7 = arith.constant 576 : i32 loc(#loc14)
    %c576_i32_8 = arith.constant 576 : i32 loc(#loc14)
    %cst_9 = arith.constant dense<576> : tensor<1xi32> loc(#loc14)
    %13 = arith.muli %cst_9, %2 : tensor<1xi32> loc(#loc14)
    %14 = tt.broadcast %13 : tensor<1xi32> -> tensor<1024xi32> loc(#loc15)
    %15 = arith.addi %3, %14 : tensor<1024xi32> loc(#loc15)
    %16 = tt.splat %arg1 : !tt.ptr<f16> -> tensor<1024x!tt.ptr<f16>> loc(#loc16)
    %17 = tt.addptr %16, %15 : tensor<1024x!tt.ptr<f16>>, tensor<1024xi32> loc(#loc16)
    %cst_10 = arith.constant 0.000000e+00 : f32 loc(#loc17)
    %cst_11 = arith.constant dense<0.000000e+00> : tensor<1024xf32> loc(#loc17)
    %18 = arith.truncf %cst_11 : tensor<1024xf32> to tensor<1024xf16> loc(#loc17)
    %19 = tt.load %17, %4, %18 : tensor<1024x!tt.ptr<f16>> loc(#loc17)
    %20 = arith.extf %19 : tensor<1024xf16> to tensor<1024xf32> loc(#loc18)
    %c576_i32_12 = arith.constant 576 : i32 loc(#loc19)
    %c576_i32_13 = arith.constant 576 : i32 loc(#loc19)
    %cst_14 = arith.constant dense<576> : tensor<1xi32> loc(#loc19)
    %21 = arith.muli %cst_14, %2 : tensor<1xi32> loc(#loc19)
    %22 = tt.broadcast %21 : tensor<1xi32> -> tensor<1024xi32> loc(#loc20)
    %23 = arith.addi %3, %22 : tensor<1024xi32> loc(#loc20)
    %24 = tt.splat %arg2 : !tt.ptr<f16> -> tensor<1024x!tt.ptr<f16>> loc(#loc21)
    %25 = tt.addptr %24, %23 : tensor<1024x!tt.ptr<f16>>, tensor<1024xi32> loc(#loc21)
    %cst_15 = arith.constant 0.000000e+00 : f32 loc(#loc22)
    %cst_16 = arith.constant dense<0.000000e+00> : tensor<1024xf32> loc(#loc22)
    %26 = arith.truncf %cst_16 : tensor<1024xf32> to tensor<1024xf16> loc(#loc22)
    %27 = tt.load %25, %4, %26 : tensor<1024x!tt.ptr<f16>> loc(#loc22)
    %28 = arith.extf %27 : tensor<1024xf16> to tensor<1024xf32> loc(#loc23)
    %29 = tt.splat %arg3 : !tt.ptr<f16> -> tensor<1024x!tt.ptr<f16>> loc(#loc24)
    %30 = tt.addptr %29, %3 : tensor<1024x!tt.ptr<f16>>, tensor<1024xi32> loc(#loc24)
    %cst_17 = arith.constant 0.000000e+00 : f32 loc(#loc25)
    %cst_18 = arith.constant dense<0.000000e+00> : tensor<1024xf32> loc(#loc25)
    %31 = arith.truncf %cst_18 : tensor<1024xf32> to tensor<1024xf16> loc(#loc25)
    %32 = tt.load %30, %4, %31 evictionPolicy = evict_last : tensor<1024x!tt.ptr<f16>> loc(#loc25)
    %33 = arith.extf %32 : tensor<1024xf16> to tensor<1024xf32> loc(#loc26)
    %34 = arith.addf %20, %28 : tensor<1024xf32> loc(#loc27)
    %35 = arith.addf %12, %34 : tensor<1024xf32> loc(#loc28)
    %36 = arith.mulf %35, %35 : tensor<1024xf32> loc(#loc29)
    %c0_i32_19 = arith.constant 0 : i32 loc(#loc30)
    %cst_20 = arith.constant 0.000000e+00 : f32 loc(#loc30)
    %cst_21 = arith.constant dense<0.000000e+00> : tensor<1024xf32> loc(#loc30)
    %37 = arith.select %4, %36, %cst_21 : tensor<1024xi1>, tensor<1024xf32> loc(#loc30)
    %38 = tt.call @"triton.language.standard.sum__fp32S1024S__(1,)cconstexpr_0__(2,)cconstexpr_False__(3,)cNone"(%37) : (tensor<1024xf32>) -> f32 loc(#loc31)
    %39 = tt.call @torch._inductor.runtime.triton_helpers.promote_to_tensor__fp32__(%38) : (f32) -> tensor<1xf32> loc(#loc32)
    %cst_22 = arith.constant 5.760000e+02 : f32 loc(#loc33)
    %cst_23 = arith.constant dense<5.760000e+02> : tensor<1xf32> loc(#loc34)
    %40 = arith.divf %39, %cst_23 : tensor<1xf32> loc(#loc34)
    %cst_24 = arith.constant 9.99999974E-6 : f32 loc(#loc35)
    %cst_25 = arith.constant dense<9.99999974E-6> : tensor<1xf32> loc(#loc36)
    %41 = arith.addf %40, %cst_25 : tensor<1xf32> loc(#loc36)
    %42 = tt.extern_elementwise %41 {libname = "", libpath = "", pure = true, symbol = "__nv_rsqrtf"} : (tensor<1xf32>) -> tensor<1xf32> loc(#loc37)
    %43 = tt.broadcast %42 : tensor<1xf32> -> tensor<1024xf32> loc(#loc38)
    %44 = arith.mulf %35, %43 : tensor<1024xf32> loc(#loc38)
    %45 = arith.mulf %44, %33 : tensor<1024xf32> loc(#loc39)
    %c576_i32_26 = arith.constant 576 : i32 loc(#loc40)
    %c576_i32_27 = arith.constant 576 : i32 loc(#loc40)
    %cst_28 = arith.constant dense<576> : tensor<1xi32> loc(#loc40)
    %46 = arith.muli %cst_28, %2 : tensor<1xi32> loc(#loc40)
    %47 = tt.broadcast %46 : tensor<1xi32> -> tensor<1024xi32> loc(#loc41)
    %48 = arith.addi %3, %47 : tensor<1024xi32> loc(#loc41)
    %49 = tt.splat %arg4 : !tt.ptr<f16> -> tensor<1024x!tt.ptr<f16>> loc(#loc42)
    %50 = tt.addptr %49, %48 : tensor<1024x!tt.ptr<f16>>, tensor<1024xi32> loc(#loc42)
    %51 = arith.truncf %45 : tensor<1024xf32> to tensor<1024xf16> loc(#loc43)
    tt.store %50, %51, %4 : tensor<1024x!tt.ptr<f16>> loc(#loc43)
    %c576_i32_29 = arith.constant 576 : i32 loc(#loc44)
    %c576_i32_30 = arith.constant 576 : i32 loc(#loc44)
    %cst_31 = arith.constant dense<576> : tensor<1xi32> loc(#loc44)
    %52 = arith.muli %cst_31, %2 : tensor<1xi32> loc(#loc44)
    %53 = tt.broadcast %52 : tensor<1xi32> -> tensor<1024xi32> loc(#loc45)
    %54 = arith.addi %3, %53 : tensor<1024xi32> loc(#loc45)
    %55 = tt.splat %arg5 : !tt.ptr<f16> -> tensor<1024x!tt.ptr<f16>> loc(#loc46)
    %56 = tt.addptr %55, %54 : tensor<1024x!tt.ptr<f16>>, tensor<1024xi32> loc(#loc46)
    %57 = arith.truncf %35 : tensor<1024xf32> to tensor<1024xf16> loc(#loc47)
    tt.store %56, %57, %4 : tensor<1024x!tt.ptr<f16>> loc(#loc47)
    tt.return loc(#loc48)
  } loc(#loc)
  tt.func private @"triton.language.standard.sum__fp32S1024S__(1,)cconstexpr_0__(2,)cconstexpr_False__(3,)cNone"(%arg0: tensor<1024xf32> loc("/store/comp4901b/yxiao986/miniconda3/envs/comp4901b-hw2/lib/python3.10/site-packages/triton/language/standard.py":284:0)) -> f32 attributes {noinline = false} {
    %0 = "tt.reduce"(%arg0) <{axis = 0 : i32}> ({
    ^bb0(%arg1: f32 loc(unknown), %arg2: f32 loc(unknown)):
      %2 = tt.call @triton.language.standard._sum_combine__fp32_fp32__(%arg1, %arg2) : (f32, f32) -> f32 loc(#loc50)
      tt.reduce.return %2 : f32 loc(#loc50)
    }) : (tensor<1024xf32>) -> f32 loc(#loc50)
    tt.return %0 : f32 loc(#loc52)
  ^bb1:  // no predecessors
    %1 = ub.poison : f32 loc(#loc53)
    tt.return %1 : f32 loc(#loc53)
  } loc(#loc49)
  tt.func private @triton.language.standard._sum_combine__fp32_fp32__(%arg0: f32 loc("/store/comp4901b/yxiao986/miniconda3/envs/comp4901b-hw2/lib/python3.10/site-packages/triton/language/standard.py":259:0), %arg1: f32 loc("/store/comp4901b/yxiao986/miniconda3/envs/comp4901b-hw2/lib/python3.10/site-packages/triton/language/standard.py":259:0)) -> f32 attributes {noinline = false} {
    %0 = arith.addf %arg0, %arg1 : f32 loc(#loc55)
    tt.return %0 : f32 loc(#loc56)
  ^bb1:  // no predecessors
    %1 = ub.poison : f32 loc(#loc57)
    tt.return %1 : f32 loc(#loc57)
  } loc(#loc54)
  tt.func private @torch._inductor.runtime.triton_helpers.promote_to_tensor__fp32__(%arg0: f32 loc("/store/comp4901b/yxiao986/miniconda3/envs/comp4901b-hw2/lib/python3.10/site-packages/torch/_inductor/runtime/triton_helpers.py":64:0)) -> tensor<1xf32> attributes {noinline = false} {
    %0 = tt.call @"triton.language.standard.zeros____(0, 0)cconstexpr_1__(1,)cconstexpr_int1_"() : () -> tensor<1xi1> loc(#loc59)
    %1 = arith.uitofp %0 : tensor<1xi1> to tensor<1xf32> loc(#loc60)
    %2 = tt.splat %arg0 : f32 -> tensor<1xf32> loc(#loc60)
    %3 = arith.addf %2, %1 : tensor<1xf32> loc(#loc60)
    tt.return %3 : tensor<1xf32> loc(#loc61)
  ^bb1:  // no predecessors
    %4 = ub.poison : tensor<1xf32> loc(#loc62)
    tt.return %4 : tensor<1xf32> loc(#loc62)
  } loc(#loc58)
  tt.func private @"triton.language.standard.zeros____(0, 0)cconstexpr_1__(1,)cconstexpr_int1_"() -> tensor<1xi1> attributes {noinline = false} {
    %false = arith.constant false loc(#loc64)
    %cst = arith.constant dense<false> : tensor<1xi1> loc(#loc64)
    tt.return %cst : tensor<1xi1> loc(#loc65)
  ^bb1:  // no predecessors
    %0 = ub.poison : tensor<1xi1> loc(#loc66)
    tt.return %0 : tensor<1xi1> loc(#loc66)
  } loc(#loc63)
} loc(#loc)
#loc1 = loc("/tmp/torchinductor_yxiao986/h4/ch4gi77o5cwhnmyuwm6saxntpww7th5qnvglxnne6tz7rkyffmrh.py":20:15)
#loc2 = loc("/tmp/torchinductor_yxiao986/h4/ch4gi77o5cwhnmyuwm6saxntpww7th5qnvglxnne6tz7rkyffmrh.py":24:28)
#loc3 = loc("/tmp/torchinductor_yxiao986/h4/ch4gi77o5cwhnmyuwm6saxntpww7th5qnvglxnne6tz7rkyffmrh.py":24:33)
#loc4 = loc("/tmp/torchinductor_yxiao986/h4/ch4gi77o5cwhnmyuwm6saxntpww7th5qnvglxnne6tz7rkyffmrh.py":25:35)
#loc5 = loc("/tmp/torchinductor_yxiao986/h4/ch4gi77o5cwhnmyuwm6saxntpww7th5qnvglxnne6tz7rkyffmrh.py":26:38)
#loc6 = loc("/tmp/torchinductor_yxiao986/h4/ch4gi77o5cwhnmyuwm6saxntpww7th5qnvglxnne6tz7rkyffmrh.py":27:28)
#loc7 = loc("/tmp/torchinductor_yxiao986/h4/ch4gi77o5cwhnmyuwm6saxntpww7th5qnvglxnne6tz7rkyffmrh.py":28:16)
#loc8 = loc("/tmp/torchinductor_yxiao986/h4/ch4gi77o5cwhnmyuwm6saxntpww7th5qnvglxnne6tz7rkyffmrh.py":29:25)
#loc9 = loc("/tmp/torchinductor_yxiao986/h4/ch4gi77o5cwhnmyuwm6saxntpww7th5qnvglxnne6tz7rkyffmrh.py":34:41)
#loc10 = loc("/tmp/torchinductor_yxiao986/h4/ch4gi77o5cwhnmyuwm6saxntpww7th5qnvglxnne6tz7rkyffmrh.py":34:37)
#loc11 = loc("/tmp/torchinductor_yxiao986/h4/ch4gi77o5cwhnmyuwm6saxntpww7th5qnvglxnne6tz7rkyffmrh.py":34:30)
#loc12 = loc("/tmp/torchinductor_yxiao986/h4/ch4gi77o5cwhnmyuwm6saxntpww7th5qnvglxnne6tz7rkyffmrh.py":34:46)
#loc13 = loc("/tmp/torchinductor_yxiao986/h4/ch4gi77o5cwhnmyuwm6saxntpww7th5qnvglxnne6tz7rkyffmrh.py":34:69)
#loc14 = loc("/tmp/torchinductor_yxiao986/h4/ch4gi77o5cwhnmyuwm6saxntpww7th5qnvglxnne6tz7rkyffmrh.py":35:41)
#loc15 = loc("/tmp/torchinductor_yxiao986/h4/ch4gi77o5cwhnmyuwm6saxntpww7th5qnvglxnne6tz7rkyffmrh.py":35:37)
#loc16 = loc("/tmp/torchinductor_yxiao986/h4/ch4gi77o5cwhnmyuwm6saxntpww7th5qnvglxnne6tz7rkyffmrh.py":35:30)
#loc17 = loc("/tmp/torchinductor_yxiao986/h4/ch4gi77o5cwhnmyuwm6saxntpww7th5qnvglxnne6tz7rkyffmrh.py":35:46)
#loc18 = loc("/tmp/torchinductor_yxiao986/h4/ch4gi77o5cwhnmyuwm6saxntpww7th5qnvglxnne6tz7rkyffmrh.py":35:69)
#loc19 = loc("/tmp/torchinductor_yxiao986/h4/ch4gi77o5cwhnmyuwm6saxntpww7th5qnvglxnne6tz7rkyffmrh.py":36:41)
#loc20 = loc("/tmp/torchinductor_yxiao986/h4/ch4gi77o5cwhnmyuwm6saxntpww7th5qnvglxnne6tz7rkyffmrh.py":36:37)
#loc21 = loc("/tmp/torchinductor_yxiao986/h4/ch4gi77o5cwhnmyuwm6saxntpww7th5qnvglxnne6tz7rkyffmrh.py":36:30)
#loc22 = loc("/tmp/torchinductor_yxiao986/h4/ch4gi77o5cwhnmyuwm6saxntpww7th5qnvglxnne6tz7rkyffmrh.py":36:46)
#loc23 = loc("/tmp/torchinductor_yxiao986/h4/ch4gi77o5cwhnmyuwm6saxntpww7th5qnvglxnne6tz7rkyffmrh.py":36:69)
#loc24 = loc("/tmp/torchinductor_yxiao986/h4/ch4gi77o5cwhnmyuwm6saxntpww7th5qnvglxnne6tz7rkyffmrh.py":37:31)
#loc25 = loc("/tmp/torchinductor_yxiao986/h4/ch4gi77o5cwhnmyuwm6saxntpww7th5qnvglxnne6tz7rkyffmrh.py":37:38)
#loc26 = loc("/tmp/torchinductor_yxiao986/h4/ch4gi77o5cwhnmyuwm6saxntpww7th5qnvglxnne6tz7rkyffmrh.py":37:91)
#loc27 = loc("/tmp/torchinductor_yxiao986/h4/ch4gi77o5cwhnmyuwm6saxntpww7th5qnvglxnne6tz7rkyffmrh.py":41:18)
#loc28 = loc("/tmp/torchinductor_yxiao986/h4/ch4gi77o5cwhnmyuwm6saxntpww7th5qnvglxnne6tz7rkyffmrh.py":42:18)
#loc29 = loc("/tmp/torchinductor_yxiao986/h4/ch4gi77o5cwhnmyuwm6saxntpww7th5qnvglxnne6tz7rkyffmrh.py":43:18)
#loc30 = loc("/tmp/torchinductor_yxiao986/h4/ch4gi77o5cwhnmyuwm6saxntpww7th5qnvglxnne6tz7rkyffmrh.py":45:36)
#loc31 = loc("/tmp/torchinductor_yxiao986/h4/ch4gi77o5cwhnmyuwm6saxntpww7th5qnvglxnne6tz7rkyffmrh.py":46:59)
#loc32 = loc("/tmp/torchinductor_yxiao986/h4/ch4gi77o5cwhnmyuwm6saxntpww7th5qnvglxnne6tz7rkyffmrh.py":46:45)
#loc33 = loc("/tmp/torchinductor_yxiao986/h4/ch4gi77o5cwhnmyuwm6saxntpww7th5qnvglxnne6tz7rkyffmrh.py":47:12)
#loc34 = loc("/tmp/torchinductor_yxiao986/h4/ch4gi77o5cwhnmyuwm6saxntpww7th5qnvglxnne6tz7rkyffmrh.py":48:21)
#loc35 = loc("/tmp/torchinductor_yxiao986/h4/ch4gi77o5cwhnmyuwm6saxntpww7th5qnvglxnne6tz7rkyffmrh.py":49:12)
#loc36 = loc("/tmp/torchinductor_yxiao986/h4/ch4gi77o5cwhnmyuwm6saxntpww7th5qnvglxnne6tz7rkyffmrh.py":50:20)
#loc37 = loc("/tmp/torchinductor_yxiao986/h4/ch4gi77o5cwhnmyuwm6saxntpww7th5qnvglxnne6tz7rkyffmrh.py":51:28)
#loc38 = loc("/tmp/torchinductor_yxiao986/h4/ch4gi77o5cwhnmyuwm6saxntpww7th5qnvglxnne6tz7rkyffmrh.py":52:19)
#loc39 = loc("/tmp/torchinductor_yxiao986/h4/ch4gi77o5cwhnmyuwm6saxntpww7th5qnvglxnne6tz7rkyffmrh.py":54:20)
#loc40 = loc("/tmp/torchinductor_yxiao986/h4/ch4gi77o5cwhnmyuwm6saxntpww7th5qnvglxnne6tz7rkyffmrh.py":56:36)
#loc41 = loc("/tmp/torchinductor_yxiao986/h4/ch4gi77o5cwhnmyuwm6saxntpww7th5qnvglxnne6tz7rkyffmrh.py":56:32)
#loc42 = loc("/tmp/torchinductor_yxiao986/h4/ch4gi77o5cwhnmyuwm6saxntpww7th5qnvglxnne6tz7rkyffmrh.py":56:25)
#loc43 = loc("/tmp/torchinductor_yxiao986/h4/ch4gi77o5cwhnmyuwm6saxntpww7th5qnvglxnne6tz7rkyffmrh.py":56:48)
#loc44 = loc("/tmp/torchinductor_yxiao986/h4/ch4gi77o5cwhnmyuwm6saxntpww7th5qnvglxnne6tz7rkyffmrh.py":57:36)
#loc45 = loc("/tmp/torchinductor_yxiao986/h4/ch4gi77o5cwhnmyuwm6saxntpww7th5qnvglxnne6tz7rkyffmrh.py":57:32)
#loc46 = loc("/tmp/torchinductor_yxiao986/h4/ch4gi77o5cwhnmyuwm6saxntpww7th5qnvglxnne6tz7rkyffmrh.py":57:25)
#loc47 = loc("/tmp/torchinductor_yxiao986/h4/ch4gi77o5cwhnmyuwm6saxntpww7th5qnvglxnne6tz7rkyffmrh.py":57:48)
#loc48 = loc("/tmp/torchinductor_yxiao986/h4/ch4gi77o5cwhnmyuwm6saxntpww7th5qnvglxnne6tz7rkyffmrh.py":57:4)
#loc50 = loc("/store/comp4901b/yxiao986/miniconda3/envs/comp4901b-hw2/lib/python3.10/site-packages/triton/language/standard.py":290:36)
#loc52 = loc("/store/comp4901b/yxiao986/miniconda3/envs/comp4901b-hw2/lib/python3.10/site-packages/triton/language/standard.py":290:11)
#loc53 = loc("/store/comp4901b/yxiao986/miniconda3/envs/comp4901b-hw2/lib/python3.10/site-packages/triton/language/standard.py":290:4)
#loc55 = loc("/store/comp4901b/yxiao986/miniconda3/envs/comp4901b-hw2/lib/python3.10/site-packages/triton/language/standard.py":260:15)
#loc56 = loc("/store/comp4901b/yxiao986/miniconda3/envs/comp4901b-hw2/lib/python3.10/site-packages/triton/language/standard.py":260:11)
#loc57 = loc("/store/comp4901b/yxiao986/miniconda3/envs/comp4901b-hw2/lib/python3.10/site-packages/triton/language/standard.py":260:4)
#loc59 = loc("/store/comp4901b/yxiao986/miniconda3/envs/comp4901b-hw2/lib/python3.10/site-packages/torch/_inductor/runtime/triton_helpers.py":66:30)
#loc60 = loc("/store/comp4901b/yxiao986/miniconda3/envs/comp4901b-hw2/lib/python3.10/site-packages/torch/_inductor/runtime/triton_helpers.py":66:15)
#loc61 = loc("/store/comp4901b/yxiao986/miniconda3/envs/comp4901b-hw2/lib/python3.10/site-packages/torch/_inductor/runtime/triton_helpers.py":66:11)
#loc62 = loc("/store/comp4901b/yxiao986/miniconda3/envs/comp4901b-hw2/lib/python3.10/site-packages/torch/_inductor/runtime/triton_helpers.py":66:4)
#loc63 = loc("/store/comp4901b/yxiao986/miniconda3/envs/comp4901b-hw2/lib/python3.10/site-packages/triton/language/standard.py":117:0)
#loc64 = loc("/store/comp4901b/yxiao986/miniconda3/envs/comp4901b-hw2/lib/python3.10/site-packages/triton/language/standard.py":126:31)
#loc65 = loc("/store/comp4901b/yxiao986/miniconda3/envs/comp4901b-hw2/lib/python3.10/site-packages/triton/language/standard.py":126:11)
#loc66 = loc("/store/comp4901b/yxiao986/miniconda3/envs/comp4901b-hw2/lib/python3.10/site-packages/triton/language/standard.py":126:4)
