#loc = loc("/tmp/torchinductor_yxiao986/2x/c2xggrpxdpf55aajlcbiqhanjlzau7ilqyuv7v6pjfriz7htp5vs.py":18:0)
module {
  tt.func public @triton_poi_fused_cat_4(%arg0: !tt.ptr<f16> {tt.divisibility = 16 : i32} loc("/tmp/torchinductor_yxiao986/2x/c2xggrpxdpf55aajlcbiqhanjlzau7ilqyuv7v6pjfriz7htp5vs.py":18:0), %arg1: !tt.ptr<i64> {tt.divisibility = 16 : i32} loc("/tmp/torchinductor_yxiao986/2x/c2xggrpxdpf55aajlcbiqhanjlzau7ilqyuv7v6pjfriz7htp5vs.py":18:0), %arg2: !tt.ptr<f16> {tt.divisibility = 16 : i32} loc("/tmp/torchinductor_yxiao986/2x/c2xggrpxdpf55aajlcbiqhanjlzau7ilqyuv7v6pjfriz7htp5vs.py":18:0), %arg3: !tt.ptr<f16> {tt.divisibility = 16 : i32} loc("/tmp/torchinductor_yxiao986/2x/c2xggrpxdpf55aajlcbiqhanjlzau7ilqyuv7v6pjfriz7htp5vs.py":18:0), %arg4: i32 {tt.divisibility = 16 : i32} loc("/tmp/torchinductor_yxiao986/2x/c2xggrpxdpf55aajlcbiqhanjlzau7ilqyuv7v6pjfriz7htp5vs.py":18:0)) attributes {noinline = false} {
    %0 = tt.get_program_id x : i32 loc(#loc1)
    %c512_i32 = arith.constant 512 : i32 loc(#loc2)
    %c512_i32_0 = arith.constant 512 : i32 loc(#loc2)
    %1 = arith.muli %0, %c512_i32_0 : i32 loc(#loc2)
    %2 = tt.make_range {end = 512 : i32, start = 0 : i32} : tensor<512xi32> loc(#loc3)
    %3 = tt.splat %1 : i32 -> tensor<512xi32> loc(#loc4)
    %4 = arith.addi %3, %2 : tensor<512xi32> loc(#loc4)
    %5 = tt.splat %arg4 : i32 -> tensor<512xi32> loc(#loc5)
    %6 = arith.cmpi slt, %4, %5 : tensor<512xi32> loc(#loc5)
    %c64_i32 = arith.constant 64 : i32 loc(#loc6)
    %c64_i32_1 = arith.constant 64 : i32 loc(#loc6)
    %cst = arith.constant dense<64> : tensor<512xi32> loc(#loc6)
    %7 = arith.remsi %4, %cst : tensor<512xi32> loc(#loc6)
    %c64_i32_2 = arith.constant 64 : i32 loc(#loc7)
    %c64_i32_3 = arith.constant 64 : i32 loc(#loc7)
    %cst_4 = arith.constant dense<64> : tensor<512xi32> loc(#loc7)
    %8 = arith.divsi %4, %cst_4 : tensor<512xi32> loc(#loc7)
    %c3_i32 = arith.constant 3 : i32 loc(#loc8)
    %c3_i32_5 = arith.constant 3 : i32 loc(#loc8)
    %cst_6 = arith.constant dense<3> : tensor<512xi32> loc(#loc8)
    %9 = arith.remsi %8, %cst_6 : tensor<512xi32> loc(#loc8)
    %c192_i32 = arith.constant 192 : i32 loc(#loc9)
    %c192_i32_7 = arith.constant 192 : i32 loc(#loc9)
    %cst_8 = arith.constant dense<192> : tensor<512xi32> loc(#loc9)
    %10 = arith.divsi %4, %cst_8 : tensor<512xi32> loc(#loc9)
    %c0_i64 = arith.constant 0 : i64 loc(#loc10)
    %cst_9 = arith.constant dense<0> : tensor<1xi64> loc(#loc10)
    %11 = arith.extsi %7 : tensor<512xi32> to tensor<512xi64> loc(#loc11)
    %cst_10 = arith.constant dense<0> : tensor<512xi64> loc(#loc11)
    %12 = arith.cmpi sge, %11, %cst_10 : tensor<512xi64> loc(#loc11)
    %c32_i64 = arith.constant 32 : i64 loc(#loc12)
    %cst_11 = arith.constant dense<32> : tensor<1xi64> loc(#loc12)
    %13 = arith.extsi %7 : tensor<512xi32> to tensor<512xi64> loc(#loc13)
    %cst_12 = arith.constant dense<32> : tensor<512xi64> loc(#loc13)
    %14 = arith.cmpi slt, %13, %cst_12 : tensor<512xi64> loc(#loc13)
    %c64_i32_13 = arith.constant 64 : i32 loc(#loc14)
    %c64_i32_14 = arith.constant 64 : i32 loc(#loc14)
    %cst_15 = arith.constant dense<64> : tensor<512xi32> loc(#loc14)
    %15 = arith.muli %cst_15, %9 : tensor<512xi32> loc(#loc14)
    %c576_i32 = arith.constant 576 : i32 loc(#loc15)
    %c576_i32_16 = arith.constant 576 : i32 loc(#loc15)
    %cst_17 = arith.constant dense<576> : tensor<512xi32> loc(#loc15)
    %16 = arith.addi %cst_17, %15 : tensor<512xi32> loc(#loc15)
    %c960_i32 = arith.constant 960 : i32 loc(#loc16)
    %c960_i32_18 = arith.constant 960 : i32 loc(#loc16)
    %cst_19 = arith.constant dense<960> : tensor<512xi32> loc(#loc16)
    %17 = arith.muli %cst_19, %10 : tensor<512xi32> loc(#loc16)
    %18 = arith.addi %16, %17 : tensor<512xi32> loc(#loc17)
    %19 = arith.addi %18, %7 : tensor<512xi32> loc(#loc18)
    %20 = tt.splat %arg0 : !tt.ptr<f16> -> tensor<512x!tt.ptr<f16>> loc(#loc19)
    %21 = tt.addptr %20, %19 : tensor<512x!tt.ptr<f16>>, tensor<512xi32> loc(#loc19)
    %22 = arith.andi %14, %6 : tensor<512xi1> loc(#loc20)
    %cst_20 = arith.constant 0.000000e+00 : f32 loc(#loc21)
    %cst_21 = arith.constant dense<0.000000e+00> : tensor<512xf32> loc(#loc21)
    %23 = arith.truncf %cst_21 : tensor<512xf32> to tensor<512xf16> loc(#loc21)
    %24 = tt.load %21, %22, %23 evictionPolicy = evict_last : tensor<512x!tt.ptr<f16>> loc(#loc21)
    %25 = arith.extf %24 : tensor<512xf16> to tensor<512xf32> loc(#loc22)
    %26 = tt.splat %arg1 : !tt.ptr<i64> -> tensor<512x!tt.ptr<i64>> loc(#loc23)
    %27 = tt.addptr %26, %10 : tensor<512x!tt.ptr<i64>>, tensor<512xi32> loc(#loc23)
    %28 = arith.andi %14, %6 : tensor<512xi1> loc(#loc24)
    %cst_22 = arith.constant 0.000000e+00 : f32 loc(#loc25)
    %cst_23 = arith.constant dense<0.000000e+00> : tensor<512xf32> loc(#loc25)
    %29 = arith.fptosi %cst_23 : tensor<512xf32> to tensor<512xi64> loc(#loc25)
    %30 = tt.load %27, %28, %29 evictionPolicy = evict_last : tensor<512x!tt.ptr<i64>> loc(#loc25)
    %c8192_i32 = arith.constant 8192 : i32 loc(#loc26)
    %cst_24 = arith.constant dense<8192> : tensor<512xi32> loc(#loc26)
    %31 = arith.extsi %cst_24 : tensor<512xi32> to tensor<512xi64> loc(#loc27)
    %32 = arith.addi %30, %31 : tensor<512xi64> loc(#loc27)
    %c0_i32 = arith.constant 0 : i32 loc(#loc28)
    %33 = arith.extsi %c0_i32 : i32 to i64 loc(#loc28)
    %34 = tt.splat %33 : i64 -> tensor<512xi64> loc(#loc28)
    %35 = arith.cmpi slt, %30, %34 : tensor<512xi64> loc(#loc28)
    %36 = arith.select %35, %32, %30 : tensor<512xi1>, tensor<512xi64> loc(#loc29)
    %c0_i32_25 = arith.constant 0 : i32 loc(#loc30)
    %37 = arith.extsi %c0_i32_25 : i32 to i64 loc(#loc30)
    %38 = tt.splat %37 : i64 -> tensor<512xi64> loc(#loc30)
    %39 = arith.cmpi sle, %38, %36 : tensor<512xi64> loc(#loc30)
    %c8192_i32_26 = arith.constant 8192 : i32 loc(#loc31)
    %40 = arith.extsi %c8192_i32_26 : i32 to i64 loc(#loc31)
    %41 = tt.splat %40 : i64 -> tensor<512xi64> loc(#loc31)
    %42 = arith.cmpi slt, %36, %41 : tensor<512xi64> loc(#loc31)
    %43 = arith.andi %39, %42 : tensor<512xi1> loc(#loc32)
    %44 = arith.andi %14, %6 : tensor<512xi1> loc(#loc33)
    %true = arith.constant true loc(#loc34)
    %cst_27 = arith.constant dense<true> : tensor<512xi1> loc(#loc34)
    %45 = arith.xori %44, %cst_27 : tensor<512xi1> loc(#loc34)
    %46 = arith.ori %43, %45 : tensor<512xi1> loc(#loc35)
    tt.assert %46, "index out of bounds: 0 <= tl.broadcast_to(tmp10, [XBLOCK]) < 8192" : tensor<512xi1> loc(#loc36)
    %c64_i32_28 = arith.constant 64 : i32 loc(#loc37)
    %c64_i64 = arith.constant 64 : i64 loc(#loc37)
    %cst_29 = arith.constant dense<64> : tensor<512xi64> loc(#loc37)
    %47 = arith.muli %cst_29, %36 : tensor<512xi64> loc(#loc37)
    %48 = arith.extsi %7 : tensor<512xi32> to tensor<512xi64> loc(#loc38)
    %49 = arith.addi %47, %48 : tensor<512xi64> loc(#loc38)
    %50 = tt.splat %arg2 : !tt.ptr<f16> -> tensor<512x!tt.ptr<f16>> loc(#loc39)
    %51 = tt.addptr %50, %49 : tensor<512x!tt.ptr<f16>>, tensor<512xi64> loc(#loc39)
    %52 = arith.andi %14, %6 : tensor<512xi1> loc(#loc40)
    %cst_30 = arith.constant 0.000000e+00 : f32 loc(#loc41)
    %cst_31 = arith.constant dense<0.000000e+00> : tensor<512xf32> loc(#loc41)
    %53 = arith.truncf %cst_31 : tensor<512xf32> to tensor<512xf16> loc(#loc41)
    %54 = tt.load %51, %52, %53 evictionPolicy = evict_last : tensor<512x!tt.ptr<f16>> loc(#loc41)
    %55 = arith.extf %54 : tensor<512xf16> to tensor<512xf32> loc(#loc42)
    %56 = arith.mulf %25, %55 : tensor<512xf32> loc(#loc43)
    %c64_i32_32 = arith.constant 64 : i32 loc(#loc44)
    %c64_i32_33 = arith.constant 64 : i32 loc(#loc44)
    %cst_34 = arith.constant dense<64> : tensor<512xi32> loc(#loc44)
    %57 = arith.muli %cst_34, %9 : tensor<512xi32> loc(#loc44)
    %c608_i32 = arith.constant 608 : i32 loc(#loc45)
    %c608_i32_35 = arith.constant 608 : i32 loc(#loc45)
    %cst_36 = arith.constant dense<608> : tensor<512xi32> loc(#loc45)
    %58 = arith.addi %cst_36, %57 : tensor<512xi32> loc(#loc45)
    %c960_i32_37 = arith.constant 960 : i32 loc(#loc46)
    %c960_i32_38 = arith.constant 960 : i32 loc(#loc46)
    %cst_39 = arith.constant dense<960> : tensor<512xi32> loc(#loc46)
    %59 = arith.muli %cst_39, %10 : tensor<512xi32> loc(#loc46)
    %60 = arith.addi %58, %59 : tensor<512xi32> loc(#loc47)
    %61 = arith.addi %60, %7 : tensor<512xi32> loc(#loc48)
    %62 = tt.splat %arg0 : !tt.ptr<f16> -> tensor<512x!tt.ptr<f16>> loc(#loc49)
    %63 = tt.addptr %62, %61 : tensor<512x!tt.ptr<f16>>, tensor<512xi32> loc(#loc49)
    %64 = arith.andi %14, %6 : tensor<512xi1> loc(#loc50)
    %cst_40 = arith.constant 0.000000e+00 : f32 loc(#loc51)
    %cst_41 = arith.constant dense<0.000000e+00> : tensor<512xf32> loc(#loc51)
    %65 = arith.truncf %cst_41 : tensor<512xf32> to tensor<512xf16> loc(#loc51)
    %66 = tt.load %63, %64, %65 evictionPolicy = evict_last : tensor<512x!tt.ptr<f16>> loc(#loc51)
    %67 = arith.extf %66 : tensor<512xf16> to tensor<512xf32> loc(#loc52)
    %c64_i32_42 = arith.constant 64 : i32 loc(#loc53)
    %c64_i64_43 = arith.constant 64 : i64 loc(#loc53)
    %cst_44 = arith.constant dense<64> : tensor<512xi64> loc(#loc53)
    %68 = arith.muli %cst_44, %36 : tensor<512xi64> loc(#loc53)
    %c32_i32 = arith.constant 32 : i32 loc(#loc54)
    %c32_i64_45 = arith.constant 32 : i64 loc(#loc54)
    %cst_46 = arith.constant dense<32> : tensor<512xi64> loc(#loc54)
    %69 = arith.addi %cst_46, %68 : tensor<512xi64> loc(#loc54)
    %70 = arith.extsi %7 : tensor<512xi32> to tensor<512xi64> loc(#loc55)
    %71 = arith.addi %69, %70 : tensor<512xi64> loc(#loc55)
    %72 = tt.splat %arg2 : !tt.ptr<f16> -> tensor<512x!tt.ptr<f16>> loc(#loc56)
    %73 = tt.addptr %72, %71 : tensor<512x!tt.ptr<f16>>, tensor<512xi64> loc(#loc56)
    %74 = arith.andi %14, %6 : tensor<512xi1> loc(#loc57)
    %cst_47 = arith.constant 0.000000e+00 : f32 loc(#loc58)
    %cst_48 = arith.constant dense<0.000000e+00> : tensor<512xf32> loc(#loc58)
    %75 = arith.truncf %cst_48 : tensor<512xf32> to tensor<512xf16> loc(#loc58)
    %76 = tt.load %73, %74, %75 evictionPolicy = evict_last : tensor<512x!tt.ptr<f16>> loc(#loc58)
    %77 = arith.extf %76 : tensor<512xf16> to tensor<512xf32> loc(#loc59)
    %78 = arith.mulf %67, %77 : tensor<512xf32> loc(#loc60)
    %79 = arith.subf %56, %78 : tensor<512xf32> loc(#loc61)
    %cst_49 = arith.constant 0.000000e+00 : f32 loc(#loc62)
    %cst_50 = arith.constant dense<0.000000e+00> : tensor<512xf32> loc(#loc62)
    %80 = arith.select %14, %79, %cst_50 : tensor<512xi1>, tensor<512xf32> loc(#loc63)
    %81 = arith.extsi %7 : tensor<512xi32> to tensor<512xi64> loc(#loc64)
    %cst_51 = arith.constant dense<32> : tensor<512xi64> loc(#loc64)
    %82 = arith.cmpi sge, %81, %cst_51 : tensor<512xi64> loc(#loc64)
    %c64_i64_52 = arith.constant 64 : i64 loc(#loc65)
    %cst_53 = arith.constant dense<64> : tensor<1xi64> loc(#loc65)
    %83 = arith.extsi %7 : tensor<512xi32> to tensor<512xi64> loc(#loc66)
    %cst_54 = arith.constant dense<64> : tensor<512xi64> loc(#loc66)
    %84 = arith.cmpi slt, %83, %cst_54 : tensor<512xi64> loc(#loc66)
    %c64_i32_55 = arith.constant 64 : i32 loc(#loc67)
    %c64_i32_56 = arith.constant 64 : i32 loc(#loc67)
    %cst_57 = arith.constant dense<64> : tensor<512xi32> loc(#loc67)
    %85 = arith.muli %cst_57, %9 : tensor<512xi32> loc(#loc67)
    %c608_i32_58 = arith.constant 608 : i32 loc(#loc68)
    %c608_i32_59 = arith.constant 608 : i32 loc(#loc68)
    %cst_60 = arith.constant dense<608> : tensor<512xi32> loc(#loc68)
    %86 = arith.addi %cst_60, %85 : tensor<512xi32> loc(#loc68)
    %c960_i32_61 = arith.constant 960 : i32 loc(#loc69)
    %c960_i32_62 = arith.constant 960 : i32 loc(#loc69)
    %cst_63 = arith.constant dense<960> : tensor<512xi32> loc(#loc69)
    %87 = arith.muli %cst_63, %10 : tensor<512xi32> loc(#loc69)
    %88 = arith.addi %86, %87 : tensor<512xi32> loc(#loc70)
    %c-32_i32 = arith.constant -32 : i32 loc(#loc71)
    %c-32_i32_64 = arith.constant -32 : i32 loc(#loc71)
    %cst_65 = arith.constant dense<-32> : tensor<512xi32> loc(#loc71)
    %89 = arith.addi %cst_65, %7 : tensor<512xi32> loc(#loc71)
    %90 = arith.addi %88, %89 : tensor<512xi32> loc(#loc72)
    %91 = tt.splat %arg0 : !tt.ptr<f16> -> tensor<512x!tt.ptr<f16>> loc(#loc73)
    %92 = tt.addptr %91, %90 : tensor<512x!tt.ptr<f16>>, tensor<512xi32> loc(#loc73)
    %93 = arith.andi %82, %6 : tensor<512xi1> loc(#loc74)
    %cst_66 = arith.constant 0.000000e+00 : f32 loc(#loc75)
    %cst_67 = arith.constant dense<0.000000e+00> : tensor<512xf32> loc(#loc75)
    %94 = arith.truncf %cst_67 : tensor<512xf32> to tensor<512xf16> loc(#loc75)
    %95 = tt.load %92, %93, %94 evictionPolicy = evict_last : tensor<512x!tt.ptr<f16>> loc(#loc75)
    %96 = arith.extf %95 : tensor<512xf16> to tensor<512xf32> loc(#loc76)
    %97 = tt.splat %arg1 : !tt.ptr<i64> -> tensor<512x!tt.ptr<i64>> loc(#loc77)
    %98 = tt.addptr %97, %10 : tensor<512x!tt.ptr<i64>>, tensor<512xi32> loc(#loc77)
    %99 = arith.andi %82, %6 : tensor<512xi1> loc(#loc78)
    %cst_68 = arith.constant 0.000000e+00 : f32 loc(#loc79)
    %cst_69 = arith.constant dense<0.000000e+00> : tensor<512xf32> loc(#loc79)
    %100 = arith.fptosi %cst_69 : tensor<512xf32> to tensor<512xi64> loc(#loc79)
    %101 = tt.load %98, %99, %100 evictionPolicy = evict_last : tensor<512x!tt.ptr<i64>> loc(#loc79)
    %c8192_i32_70 = arith.constant 8192 : i32 loc(#loc80)
    %cst_71 = arith.constant dense<8192> : tensor<512xi32> loc(#loc80)
    %102 = arith.extsi %cst_71 : tensor<512xi32> to tensor<512xi64> loc(#loc81)
    %103 = arith.addi %101, %102 : tensor<512xi64> loc(#loc81)
    %c0_i32_72 = arith.constant 0 : i32 loc(#loc82)
    %104 = arith.extsi %c0_i32_72 : i32 to i64 loc(#loc82)
    %105 = tt.splat %104 : i64 -> tensor<512xi64> loc(#loc82)
    %106 = arith.cmpi slt, %101, %105 : tensor<512xi64> loc(#loc82)
    %107 = arith.select %106, %103, %101 : tensor<512xi1>, tensor<512xi64> loc(#loc83)
    %c0_i32_73 = arith.constant 0 : i32 loc(#loc84)
    %108 = arith.extsi %c0_i32_73 : i32 to i64 loc(#loc84)
    %109 = tt.splat %108 : i64 -> tensor<512xi64> loc(#loc84)
    %110 = arith.cmpi sle, %109, %107 : tensor<512xi64> loc(#loc84)
    %c8192_i32_74 = arith.constant 8192 : i32 loc(#loc85)
    %111 = arith.extsi %c8192_i32_74 : i32 to i64 loc(#loc85)
    %112 = tt.splat %111 : i64 -> tensor<512xi64> loc(#loc85)
    %113 = arith.cmpi slt, %107, %112 : tensor<512xi64> loc(#loc85)
    %114 = arith.andi %110, %113 : tensor<512xi1> loc(#loc86)
    %115 = arith.andi %82, %6 : tensor<512xi1> loc(#loc87)
    %true_75 = arith.constant true loc(#loc88)
    %cst_76 = arith.constant dense<true> : tensor<512xi1> loc(#loc88)
    %116 = arith.xori %115, %cst_76 : tensor<512xi1> loc(#loc88)
    %117 = arith.ori %114, %116 : tensor<512xi1> loc(#loc89)
    tt.assert %117, "index out of bounds: 0 <= tl.broadcast_to(tmp28, [XBLOCK]) < 8192" : tensor<512xi1> loc(#loc90)
    %c64_i32_77 = arith.constant 64 : i32 loc(#loc91)
    %c64_i64_78 = arith.constant 64 : i64 loc(#loc91)
    %cst_79 = arith.constant dense<64> : tensor<512xi64> loc(#loc91)
    %118 = arith.muli %cst_79, %107 : tensor<512xi64> loc(#loc91)
    %c-32_i32_80 = arith.constant -32 : i32 loc(#loc92)
    %c-32_i32_81 = arith.constant -32 : i32 loc(#loc92)
    %cst_82 = arith.constant dense<-32> : tensor<512xi32> loc(#loc92)
    %119 = arith.addi %cst_82, %7 : tensor<512xi32> loc(#loc92)
    %120 = arith.extsi %119 : tensor<512xi32> to tensor<512xi64> loc(#loc93)
    %121 = arith.addi %118, %120 : tensor<512xi64> loc(#loc93)
    %122 = tt.splat %arg2 : !tt.ptr<f16> -> tensor<512x!tt.ptr<f16>> loc(#loc94)
    %123 = tt.addptr %122, %121 : tensor<512x!tt.ptr<f16>>, tensor<512xi64> loc(#loc94)
    %124 = arith.andi %82, %6 : tensor<512xi1> loc(#loc95)
    %cst_83 = arith.constant 0.000000e+00 : f32 loc(#loc96)
    %cst_84 = arith.constant dense<0.000000e+00> : tensor<512xf32> loc(#loc96)
    %125 = arith.truncf %cst_84 : tensor<512xf32> to tensor<512xf16> loc(#loc96)
    %126 = tt.load %123, %124, %125 evictionPolicy = evict_last : tensor<512x!tt.ptr<f16>> loc(#loc96)
    %127 = arith.extf %126 : tensor<512xf16> to tensor<512xf32> loc(#loc97)
    %128 = arith.mulf %96, %127 : tensor<512xf32> loc(#loc98)
    %c64_i32_85 = arith.constant 64 : i32 loc(#loc99)
    %c64_i32_86 = arith.constant 64 : i32 loc(#loc99)
    %cst_87 = arith.constant dense<64> : tensor<512xi32> loc(#loc99)
    %129 = arith.muli %cst_87, %9 : tensor<512xi32> loc(#loc99)
    %c576_i32_88 = arith.constant 576 : i32 loc(#loc100)
    %c576_i32_89 = arith.constant 576 : i32 loc(#loc100)
    %cst_90 = arith.constant dense<576> : tensor<512xi32> loc(#loc100)
    %130 = arith.addi %cst_90, %129 : tensor<512xi32> loc(#loc100)
    %c960_i32_91 = arith.constant 960 : i32 loc(#loc101)
    %c960_i32_92 = arith.constant 960 : i32 loc(#loc101)
    %cst_93 = arith.constant dense<960> : tensor<512xi32> loc(#loc101)
    %131 = arith.muli %cst_93, %10 : tensor<512xi32> loc(#loc101)
    %132 = arith.addi %130, %131 : tensor<512xi32> loc(#loc102)
    %c-32_i32_94 = arith.constant -32 : i32 loc(#loc103)
    %c-32_i32_95 = arith.constant -32 : i32 loc(#loc103)
    %cst_96 = arith.constant dense<-32> : tensor<512xi32> loc(#loc103)
    %133 = arith.addi %cst_96, %7 : tensor<512xi32> loc(#loc103)
    %134 = arith.addi %132, %133 : tensor<512xi32> loc(#loc104)
    %135 = tt.splat %arg0 : !tt.ptr<f16> -> tensor<512x!tt.ptr<f16>> loc(#loc105)
    %136 = tt.addptr %135, %134 : tensor<512x!tt.ptr<f16>>, tensor<512xi32> loc(#loc105)
    %137 = arith.andi %82, %6 : tensor<512xi1> loc(#loc106)
    %cst_97 = arith.constant 0.000000e+00 : f32 loc(#loc107)
    %cst_98 = arith.constant dense<0.000000e+00> : tensor<512xf32> loc(#loc107)
    %138 = arith.truncf %cst_98 : tensor<512xf32> to tensor<512xf16> loc(#loc107)
    %139 = tt.load %136, %137, %138 evictionPolicy = evict_last : tensor<512x!tt.ptr<f16>> loc(#loc107)
    %140 = arith.extf %139 : tensor<512xf16> to tensor<512xf32> loc(#loc108)
    %c64_i32_99 = arith.constant 64 : i32 loc(#loc109)
    %c64_i64_100 = arith.constant 64 : i64 loc(#loc109)
    %cst_101 = arith.constant dense<64> : tensor<512xi64> loc(#loc109)
    %141 = arith.muli %cst_101, %107 : tensor<512xi64> loc(#loc109)
    %c32_i32_102 = arith.constant 32 : i32 loc(#loc110)
    %c32_i64_103 = arith.constant 32 : i64 loc(#loc110)
    %cst_104 = arith.constant dense<32> : tensor<512xi64> loc(#loc110)
    %142 = arith.addi %cst_104, %141 : tensor<512xi64> loc(#loc110)
    %c-32_i32_105 = arith.constant -32 : i32 loc(#loc111)
    %c-32_i32_106 = arith.constant -32 : i32 loc(#loc111)
    %cst_107 = arith.constant dense<-32> : tensor<512xi32> loc(#loc111)
    %143 = arith.addi %cst_107, %7 : tensor<512xi32> loc(#loc111)
    %144 = arith.extsi %143 : tensor<512xi32> to tensor<512xi64> loc(#loc112)
    %145 = arith.addi %142, %144 : tensor<512xi64> loc(#loc112)
    %146 = tt.splat %arg2 : !tt.ptr<f16> -> tensor<512x!tt.ptr<f16>> loc(#loc113)
    %147 = tt.addptr %146, %145 : tensor<512x!tt.ptr<f16>>, tensor<512xi64> loc(#loc113)
    %148 = arith.andi %82, %6 : tensor<512xi1> loc(#loc114)
    %cst_108 = arith.constant 0.000000e+00 : f32 loc(#loc115)
    %cst_109 = arith.constant dense<0.000000e+00> : tensor<512xf32> loc(#loc115)
    %149 = arith.truncf %cst_109 : tensor<512xf32> to tensor<512xf16> loc(#loc115)
    %150 = tt.load %147, %148, %149 evictionPolicy = evict_last : tensor<512x!tt.ptr<f16>> loc(#loc115)
    %151 = arith.extf %150 : tensor<512xf16> to tensor<512xf32> loc(#loc116)
    %152 = arith.mulf %140, %151 : tensor<512xf32> loc(#loc117)
    %153 = arith.addf %128, %152 : tensor<512xf32> loc(#loc118)
    %cst_110 = arith.constant 0.000000e+00 : f32 loc(#loc119)
    %cst_111 = arith.constant dense<0.000000e+00> : tensor<512xf32> loc(#loc119)
    %154 = arith.select %82, %153, %cst_111 : tensor<512xi1>, tensor<512xf32> loc(#loc120)
    %155 = arith.select %14, %80, %154 : tensor<512xi1>, tensor<512xf32> loc(#loc121)
    %156 = tt.splat %arg3 : !tt.ptr<f16> -> tensor<512x!tt.ptr<f16>> loc(#loc122)
    %157 = tt.addptr %156, %4 : tensor<512x!tt.ptr<f16>>, tensor<512xi32> loc(#loc122)
    %158 = arith.truncf %155 : tensor<512xf32> to tensor<512xf16> loc(#loc123)
    tt.store %157, %158, %6 : tensor<512x!tt.ptr<f16>> loc(#loc123)
    tt.return loc(#loc124)
  } loc(#loc)
} loc(#loc)
#loc1 = loc("/tmp/torchinductor_yxiao986/2x/c2xggrpxdpf55aajlcbiqhanjlzau7ilqyuv7v6pjfriz7htp5vs.py":19:28)
#loc2 = loc("/tmp/torchinductor_yxiao986/2x/c2xggrpxdpf55aajlcbiqhanjlzau7ilqyuv7v6pjfriz7htp5vs.py":19:33)
#loc3 = loc("/tmp/torchinductor_yxiao986/2x/c2xggrpxdpf55aajlcbiqhanjlzau7ilqyuv7v6pjfriz7htp5vs.py":20:36)
#loc4 = loc("/tmp/torchinductor_yxiao986/2x/c2xggrpxdpf55aajlcbiqhanjlzau7ilqyuv7v6pjfriz7htp5vs.py":20:23)
#loc5 = loc("/tmp/torchinductor_yxiao986/2x/c2xggrpxdpf55aajlcbiqhanjlzau7ilqyuv7v6pjfriz7htp5vs.py":21:21)
#loc6 = loc("/tmp/torchinductor_yxiao986/2x/c2xggrpxdpf55aajlcbiqhanjlzau7ilqyuv7v6pjfriz7htp5vs.py":22:19)
#loc7 = loc("/tmp/torchinductor_yxiao986/2x/c2xggrpxdpf55aajlcbiqhanjlzau7ilqyuv7v6pjfriz7htp5vs.py":23:21)
#loc8 = loc("/tmp/torchinductor_yxiao986/2x/c2xggrpxdpf55aajlcbiqhanjlzau7ilqyuv7v6pjfriz7htp5vs.py":23:27)
#loc9 = loc("/tmp/torchinductor_yxiao986/2x/c2xggrpxdpf55aajlcbiqhanjlzau7ilqyuv7v6pjfriz7htp5vs.py":24:19)
#loc10 = loc("/tmp/torchinductor_yxiao986/2x/c2xggrpxdpf55aajlcbiqhanjlzau7ilqyuv7v6pjfriz7htp5vs.py":27:27)
#loc11 = loc("/tmp/torchinductor_yxiao986/2x/c2xggrpxdpf55aajlcbiqhanjlzau7ilqyuv7v6pjfriz7htp5vs.py":28:19)
#loc12 = loc("/tmp/torchinductor_yxiao986/2x/c2xggrpxdpf55aajlcbiqhanjlzau7ilqyuv7v6pjfriz7htp5vs.py":29:28)
#loc13 = loc("/tmp/torchinductor_yxiao986/2x/c2xggrpxdpf55aajlcbiqhanjlzau7ilqyuv7v6pjfriz7htp5vs.py":30:18)
#loc14 = loc("/tmp/torchinductor_yxiao986/2x/c2xggrpxdpf55aajlcbiqhanjlzau7ilqyuv7v6pjfriz7htp5vs.py":31:39)
#loc15 = loc("/tmp/torchinductor_yxiao986/2x/c2xggrpxdpf55aajlcbiqhanjlzau7ilqyuv7v6pjfriz7htp5vs.py":31:36)
#loc16 = loc("/tmp/torchinductor_yxiao986/2x/c2xggrpxdpf55aajlcbiqhanjlzau7ilqyuv7v6pjfriz7htp5vs.py":31:48)
#loc17 = loc("/tmp/torchinductor_yxiao986/2x/c2xggrpxdpf55aajlcbiqhanjlzau7ilqyuv7v6pjfriz7htp5vs.py":31:44)
#loc18 = loc("/tmp/torchinductor_yxiao986/2x/c2xggrpxdpf55aajlcbiqhanjlzau7ilqyuv7v6pjfriz7htp5vs.py":31:54)
#loc19 = loc("/tmp/torchinductor_yxiao986/2x/c2xggrpxdpf55aajlcbiqhanjlzau7ilqyuv7v6pjfriz7htp5vs.py":31:30)
#loc20 = loc("/tmp/torchinductor_yxiao986/2x/c2xggrpxdpf55aajlcbiqhanjlzau7ilqyuv7v6pjfriz7htp5vs.py":31:67)
#loc21 = loc("/tmp/torchinductor_yxiao986/2x/c2xggrpxdpf55aajlcbiqhanjlzau7ilqyuv7v6pjfriz7htp5vs.py":31:60)
#loc22 = loc("/tmp/torchinductor_yxiao986/2x/c2xggrpxdpf55aajlcbiqhanjlzau7ilqyuv7v6pjfriz7htp5vs.py":31:118)
#loc23 = loc("/tmp/torchinductor_yxiao986/2x/c2xggrpxdpf55aajlcbiqhanjlzau7ilqyuv7v6pjfriz7htp5vs.py":32:30)
#loc24 = loc("/tmp/torchinductor_yxiao986/2x/c2xggrpxdpf55aajlcbiqhanjlzau7ilqyuv7v6pjfriz7htp5vs.py":32:42)
#loc25 = loc("/tmp/torchinductor_yxiao986/2x/c2xggrpxdpf55aajlcbiqhanjlzau7ilqyuv7v6pjfriz7htp5vs.py":32:35)
#loc26 = loc("/tmp/torchinductor_yxiao986/2x/c2xggrpxdpf55aajlcbiqhanjlzau7ilqyuv7v6pjfriz7htp5vs.py":33:35)
#loc27 = loc("/tmp/torchinductor_yxiao986/2x/c2xggrpxdpf55aajlcbiqhanjlzau7ilqyuv7v6pjfriz7htp5vs.py":34:18)
#loc28 = loc("/tmp/torchinductor_yxiao986/2x/c2xggrpxdpf55aajlcbiqhanjlzau7ilqyuv7v6pjfriz7htp5vs.py":35:18)
#loc29 = loc("/tmp/torchinductor_yxiao986/2x/c2xggrpxdpf55aajlcbiqhanjlzau7ilqyuv7v6pjfriz7htp5vs.py":36:33)
#loc30 = loc("/tmp/torchinductor_yxiao986/2x/c2xggrpxdpf55aajlcbiqhanjlzau7ilqyuv7v6pjfriz7htp5vs.py":37:28)
#loc31 = loc("/tmp/torchinductor_yxiao986/2x/c2xggrpxdpf55aajlcbiqhanjlzau7ilqyuv7v6pjfriz7htp5vs.py":37:100)
#loc32 = loc("/tmp/torchinductor_yxiao986/2x/c2xggrpxdpf55aajlcbiqhanjlzau7ilqyuv7v6pjfriz7htp5vs.py":37:65)
#loc33 = loc("/tmp/torchinductor_yxiao986/2x/c2xggrpxdpf55aajlcbiqhanjlzau7ilqyuv7v6pjfriz7htp5vs.py":37:118)
#loc34 = loc("/tmp/torchinductor_yxiao986/2x/c2xggrpxdpf55aajlcbiqhanjlzau7ilqyuv7v6pjfriz7htp5vs.py":37:111)
#loc35 = loc("/tmp/torchinductor_yxiao986/2x/c2xggrpxdpf55aajlcbiqhanjlzau7ilqyuv7v6pjfriz7htp5vs.py":37:109)
#loc36 = loc("/tmp/torchinductor_yxiao986/2x/c2xggrpxdpf55aajlcbiqhanjlzau7ilqyuv7v6pjfriz7htp5vs.py":37:126)
#loc37 = loc("/tmp/torchinductor_yxiao986/2x/c2xggrpxdpf55aajlcbiqhanjlzau7ilqyuv7v6pjfriz7htp5vs.py":38:34)
#loc38 = loc("/tmp/torchinductor_yxiao986/2x/c2xggrpxdpf55aajlcbiqhanjlzau7ilqyuv7v6pjfriz7htp5vs.py":38:43)
#loc39 = loc("/tmp/torchinductor_yxiao986/2x/c2xggrpxdpf55aajlcbiqhanjlzau7ilqyuv7v6pjfriz7htp5vs.py":38:31)
#loc40 = loc("/tmp/torchinductor_yxiao986/2x/c2xggrpxdpf55aajlcbiqhanjlzau7ilqyuv7v6pjfriz7htp5vs.py":38:56)
#loc41 = loc("/tmp/torchinductor_yxiao986/2x/c2xggrpxdpf55aajlcbiqhanjlzau7ilqyuv7v6pjfriz7htp5vs.py":38:49)
#loc42 = loc("/tmp/torchinductor_yxiao986/2x/c2xggrpxdpf55aajlcbiqhanjlzau7ilqyuv7v6pjfriz7htp5vs.py":38:107)
#loc43 = loc("/tmp/torchinductor_yxiao986/2x/c2xggrpxdpf55aajlcbiqhanjlzau7ilqyuv7v6pjfriz7htp5vs.py":39:19)
#loc44 = loc("/tmp/torchinductor_yxiao986/2x/c2xggrpxdpf55aajlcbiqhanjlzau7ilqyuv7v6pjfriz7htp5vs.py":40:40)
#loc45 = loc("/tmp/torchinductor_yxiao986/2x/c2xggrpxdpf55aajlcbiqhanjlzau7ilqyuv7v6pjfriz7htp5vs.py":40:37)
#loc46 = loc("/tmp/torchinductor_yxiao986/2x/c2xggrpxdpf55aajlcbiqhanjlzau7ilqyuv7v6pjfriz7htp5vs.py":40:49)
#loc47 = loc("/tmp/torchinductor_yxiao986/2x/c2xggrpxdpf55aajlcbiqhanjlzau7ilqyuv7v6pjfriz7htp5vs.py":40:45)
#loc48 = loc("/tmp/torchinductor_yxiao986/2x/c2xggrpxdpf55aajlcbiqhanjlzau7ilqyuv7v6pjfriz7htp5vs.py":40:55)
#loc49 = loc("/tmp/torchinductor_yxiao986/2x/c2xggrpxdpf55aajlcbiqhanjlzau7ilqyuv7v6pjfriz7htp5vs.py":40:31)
#loc50 = loc("/tmp/torchinductor_yxiao986/2x/c2xggrpxdpf55aajlcbiqhanjlzau7ilqyuv7v6pjfriz7htp5vs.py":40:68)
#loc51 = loc("/tmp/torchinductor_yxiao986/2x/c2xggrpxdpf55aajlcbiqhanjlzau7ilqyuv7v6pjfriz7htp5vs.py":40:61)
#loc52 = loc("/tmp/torchinductor_yxiao986/2x/c2xggrpxdpf55aajlcbiqhanjlzau7ilqyuv7v6pjfriz7htp5vs.py":40:119)
#loc53 = loc("/tmp/torchinductor_yxiao986/2x/c2xggrpxdpf55aajlcbiqhanjlzau7ilqyuv7v6pjfriz7htp5vs.py":41:39)
#loc54 = loc("/tmp/torchinductor_yxiao986/2x/c2xggrpxdpf55aajlcbiqhanjlzau7ilqyuv7v6pjfriz7htp5vs.py":41:36)
#loc55 = loc("/tmp/torchinductor_yxiao986/2x/c2xggrpxdpf55aajlcbiqhanjlzau7ilqyuv7v6pjfriz7htp5vs.py":41:48)
#loc56 = loc("/tmp/torchinductor_yxiao986/2x/c2xggrpxdpf55aajlcbiqhanjlzau7ilqyuv7v6pjfriz7htp5vs.py":41:31)
#loc57 = loc("/tmp/torchinductor_yxiao986/2x/c2xggrpxdpf55aajlcbiqhanjlzau7ilqyuv7v6pjfriz7htp5vs.py":41:61)
#loc58 = loc("/tmp/torchinductor_yxiao986/2x/c2xggrpxdpf55aajlcbiqhanjlzau7ilqyuv7v6pjfriz7htp5vs.py":41:54)
#loc59 = loc("/tmp/torchinductor_yxiao986/2x/c2xggrpxdpf55aajlcbiqhanjlzau7ilqyuv7v6pjfriz7htp5vs.py":41:112)
#loc60 = loc("/tmp/torchinductor_yxiao986/2x/c2xggrpxdpf55aajlcbiqhanjlzau7ilqyuv7v6pjfriz7htp5vs.py":42:20)
#loc61 = loc("/tmp/torchinductor_yxiao986/2x/c2xggrpxdpf55aajlcbiqhanjlzau7ilqyuv7v6pjfriz7htp5vs.py":43:20)
#loc62 = loc("/tmp/torchinductor_yxiao986/2x/c2xggrpxdpf55aajlcbiqhanjlzau7ilqyuv7v6pjfriz7htp5vs.py":44:38)
#loc63 = loc("/tmp/torchinductor_yxiao986/2x/c2xggrpxdpf55aajlcbiqhanjlzau7ilqyuv7v6pjfriz7htp5vs.py":45:34)
#loc64 = loc("/tmp/torchinductor_yxiao986/2x/c2xggrpxdpf55aajlcbiqhanjlzau7ilqyuv7v6pjfriz7htp5vs.py":46:20)
#loc65 = loc("/tmp/torchinductor_yxiao986/2x/c2xggrpxdpf55aajlcbiqhanjlzau7ilqyuv7v6pjfriz7htp5vs.py":47:29)
#loc66 = loc("/tmp/torchinductor_yxiao986/2x/c2xggrpxdpf55aajlcbiqhanjlzau7ilqyuv7v6pjfriz7htp5vs.py":48:19)
#loc67 = loc("/tmp/torchinductor_yxiao986/2x/c2xggrpxdpf55aajlcbiqhanjlzau7ilqyuv7v6pjfriz7htp5vs.py":49:40)
#loc68 = loc("/tmp/torchinductor_yxiao986/2x/c2xggrpxdpf55aajlcbiqhanjlzau7ilqyuv7v6pjfriz7htp5vs.py":49:37)
#loc69 = loc("/tmp/torchinductor_yxiao986/2x/c2xggrpxdpf55aajlcbiqhanjlzau7ilqyuv7v6pjfriz7htp5vs.py":49:49)
#loc70 = loc("/tmp/torchinductor_yxiao986/2x/c2xggrpxdpf55aajlcbiqhanjlzau7ilqyuv7v6pjfriz7htp5vs.py":49:45)
#loc71 = loc("/tmp/torchinductor_yxiao986/2x/c2xggrpxdpf55aajlcbiqhanjlzau7ilqyuv7v6pjfriz7htp5vs.py":49:63)
#loc72 = loc("/tmp/torchinductor_yxiao986/2x/c2xggrpxdpf55aajlcbiqhanjlzau7ilqyuv7v6pjfriz7htp5vs.py":49:55)
#loc73 = loc("/tmp/torchinductor_yxiao986/2x/c2xggrpxdpf55aajlcbiqhanjlzau7ilqyuv7v6pjfriz7htp5vs.py":49:31)
#loc74 = loc("/tmp/torchinductor_yxiao986/2x/c2xggrpxdpf55aajlcbiqhanjlzau7ilqyuv7v6pjfriz7htp5vs.py":49:77)
#loc75 = loc("/tmp/torchinductor_yxiao986/2x/c2xggrpxdpf55aajlcbiqhanjlzau7ilqyuv7v6pjfriz7htp5vs.py":49:69)
#loc76 = loc("/tmp/torchinductor_yxiao986/2x/c2xggrpxdpf55aajlcbiqhanjlzau7ilqyuv7v6pjfriz7htp5vs.py":49:128)
#loc77 = loc("/tmp/torchinductor_yxiao986/2x/c2xggrpxdpf55aajlcbiqhanjlzau7ilqyuv7v6pjfriz7htp5vs.py":50:31)
#loc78 = loc("/tmp/torchinductor_yxiao986/2x/c2xggrpxdpf55aajlcbiqhanjlzau7ilqyuv7v6pjfriz7htp5vs.py":50:44)
#loc79 = loc("/tmp/torchinductor_yxiao986/2x/c2xggrpxdpf55aajlcbiqhanjlzau7ilqyuv7v6pjfriz7htp5vs.py":50:36)
#loc80 = loc("/tmp/torchinductor_yxiao986/2x/c2xggrpxdpf55aajlcbiqhanjlzau7ilqyuv7v6pjfriz7htp5vs.py":51:36)
#loc81 = loc("/tmp/torchinductor_yxiao986/2x/c2xggrpxdpf55aajlcbiqhanjlzau7ilqyuv7v6pjfriz7htp5vs.py":52:20)
#loc82 = loc("/tmp/torchinductor_yxiao986/2x/c2xggrpxdpf55aajlcbiqhanjlzau7ilqyuv7v6pjfriz7htp5vs.py":53:20)
#loc83 = loc("/tmp/torchinductor_yxiao986/2x/c2xggrpxdpf55aajlcbiqhanjlzau7ilqyuv7v6pjfriz7htp5vs.py":54:35)
#loc84 = loc("/tmp/torchinductor_yxiao986/2x/c2xggrpxdpf55aajlcbiqhanjlzau7ilqyuv7v6pjfriz7htp5vs.py":55:28)
#loc85 = loc("/tmp/torchinductor_yxiao986/2x/c2xggrpxdpf55aajlcbiqhanjlzau7ilqyuv7v6pjfriz7htp5vs.py":55:100)
#loc86 = loc("/tmp/torchinductor_yxiao986/2x/c2xggrpxdpf55aajlcbiqhanjlzau7ilqyuv7v6pjfriz7htp5vs.py":55:65)
#loc87 = loc("/tmp/torchinductor_yxiao986/2x/c2xggrpxdpf55aajlcbiqhanjlzau7ilqyuv7v6pjfriz7htp5vs.py":55:119)
#loc88 = loc("/tmp/torchinductor_yxiao986/2x/c2xggrpxdpf55aajlcbiqhanjlzau7ilqyuv7v6pjfriz7htp5vs.py":55:111)
#loc89 = loc("/tmp/torchinductor_yxiao986/2x/c2xggrpxdpf55aajlcbiqhanjlzau7ilqyuv7v6pjfriz7htp5vs.py":55:109)
#loc90 = loc("/tmp/torchinductor_yxiao986/2x/c2xggrpxdpf55aajlcbiqhanjlzau7ilqyuv7v6pjfriz7htp5vs.py":55:127)
#loc91 = loc("/tmp/torchinductor_yxiao986/2x/c2xggrpxdpf55aajlcbiqhanjlzau7ilqyuv7v6pjfriz7htp5vs.py":56:34)
#loc92 = loc("/tmp/torchinductor_yxiao986/2x/c2xggrpxdpf55aajlcbiqhanjlzau7ilqyuv7v6pjfriz7htp5vs.py":56:51)
#loc93 = loc("/tmp/torchinductor_yxiao986/2x/c2xggrpxdpf55aajlcbiqhanjlzau7ilqyuv7v6pjfriz7htp5vs.py":56:43)
#loc94 = loc("/tmp/torchinductor_yxiao986/2x/c2xggrpxdpf55aajlcbiqhanjlzau7ilqyuv7v6pjfriz7htp5vs.py":56:31)
#loc95 = loc("/tmp/torchinductor_yxiao986/2x/c2xggrpxdpf55aajlcbiqhanjlzau7ilqyuv7v6pjfriz7htp5vs.py":56:65)
#loc96 = loc("/tmp/torchinductor_yxiao986/2x/c2xggrpxdpf55aajlcbiqhanjlzau7ilqyuv7v6pjfriz7htp5vs.py":56:57)
#loc97 = loc("/tmp/torchinductor_yxiao986/2x/c2xggrpxdpf55aajlcbiqhanjlzau7ilqyuv7v6pjfriz7htp5vs.py":56:116)
#loc98 = loc("/tmp/torchinductor_yxiao986/2x/c2xggrpxdpf55aajlcbiqhanjlzau7ilqyuv7v6pjfriz7htp5vs.py":57:20)
#loc99 = loc("/tmp/torchinductor_yxiao986/2x/c2xggrpxdpf55aajlcbiqhanjlzau7ilqyuv7v6pjfriz7htp5vs.py":58:40)
#loc100 = loc("/tmp/torchinductor_yxiao986/2x/c2xggrpxdpf55aajlcbiqhanjlzau7ilqyuv7v6pjfriz7htp5vs.py":58:37)
#loc101 = loc("/tmp/torchinductor_yxiao986/2x/c2xggrpxdpf55aajlcbiqhanjlzau7ilqyuv7v6pjfriz7htp5vs.py":58:49)
#loc102 = loc("/tmp/torchinductor_yxiao986/2x/c2xggrpxdpf55aajlcbiqhanjlzau7ilqyuv7v6pjfriz7htp5vs.py":58:45)
#loc103 = loc("/tmp/torchinductor_yxiao986/2x/c2xggrpxdpf55aajlcbiqhanjlzau7ilqyuv7v6pjfriz7htp5vs.py":58:63)
#loc104 = loc("/tmp/torchinductor_yxiao986/2x/c2xggrpxdpf55aajlcbiqhanjlzau7ilqyuv7v6pjfriz7htp5vs.py":58:55)
#loc105 = loc("/tmp/torchinductor_yxiao986/2x/c2xggrpxdpf55aajlcbiqhanjlzau7ilqyuv7v6pjfriz7htp5vs.py":58:31)
#loc106 = loc("/tmp/torchinductor_yxiao986/2x/c2xggrpxdpf55aajlcbiqhanjlzau7ilqyuv7v6pjfriz7htp5vs.py":58:77)
#loc107 = loc("/tmp/torchinductor_yxiao986/2x/c2xggrpxdpf55aajlcbiqhanjlzau7ilqyuv7v6pjfriz7htp5vs.py":58:69)
#loc108 = loc("/tmp/torchinductor_yxiao986/2x/c2xggrpxdpf55aajlcbiqhanjlzau7ilqyuv7v6pjfriz7htp5vs.py":58:128)
#loc109 = loc("/tmp/torchinductor_yxiao986/2x/c2xggrpxdpf55aajlcbiqhanjlzau7ilqyuv7v6pjfriz7htp5vs.py":59:39)
#loc110 = loc("/tmp/torchinductor_yxiao986/2x/c2xggrpxdpf55aajlcbiqhanjlzau7ilqyuv7v6pjfriz7htp5vs.py":59:36)
#loc111 = loc("/tmp/torchinductor_yxiao986/2x/c2xggrpxdpf55aajlcbiqhanjlzau7ilqyuv7v6pjfriz7htp5vs.py":59:56)
#loc112 = loc("/tmp/torchinductor_yxiao986/2x/c2xggrpxdpf55aajlcbiqhanjlzau7ilqyuv7v6pjfriz7htp5vs.py":59:48)
#loc113 = loc("/tmp/torchinductor_yxiao986/2x/c2xggrpxdpf55aajlcbiqhanjlzau7ilqyuv7v6pjfriz7htp5vs.py":59:31)
#loc114 = loc("/tmp/torchinductor_yxiao986/2x/c2xggrpxdpf55aajlcbiqhanjlzau7ilqyuv7v6pjfriz7htp5vs.py":59:70)
#loc115 = loc("/tmp/torchinductor_yxiao986/2x/c2xggrpxdpf55aajlcbiqhanjlzau7ilqyuv7v6pjfriz7htp5vs.py":59:62)
#loc116 = loc("/tmp/torchinductor_yxiao986/2x/c2xggrpxdpf55aajlcbiqhanjlzau7ilqyuv7v6pjfriz7htp5vs.py":59:121)
#loc117 = loc("/tmp/torchinductor_yxiao986/2x/c2xggrpxdpf55aajlcbiqhanjlzau7ilqyuv7v6pjfriz7htp5vs.py":60:20)
#loc118 = loc("/tmp/torchinductor_yxiao986/2x/c2xggrpxdpf55aajlcbiqhanjlzau7ilqyuv7v6pjfriz7htp5vs.py":61:20)
#loc119 = loc("/tmp/torchinductor_yxiao986/2x/c2xggrpxdpf55aajlcbiqhanjlzau7ilqyuv7v6pjfriz7htp5vs.py":62:38)
#loc120 = loc("/tmp/torchinductor_yxiao986/2x/c2xggrpxdpf55aajlcbiqhanjlzau7ilqyuv7v6pjfriz7htp5vs.py":63:35)
#loc121 = loc("/tmp/torchinductor_yxiao986/2x/c2xggrpxdpf55aajlcbiqhanjlzau7ilqyuv7v6pjfriz7htp5vs.py":64:34)
#loc122 = loc("/tmp/torchinductor_yxiao986/2x/c2xggrpxdpf55aajlcbiqhanjlzau7ilqyuv7v6pjfriz7htp5vs.py":65:25)
#loc123 = loc("/tmp/torchinductor_yxiao986/2x/c2xggrpxdpf55aajlcbiqhanjlzau7ilqyuv7v6pjfriz7htp5vs.py":65:37)
#loc124 = loc("/tmp/torchinductor_yxiao986/2x/c2xggrpxdpf55aajlcbiqhanjlzau7ilqyuv7v6pjfriz7htp5vs.py":65:4)
