#loc = loc("/tmp/torchinductor_yxiao986/fr/cfrexhlrg2xmcksroghx7tzccidua53zflusayjzwalcsoa7gkbn.py":18:0)
#loc25 = loc("/store/comp4901b/yxiao986/miniconda3/envs/comp4901b-hw2/lib/python3.10/site-packages/triton/language/standard.py":46:0)
module {
  tt.func public @triton_poi_fused_mul_silu_1(%arg0: !tt.ptr<f16> {tt.divisibility = 16 : i32} loc("/tmp/torchinductor_yxiao986/fr/cfrexhlrg2xmcksroghx7tzccidua53zflusayjzwalcsoa7gkbn.py":18:0), %arg1: !tt.ptr<f16> {tt.divisibility = 16 : i32} loc("/tmp/torchinductor_yxiao986/fr/cfrexhlrg2xmcksroghx7tzccidua53zflusayjzwalcsoa7gkbn.py":18:0), %arg2: i32 {tt.divisibility = 16 : i32} loc("/tmp/torchinductor_yxiao986/fr/cfrexhlrg2xmcksroghx7tzccidua53zflusayjzwalcsoa7gkbn.py":18:0)) attributes {noinline = false} {
    %0 = tt.get_program_id x : i32 loc(#loc1)
    %c1024_i32 = arith.constant 1024 : i32 loc(#loc2)
    %c1024_i32_0 = arith.constant 1024 : i32 loc(#loc2)
    %1 = arith.muli %0, %c1024_i32_0 : i32 loc(#loc2)
    %2 = tt.make_range {end = 1024 : i32, start = 0 : i32} : tensor<1024xi32> loc(#loc3)
    %3 = tt.splat %1 : i32 -> tensor<1024xi32> loc(#loc4)
    %4 = arith.addi %3, %2 : tensor<1024xi32> loc(#loc4)
    %5 = tt.splat %arg2 : i32 -> tensor<1024xi32> loc(#loc5)
    %6 = arith.cmpi slt, %4, %5 : tensor<1024xi32> loc(#loc5)
    %c1536_i32 = arith.constant 1536 : i32 loc(#loc6)
    %c1536_i32_1 = arith.constant 1536 : i32 loc(#loc6)
    %cst = arith.constant dense<1536> : tensor<1024xi32> loc(#loc6)
    %7 = arith.remsi %4, %cst : tensor<1024xi32> loc(#loc6)
    %c1536_i32_2 = arith.constant 1536 : i32 loc(#loc7)
    %c1536_i32_3 = arith.constant 1536 : i32 loc(#loc7)
    %cst_4 = arith.constant dense<1536> : tensor<1024xi32> loc(#loc7)
    %8 = arith.divsi %4, %cst_4 : tensor<1024xi32> loc(#loc7)
    %c3072_i32 = arith.constant 3072 : i32 loc(#loc8)
    %c3072_i32_5 = arith.constant 3072 : i32 loc(#loc8)
    %cst_6 = arith.constant dense<3072> : tensor<1024xi32> loc(#loc8)
    %9 = arith.muli %cst_6, %8 : tensor<1024xi32> loc(#loc8)
    %10 = arith.addi %7, %9 : tensor<1024xi32> loc(#loc9)
    %11 = tt.splat %arg0 : !tt.ptr<f16> -> tensor<1024x!tt.ptr<f16>> loc(#loc10)
    %12 = tt.addptr %11, %10 : tensor<1024x!tt.ptr<f16>>, tensor<1024xi32> loc(#loc10)
    %13 = tt.load %12, %6 : tensor<1024x!tt.ptr<f16>> loc(#loc11)
    %14 = arith.extf %13 : tensor<1024xf16> to tensor<1024xf32> loc(#loc12)
    %c1536_i32_7 = arith.constant 1536 : i32 loc(#loc13)
    %c1536_i32_8 = arith.constant 1536 : i32 loc(#loc13)
    %cst_9 = arith.constant dense<1536> : tensor<1024xi32> loc(#loc13)
    %15 = arith.addi %cst_9, %7 : tensor<1024xi32> loc(#loc13)
    %c3072_i32_10 = arith.constant 3072 : i32 loc(#loc14)
    %c3072_i32_11 = arith.constant 3072 : i32 loc(#loc14)
    %cst_12 = arith.constant dense<3072> : tensor<1024xi32> loc(#loc14)
    %16 = arith.muli %cst_12, %8 : tensor<1024xi32> loc(#loc14)
    %17 = arith.addi %15, %16 : tensor<1024xi32> loc(#loc15)
    %18 = tt.splat %arg0 : !tt.ptr<f16> -> tensor<1024x!tt.ptr<f16>> loc(#loc16)
    %19 = tt.addptr %18, %17 : tensor<1024x!tt.ptr<f16>>, tensor<1024xi32> loc(#loc16)
    %20 = tt.load %19, %6 : tensor<1024x!tt.ptr<f16>> loc(#loc17)
    %21 = arith.extf %20 : tensor<1024xf16> to tensor<1024xf32> loc(#loc18)
    %22 = tt.call @triton.language.standard.sigmoid__fp32S1024S__(%14) : (tensor<1024xf32>) -> tensor<1024xf32> loc(#loc19)
    %23 = arith.mulf %14, %22 : tensor<1024xf32> loc(#loc20)
    %24 = arith.mulf %23, %21 : tensor<1024xf32> loc(#loc21)
    %25 = tt.splat %arg1 : !tt.ptr<f16> -> tensor<1024x!tt.ptr<f16>> loc(#loc22)
    %26 = tt.addptr %25, %4 : tensor<1024x!tt.ptr<f16>>, tensor<1024xi32> loc(#loc22)
    %27 = arith.truncf %24 : tensor<1024xf32> to tensor<1024xf16> loc(#loc23)
    tt.store %26, %27, %6 : tensor<1024x!tt.ptr<f16>> loc(#loc23)
    tt.return loc(#loc24)
  } loc(#loc)
  tt.func private @triton.language.standard.sigmoid__fp32S1024S__(%arg0: tensor<1024xf32> loc("/store/comp4901b/yxiao986/miniconda3/envs/comp4901b-hw2/lib/python3.10/site-packages/triton/language/standard.py":46:0)) -> tensor<1024xf32> attributes {noinline = false} {
    %cst = arith.constant 0.000000e+00 : f32 loc(#loc26)
    %cst_0 = arith.constant dense<0.000000e+00> : tensor<1024xf32> loc(#loc26)
    %0 = arith.subf %cst_0, %arg0 : tensor<1024xf32> loc(#loc26)
    %1 = math.exp %0 : tensor<1024xf32> loc(#loc27)
    %c1_i32 = arith.constant 1 : i32 loc(#loc28)
    %cst_1 = arith.constant 1.000000e+00 : f32 loc(#loc28)
    %cst_2 = arith.constant dense<1.000000e+00> : tensor<1024xf32> loc(#loc28)
    %2 = arith.addf %cst_2, %1 : tensor<1024xf32> loc(#loc28)
    %c1_i32_3 = arith.constant 1 : i32 loc(#loc29)
    %cst_4 = arith.constant 1.000000e+00 : f32 loc(#loc29)
    %cst_5 = arith.constant dense<1.000000e+00> : tensor<1024xf32> loc(#loc29)
    %3 = arith.divf %cst_5, %2 : tensor<1024xf32> loc(#loc29)
    tt.return %3 : tensor<1024xf32> loc(#loc30)
  ^bb1:  // no predecessors
    %4 = ub.poison : tensor<1024xf32> loc(#loc31)
    tt.return %4 : tensor<1024xf32> loc(#loc31)
  } loc(#loc25)
} loc(#loc)
#loc1 = loc("/tmp/torchinductor_yxiao986/fr/cfrexhlrg2xmcksroghx7tzccidua53zflusayjzwalcsoa7gkbn.py":19:28)
#loc2 = loc("/tmp/torchinductor_yxiao986/fr/cfrexhlrg2xmcksroghx7tzccidua53zflusayjzwalcsoa7gkbn.py":19:33)
#loc3 = loc("/tmp/torchinductor_yxiao986/fr/cfrexhlrg2xmcksroghx7tzccidua53zflusayjzwalcsoa7gkbn.py":20:36)
#loc4 = loc("/tmp/torchinductor_yxiao986/fr/cfrexhlrg2xmcksroghx7tzccidua53zflusayjzwalcsoa7gkbn.py":20:23)
#loc5 = loc("/tmp/torchinductor_yxiao986/fr/cfrexhlrg2xmcksroghx7tzccidua53zflusayjzwalcsoa7gkbn.py":21:21)
#loc6 = loc("/tmp/torchinductor_yxiao986/fr/cfrexhlrg2xmcksroghx7tzccidua53zflusayjzwalcsoa7gkbn.py":22:19)
#loc7 = loc("/tmp/torchinductor_yxiao986/fr/cfrexhlrg2xmcksroghx7tzccidua53zflusayjzwalcsoa7gkbn.py":23:19)
#loc8 = loc("/tmp/torchinductor_yxiao986/fr/cfrexhlrg2xmcksroghx7tzccidua53zflusayjzwalcsoa7gkbn.py":25:40)
#loc9 = loc("/tmp/torchinductor_yxiao986/fr/cfrexhlrg2xmcksroghx7tzccidua53zflusayjzwalcsoa7gkbn.py":25:35)
#loc10 = loc("/tmp/torchinductor_yxiao986/fr/cfrexhlrg2xmcksroghx7tzccidua53zflusayjzwalcsoa7gkbn.py":25:30)
#loc11 = loc("/tmp/torchinductor_yxiao986/fr/cfrexhlrg2xmcksroghx7tzccidua53zflusayjzwalcsoa7gkbn.py":25:45)
#loc12 = loc("/tmp/torchinductor_yxiao986/fr/cfrexhlrg2xmcksroghx7tzccidua53zflusayjzwalcsoa7gkbn.py":25:55)
#loc13 = loc("/tmp/torchinductor_yxiao986/fr/cfrexhlrg2xmcksroghx7tzccidua53zflusayjzwalcsoa7gkbn.py":26:37)
#loc14 = loc("/tmp/torchinductor_yxiao986/fr/cfrexhlrg2xmcksroghx7tzccidua53zflusayjzwalcsoa7gkbn.py":26:47)
#loc15 = loc("/tmp/torchinductor_yxiao986/fr/cfrexhlrg2xmcksroghx7tzccidua53zflusayjzwalcsoa7gkbn.py":26:42)
#loc16 = loc("/tmp/torchinductor_yxiao986/fr/cfrexhlrg2xmcksroghx7tzccidua53zflusayjzwalcsoa7gkbn.py":26:30)
#loc17 = loc("/tmp/torchinductor_yxiao986/fr/cfrexhlrg2xmcksroghx7tzccidua53zflusayjzwalcsoa7gkbn.py":26:52)
#loc18 = loc("/tmp/torchinductor_yxiao986/fr/cfrexhlrg2xmcksroghx7tzccidua53zflusayjzwalcsoa7gkbn.py":26:62)
#loc19 = loc("/tmp/torchinductor_yxiao986/fr/cfrexhlrg2xmcksroghx7tzccidua53zflusayjzwalcsoa7gkbn.py":28:22)
#loc20 = loc("/tmp/torchinductor_yxiao986/fr/cfrexhlrg2xmcksroghx7tzccidua53zflusayjzwalcsoa7gkbn.py":29:18)
#loc21 = loc("/tmp/torchinductor_yxiao986/fr/cfrexhlrg2xmcksroghx7tzccidua53zflusayjzwalcsoa7gkbn.py":31:18)
#loc22 = loc("/tmp/torchinductor_yxiao986/fr/cfrexhlrg2xmcksroghx7tzccidua53zflusayjzwalcsoa7gkbn.py":32:25)
#loc23 = loc("/tmp/torchinductor_yxiao986/fr/cfrexhlrg2xmcksroghx7tzccidua53zflusayjzwalcsoa7gkbn.py":32:36)
#loc24 = loc("/tmp/torchinductor_yxiao986/fr/cfrexhlrg2xmcksroghx7tzccidua53zflusayjzwalcsoa7gkbn.py":32:4)
#loc26 = loc("/store/comp4901b/yxiao986/miniconda3/envs/comp4901b-hw2/lib/python3.10/site-packages/triton/language/standard.py":47:30)
#loc27 = loc("/store/comp4901b/yxiao986/miniconda3/envs/comp4901b-hw2/lib/python3.10/site-packages/triton/language/standard.py":47:29)
#loc28 = loc("/store/comp4901b/yxiao986/miniconda3/envs/comp4901b-hw2/lib/python3.10/site-packages/triton/language/standard.py":47:20)
#loc29 = loc("/store/comp4901b/yxiao986/miniconda3/envs/comp4901b-hw2/lib/python3.10/site-packages/triton/language/standard.py":47:16)
#loc30 = loc("/store/comp4901b/yxiao986/miniconda3/envs/comp4901b-hw2/lib/python3.10/site-packages/triton/language/standard.py":47:11)
#loc31 = loc("/store/comp4901b/yxiao986/miniconda3/envs/comp4901b-hw2/lib/python3.10/site-packages/triton/language/standard.py":47:4)
